src/logs/sine_wave/trading_rl_experiment_trial_4_checkpoint.pt (torch, 46167 bytes, 39 tensors)

module.0.module.network.0.weight f4 [32, 6]
000000 17 88 c8 3e ed 76 a6 3e 67 76 8b 3e cf e0 e7 3d
       0.39166328 0.32512608 0.2723877 0.11322176
000010 1c b8 a7 3e 19 91 12 3e 94 28 53 3e 38 e3 90 3e
       0.32757652 0.14313163 0.20620948 0.28298354
000020 12 f7 0d 3e b3 da 5a bd 93 3e b2 3d 83 65 ad 3e
       0.13863781 -0.053431224 0.08703341 0.3386651
000030 31 0f a7 3e ca e7 81 3e 30 b6 16 3d b2 1c b0 be
       0.32628778 0.25372154 0.03679484 -0.34396893
000040 cd b3 a2 3e 11 b5 be bd fa be 11 bd d7 b4 e0 bd
       0.31777802 -0.093118794 -0.03558252 -0.109719925
000050 dc e6 92 be bb d0 d4 bd eb f8 c3 be c7 7b b3 be
       -0.28691757 -0.10391375 -0.38275847 -0.35055372
000060 38 9a 95 3e d2 7b 15 be 94 04 90 be dd 22 34 3e
       0.29219222 -0.14598015 -0.28128493 0.17591424
000070 b3 ad 7f 3e 82 12 16 3e 7f ac 81 3e 1f 47 e0 bd
       0.24968605 0.14655498 0.25326917 -0.10951065
000080 85 77 b2 be b5 41 7b 3e f3 ba 45 3e 9e b6 11 3e
       -0.3485681 0.24536784 0.19309597 0.14229819
000090 7f 9b 90 3e 2f e0 30 3e 73 40 fa 3d f8 ff eb 3d
       0.28243634 0.17273019 0.12219324 0.115234315
0000a0 8f cc 3e be 5d 97 8d bd 60 6a c1 3e 74 ae 78 be
       -0.1863272 -0.06913636 0.3777647 -0.24285299
0000b0 bb c6 19 3e f4 0b 8f 3e 7d ef 3a be 92 fb 5b 3d
       0.15017216 0.27938807 -0.1825542 0.053706713
0000c0 64 1d c8 bd 51 d2 a9 be c2 48 b3 3e 6c 50 87 be
       -0.09771231 -0.3316827 0.35016447 -0.26428545
0000d0 71 e5 8d be 0e 9b 1f 3e 0d 52 c2 3e a8 ed b1 be
       -0.27714112 0.15586492 0.37953225 -0.3475163
0000e0 39 72 98 be 6a 1a e1 3e c9 92 c0 bc eb 5c c2 be
       -0.29774645 0.43965465 -0.023507493 -0.37961516
0000f0 ae e3 06 3e 8f c3 25 3e 0f 82 c1 3e 67 0b 59 bd
       0.1317279 0.16187881 0.3779454 -0.05298939
000100 cd a7 61 3e a2 0d a4 be 6e 4f f9 3e de ea f1 3d
       0.22036667 -0.3204165 0.48693413 0.118123755
000110 88 a5 15 bd 41 0c d0 be 0e f8 00 3e 75 fc a7 3d
       -0.036534816 -0.4063435 0.12594625 0.08202449
000120 e9 26 b8 3e 8c e1 d4 3e 29 19 8e bd dc 4e 69 3e
       0.35967186 0.4157833 -0.06938393 0.22783989
000130 00 e2 79 be 73 55 64 be 24 81 a6 bd 29 bd 63 3d
       -0.24402618 -0.22298221 -0.081301 0.05560032
000140 8a e0 aa 3e 52 14 d6 3e af 41 53 3e 97 91 e0 bd
       0.33374435 0.41812378 0.20630525 -0.10965269
000150 c1 d3 6e be 55 b3 b7 3e 9c 04 e3 be 39 06 b7 ba
       -0.23322965 0.35879007 -0.44339454 -0.0013963646
000160 37 81 d2 3d 32 52 aa bd ca f1 d1 be f6 6f a1 be
       0.10278552 -0.08316459 -0.41004783 -0.31530732
000170 04 7c ad 3d b5 d6 b9 3e 4c 6c bf 3d 9b c7 bc be
       0.0847092 0.3629662 0.09346828 -0.36871037
000180 ff 57 c8 be 1b a4 c8 3e d0 62 9c 3e 79 23 c4 be
       -0.39129636 0.39187703 0.30544138 -0.38308313
000190 b2 24 cd bb 58 bc 08 3e 27 93 af 3e d5 21 03 be
       -0.006260478 0.13353097 0.34291956 -0.12805875
0001a0 7e 1b 4a 3e 4a 28 b1 be 90 e3 a2 be 00 b2 ab 3e
       0.1973705 -0.3460105 -0.3181424 0.3353424
0001b0 36 8b d3 3d c5 55 b0 3e 46 07 36 be 06 d8 49 3d
       0.10329287 0.34440437 -0.17776212 0.04927828
0001c0 38 31 04 be 73 36 4a 3e 94 78 54 be ec 63 05 3d
       -0.129094 0.19747333 -0.20749122 0.032565996
0001d0 10 34 a5 3e b9 23 34 3d e2 5d 29 3e e8 4d 89 be
       0.32266283 0.04397938 0.1653972 -0.2681725
0001e0 79 95 20 3e 47 4e 87 3d e1 35 9c 3e 02 c0 17 be
       0.1568202 0.06606727 0.30509856 -0.14819339
0001f0 70 1f 5d be 9b 0b f2 3d 13 d7 ca bd 68 e4 82 3e
       -0.21594024 0.1181862 -0.099043034 0.25564885
000200 09 7e 87 3d 23 dc 44 3e 12 66 6e 3e cd 38 2e bd
       0.06615836 0.192246 0.23281124 -0.04253464
000210 0d b5 b5 3d 13 1b 8c 3e ea 00 45 be 84 f1 35 be
       0.08872423 0.27364406 -0.1923863 -0.17767912
000220 f8 ec 82 3e 91 74 50 be 7a 1d c1 bc 38 34 a2 3d
       0.25571418 -0.20356967 -0.023573626 0.07920116
000230 be f1 87 be f2 db b8 3e 78 a9 c6 be fb b9 18 be
       -0.26551622 0.36105305 -0.3880117 -0.14914696
000240 fa 52 05 3d 60 03 b3 3e 95 ab 34 3e 70 0b e7 3d
       0.032549836 0.34963512 0.17643578 0.112814784
000250 c6 73 c8 bc 4d 34 2c be c1 3c a7 be 8f 9d af 3d
       -0.024469268 -0.16816826 -0.3266354 0.08574974
000260 4f 5c 75 3e d8 cf d4 3d 15 ad ac be 1c fe c2 be
       0.23960994 0.103912055 -0.337258 -0.38084495
000270 08 00 5b 3e 3c f5 85 3e d5 67 12 3e 6a d3 b5 3e
       0.2138673 0.2616366 0.14297421 0.3551286
000280 5b 07 b5 3e ac 57 8b be 35 20 30 bd d4 74 1f 3e
       0.35357174 -0.27215326 -0.042999465 0.1557191
000290 35 77 36 3c 4c 4c 46 be e2 dc e7 3d 2c 8f e8 bd
       0.01113682 -0.19365042 0.11321427 -0.11355433
0002a0 f7 2e da bd 95 21 6c 3e 6b 96 0f be f4 c5 53 be
       -0.10653489 0.23059686 -0.14022224 -0.20680982
0002b0 75 28 d7 3d 84 f5 14 be 95 b1 a8 3e 05 4c cc be
       0.105057634 -0.14546782 0.32947984 -0.39901748
0002c0 60 bc 54 bd ab ea b6 3d e3 be 8c 3e 41 d5 0f be
       -0.05193746 0.08931478 0.27489385 -0.14046194
0002d0 75 96 1c 3d 4e 8f 17 3d 54 a6 a6 3e 06 20 34 3e
       0.038229425 0.0370019 0.32548773 0.17590341
0002e0 77 ce 99 3e 1d 37 47 3e d1 a8 93 3d d2 40 82 3e
       0.30040333 0.19454618 0.072099335 0.2544008
0002f0 0f 57 30 bc 0f e1 db be 81 59 22 be ad b3 a7 3e
       -0.010762944 -0.42945144 -0.15854456 0.3275427

module.0.module.network.0.bias f4 [32]
000000 70 d3 b3 be 58 2c 1d 3e 90 67 f9 bd 7f 41 22 3e
       -0.35122252 0.15348947 -0.12177956 0.15845297
000010 a7 35 a8 3e 8a b7 54 3b 44 bb 85 be 31 0b f6 bd
       0.32853433 0.003245803 -0.26119435 -0.12013853
000020 65 59 5f be c9 25 e1 3d 04 01 8c 3e 6b 62 d0 bd
       -0.21811445 0.10993535 0.27344525 -0.10175022
000030 61 55 0b be 4e bb c9 3e f0 cf dc 3e e5 61 0b be
       -0.13606788 0.39400715 0.43127394 -0.13611563
000040 9f 39 41 be a2 fa 43 bd 32 69 bd be 14 b5 1a 3e
       -0.18869637 -0.047846444 -0.3699432 0.15108138
000050 07 b8 a2 be 89 fd a4 be 0d 96 8a be b1 b7 69 be
       -0.31781027 -0.32224682 -0.27067605 -0.22823979
000060 3f 4f 65 3c 66 66 aa bd ac 19 c3 be 1c c4 8f 3e
       0.0139959445 -0.08320312 -0.38105524 0.28079307
000070 cd 4e 96 be e0 4b a2 be 4e 32 b1 be 75 99 74 3d
       -0.29356995 -0.31698513 -0.34608692 0.05971666

module.0.module.network.2.weight f4 [16, 32]
000000 9e f9 db 3d e2 de ef bd 2f 42 7d bd 2b dd dc bd
       0.1074097 -0.117124334 -0.061830696 -0.10784372
000010 14 aa 41 bc ff 2f 19 3e 38 04 78 3d 0e 10 2a 3c
       -0.011820335 0.14959715 0.0605509 0.010379804
000020 38 f1 06 bd d2 0a d3 3d e7 c8 b4 bd e8 82 24 3d
       -0.032944888 0.10304798 -0.088273816 0.040163904
000030 c1 a4 fd 3c 23 c9 30 3d d1 1d f7 bd ba 29 00 be
       0.03096235 0.04316057 -0.12066234 -0.12515917
000040 d7 85 e9 bb 98 b9 4d 3c 49 6f ad bd 34 1f 20 3e
       -0.0071265507 0.012556456 -0.084684916 0.15636903
000050 af 55 80 3c a0 e9 e1 3d be 7e d3 3d da 02 a3 bd
       0.015665857 0.110308886 0.103269085 -0.07959528
000060 98 c2 23 3e 93 8e e0 bd 9a bd 09 3d 41 91 57 3d
       0.159922 -0.10964694 0.033628084 0.05262876
000070 89 87 e8 bc 6b fd c8 bd aa f6 07 3c d3 0b 61 3b
       -0.02838494 -0.09813961 0.008298555 0.0034339323
000080 27 a3 1a 3e 72 7b e4 3d 81 ce 8b bd 3c ff 91 3b
       0.151013 0.11156358 -0.06826497 0.004455475
000090 ad ee 48 3e 1b f8 93 bc f7 1b cd 3d 60 79 b0 3d
       0.19622298 -0.018062642 0.100150995 0.086169004
0000a0 41 3d 6d 3e b9 9c e8 bc 0b 87 63 3e 72 cd 47 3e
       0.23167898 -0.028395044 0.22219484 0.19511965
0000b0 83 39 ed 3d 14 71 2a 3e 2b 02 0f 3e 2e 9f 29 3e
       0.11583235 0.16644698 0.13965671 0.16564628
0000c0 e7 45 5d 3d ab 81 e1 3d ed 3e b4 bc d8 2b b3 3d
       0.054021742 0.1101106 -0.022002662 0.08748597
0000d0 23 e7 5b 3e 2d 05 17 3e 7b 98 f1 3d 39 cd 4d 3c
       0.2147489 0.14748068 0.117966615 0.012561136
0000e0 e7 f8 ed bd 6a 36 14 bd 32 a9 fb 3d c8 f2 d4 bd
       -0.1161974 -0.036184706 0.12288131 -0.10397869
0000f0 40 84 ed 3d 54 23 79 3d 11 f9 d2 bd 40 b5 03 3e
       0.1159749 0.060824707 -0.10301412 0.1286211
000100 4d c0 4a bd f6 d1 b8 3d cb 2a 1d bd 6c b1 1b be
       -0.0494998 0.09024422 -0.03837089 -0.152044
000110 9a 68 d7 bd 66 e1 42 be 98 54 06 3e 47 e4 0c 3e
       -0.10517998 -0.19031295 0.13118207 0.13758956
000120 34 74 5a bd b1 29 9d bd 31 cc 9d 3d a2 5c 20 bd
       -0.053333476 -0.07673968 0.07704962 -0.03915084
000130 8b 55 91 bc 32 68 8d bd a4 02 87 bd aa ef 0d be
       -0.017740985 -0.06904639 -0.065923005 -0.13860956
000140 43 d7 e4 bd 7b 30 e9 3d 49 b9 4f bd 8f 58 af bd
       -0.111738704 0.113862 -0.05071381 -0.08561813
000150 74 18 9f bd 42 08 99 3d 0e 0c 07 3e aa a4 16 3e
       -0.07768336 0.07472278 0.13188192 0.14711252
000160 6d b3 bc 3d a9 04 a6 3d b1 2c 89 bc fc 30 d4 bd
       0.0921391 0.081063576 -0.016744943 -0.103609055
000170 54 a4 cd 3d a0 5c 0a be e8 db 1c 3e cf e9 97 3c
       0.10041109 -0.13511896 0.15318263 0.018544106
000180 82 a8 3a bd d0 6a 2b be 70 07 d9 bd a5 9c 16 ba
       -0.045570858 -0.16739964 -0.10597122 -0.0005745388
000190 6a f8 0f bd 72 c1 33 be 1e 11 b7 bd 2e 61 c4 bb
       -0.035149015 -0.17554262 -0.08938812 -0.00599303
0001a0 b0 da 88 bd ab 37 be bd 1c 71 03 bd 51 63 17 3c
       -0.06682336 -0.092879616 -0.03209029 0.0092399875
0001b0 0a e2 02 3e 35 78 26 be 83 59 85 bc 71 39 3e be
       0.1278154 -0.16256793 -0.016278034 -0.185766
0001c0 e4 b9 f3 bd 4f 6c 9f bc 52 2b 52 bd 72 30 cd 3a
       -0.1190069 -0.019460825 -0.051310845 0.0015654697
0001d0 cd 66 e1 3a 2d df 83 bd 7f e8 aa bd b3 41 07 3e
       0.0017196775 -0.06439052 -0.08345126 0.13208656
0001e0 a3 50 4d bd 02 49 2b be 87 64 59 3d b9 47 ac 3d
       -0.05012573 -0.16727069 0.053074386 0.084121175
0001f0 46 59 76 bd 13 b2 f5 bc 74 5e cb 3d cb b6 40 3d
       -0.06014373 -0.029992139 0.09930125 0.047049325
000200 64 7c 73 3d df b9 c3 3c eb 64 48 be 43 79 d4 3d
       0.0594448 0.023892341 -0.19569747 0.10374691
000210 20 7f c5 3d 34 2e 4f be 3d d4 3f 3d ed 97 48 bd
       0.09643388 -0.20232469 0.046833266 -0.048973013
000220 da cb 1a be dc 76 15 be 0a 56 0a bd 22 79 68 bd
       -0.15116826 -0.14596123 -0.03377346 -0.056756146
000230 b6 be 8f 3d 84 ca 61 3d d8 23 c1 bd 64 c2 ee 3c
       0.07018797 0.055124775 -0.09430665 0.029145427
000240 78 db 36 be 1e cd 62 bd 9f 0b 92 bd d2 9e 5b be
       -0.17857158 -0.055371396 -0.07131123 -0.21447304
000250 db ff b4 bd db 4d ef 3d 2a 42 be bd 4e ae 82 ba
       -0.08837863 0.116847716 -0.092899635 -0.000997016
000260 82 d4 ed 3b 09 5c 8e 3d 2a 7e b3 bb 22 f1 81 bd
       0.007257999 0.06951148 -0.0054776864 -0.063448206
000270 5b f9 43 be 70 75 07 3e d3 53 88 bc 29 d4 f3 3d
       -0.1913809 0.13228393 -0.016641533 0.11905701
000280 35 5e d0 bd 27 cc f3 bb eb 67 37 3c 1c 34 2e be
       -0.101742186 -0.0074401083 0.01119421 -0.17012066
000290 77 89 59 3d 8f 79 d5 b9 8e 51 76 bc da 36 97 bd
       0.053109612 -0.00040717094 -0.015034093 -0.07383509
0002a0 52 b4 9c 3d 93 55 30 be 09 b3 db bd 56 93 0c be
       0.07651581 -0.17220144 -0.107275076 -0.13728079
0002b0 40 2b c6 bc d0 84 e3 bd 6e 77 ed 3d be f9 4a bd
       -0.024190545 -0.11109316 0.11595045 -0.04955458
0002c0 95 cb de bd 87 78 3e 3d 57 01 1c be fd 9f b2 3d
       -0.10878674 0.046501663 -0.15234886 0.087219216
0002d0 bf 36 a4 3c 37 a0 10 3e 4d 9d 7b ba c4 3f de bc
       0.020045636 0.14123617 -0.000959833 -0.027130015
0002e0 72 72 55 3d 66 5f 21 be 6b 85 fa bd 1e e5 d9 bd
       0.052111097 -0.15759048 -0.12232479 -0.10639404
0002f0 4c b5 1b be 42 0e b8 3d 02 f5 3c bc 42 43 17 3e
       -0.15205878 0.089870945 -0.011533024 0.1477175
000300 8f 6c 06 be bd 9f 0e bd b9 c3 eb 3d 53 ce 1b be
       -0.1312735 -0.034820307 0.115119405 -0.15215425
000310 1a 95 0b 3c 87 73 ea 3d 6b 38 2c be 79 94 93 bd
       0.008519435 0.11447816 -0.16818397 -0.07206053
000320 88 95 c5 bd a5 b8 8d 3d be f7 be 3d a9 49 a6 bd
       -0.096476614 0.06919984 0.09324597 -0.08119518
000330 cb de 49 3c 87 20 94 3d fc db 4e bd d0 0e c8 bd
       0.012321184 0.072327666 -0.050502762 -0.0976845
000340 0d e9 d0 3d 57 df f7 bc 49 d8 71 3c a8 f4 18 3e
       0.10200701 -0.030257864 0.014761039 0.14937079
000350 ac e0 9c bb 17 14 de bc 2b a1 6f bc fd 08 26 bc
       -0.004787525 -0.027109189 -0.014625828 -0.010133979
000360 bd f2 7f 3d ef 97 19 3e 46 35 18 3d de b5 d3 3d
       0.062487353 0.14999364 0.03716018 0.10337423
000370 f2 41 7f bd 68 ff b3 bc 63 a9 20 be 64 e3 20 be
       -0.06231875 -0.021972373 -0.15689616 -0.15711743
000380 42 d5 ce 3c 89 33 30 be 07 f3 05 3e d8 62 97 bd
       0.025248174 -0.17207159 0.13080989 -0.073919
000390 15 61 85 3d d5 84 28 bd 43 30 c9 3d 23 8a 02 be
       0.065126576 -0.041142303 0.09823658 -0.12748007
0003a0 ff 36 c0 bd 1f 6e 5f 3d 8f 5f 1d be cc 48 e3 bd
       -0.0938549 0.05454838 -0.15368484 -0.11097869
0003b0 aa 5d 1b bd 72 2c f6 3c 8a 17 48 be 37 e4 9e bd
       -0.037931122 0.03005049 -0.1954023 -0.07758372
0003c0 78 dd 34 be 34 a2 c8 3d 77 98 d1 3d f2 c2 98 bd
       -0.17662609 0.09796563 0.102341585 -0.07459058
0003d0 99 98 d6 bd bb 8f 15 bd 12 87 da bd c3 54 fd 3d
       -0.104783244 -0.036514025 -0.10670294 0.12369683
0003e0 1f 31 5c 3d 58 64 00 3e cb 48 13 3e df e2 a8 bd
       0.053757783 0.12538278 0.14383237 -0.08246397
0003f0 11 22 17 3e 82 ee dc bd 7a d7 4a bd dd 16 ee 3d
       0.14759089 -0.10787679 -0.0495219 0.116254546

module.0.module.network.2.bias f4 [16]
000000 2a 40 26 bd 7f 15 13 bd da 25 8f bc 54 f2 da 3d
       -0.040588535 -0.035909172 -0.017474104 0.10690752
000010 e1 1a 05 3e 7b cc b3 bc 4f ac cb bd 15 2c e7 3c
       0.12998535 -0.02194809 -0.09944975 0.028219262
000020 8b 25 c7 3d e2 ec e0 3d 5b 38 2c be ae d1 2b bd
       0.09723958 0.10982682 -0.16818373 -0.041948013
000030 09 fc 1a be bf 1b a8 bd c8 65 6a bd 5d 8c e7 bd
       -0.15135206 -0.08208417 -0.057225972 -0.11306069

module.0.module.network.4.weight f4 [3, 16]
000000 e6 7c c9 3c 79 85 9b be b5 3b 42 3e ff ad b9 bd
       0.024595689 -0.3037527 0.18968089 -0.0906639
000010 1c d3 fb 3d c8 17 50 be 08 61 ae 3d 3b a4 05 bd
       0.12296125 -0.20321572 0.08514601 -0.032627326
000020 73 f4 81 bd 03 9a 43 3d 52 61 72 be 1e 91 01 3e
       -0.06345453 0.0477543 -0.23669937 0.12653014
000030 d9 51 4b 3e 60 52 c6 3d d6 31 3e 3e 9f e3 4d 3e
       0.19855441 0.096836805 0.18573698 0.20106362
000040 cd 7c 0c 3e 61 66 bd 3c 40 62 20 3e 26 d2 4c be
       0.13719483 0.023120107 0.1566248 -0.2000204
000050 a2 aa b1 bd ee 8c d7 3c 92 93 38 3d 42 82 8e bd
       -0.08675124 0.026312318 0.04506261 -0.069584385
000060 57 2e 8c be ec 9c 95 3d 94 1f 82 bd fa 9a 3a be
       -0.27379104 0.07305321 -0.06353679 -0.18223181
000070 21 3b 53 be 20 e1 b0 3d 7d 66 4b 3d 51 5f fa 3c
       -0.20628025 0.08636689 0.049658287 0.030563029
000080 a1 b9 62 be 24 3a 54 3e 3e 81 0c be 6e a6 4a be
       -0.22141124 0.20725304 -0.13721177 -0.1979005
000090 8c b9 0a be 53 ea d3 bd 9f c9 9d 3d 5c f4 55 be
       -0.13547343 -0.10347428 0.07704472 -0.20893997
0000a0 72 34 41 3e bf c6 b2 3e 36 48 78 be 25 28 b8 bd
       0.18867663 0.34917256 -0.24246296 -0.08992032
0000b0 b3 9c 15 be a0 ee 76 3d e2 3e 54 be b3 ac 8b 3d
       -0.14610557 0.060286164 -0.20727113 0.06820049

module.0.module.network.4.bias f4 [3]
000000 bb 10 11 be a5 03 92 be 4e 99 06 b9
       -0.14166538 -0.28518406 -0.00012836346

module.0.weight f4 [32, 9]
000000 7b d2 88 3c cc 31 84 3b cb 5a 25 3d a9 c1 1a 3d
       0.016701927 0.0040342566 0.04036979 0.037782345
000010 6a 8a 6b ba 08 ef 71 3b 0e 07 f2 b8 ca 92 77 bb
       -0.0008985164 0.0036916155 -0.00011540773 -0.0037776702
000020 e9 5c f9 bc 9c 41 2c 3c 3c 42 23 3a 46 44 1c 38
       -0.03043981 0.010513689 0.0006227826 3.7256883e-05
000030 52 68 60 bc a3 de 2a 39 da 74 24 39 58 3d 43 38
       -0.013696747 0.00016295402 0.0001568379 4.6548754e-05
000040 ac d9 b1 bc 25 77 29 39 36 3f 99 3d f0 9c 80 39
       -0.02171024 0.00016161481 0.0748276 0.0002453099
000050 be ab d6 ba 45 fe c1 bc d4 db 16 b9 fa b5 fe 3c
       -0.0016378087 -0.023680815 -0.00014387007 0.031092633
000060 02 84 58 b8 c9 6f ba bc f1 10 83 b9 39 9e 64 ba
       -5.1621355e-05 -0.022758381 -0.0002499889 -0.0008721087
000070 08 72 a2 ba 90 c0 ac 3c a9 45 64 3a d3 4f 27 3c
       -0.0012393603 0.021087915 0.000870789 0.010211903
000080 98 ab 4b b7 1d aa 95 b8 4a 22 4a bc 21 37 6a b9
       -1.2139695e-05 -7.13656e-05 -0.012337277 -0.00022336516
000090 14 c1 04 ba 1d ae f2 b9 53 75 09 3a 82 6d a9 3b
       -0.0005064171 -0.0004628756 0.0005243618 0.005170525
0000a0 2c 8b d6 b8 fe da c6 b8 e6 05 cb b8 f6 f9 42 b8
       -0.00010230238 -9.482166e-05 -9.680893e-05 -4.6486e-05
0000b0 d9 13 c5 b8 ec dc 8c bc 82 f4 dd bc d4 8b db b9
       -9.397389e-05 -0.017195188 -0.02709413 -0.00041875115
0000c0 34 69 37 bd 95 c8 6a ba 79 d2 ed 39 39 e3 16 b8
       -0.044778064 -0.00089562807 0.00045360977 -3.5974404e-05
0000d0 50 20 d6 b7 8b a3 75 ba a2 3b fe 38 c5 3e 23 39
       -2.5525835e-05 -0.0009370378 0.00012122771 0.00015568275
0000e0 13 7a d6 3b b8 e4 42 bc 2a c1 17 37 ec a2 75 3b
       0.006545314 -0.011895351 9.045276e-06 0.0037481142
0000f0 b1 c6 2e 37 91 c5 a4 37 92 24 1c 38 72 bc 51 3a
       1.041747e-05 1.9642323e-05 3.7227357e-05 0.0008000798
000100 de 18 28 bc d4 40 67 3c fa c6 e7 b9 1c d5 65 36
       -0.010259835 0.014114577 -0.00044208003 3.4247705e-06
000110 de 2f b7 37 d2 4b 82 3a 67 5a 10 bc 48 f8 4a 3b
       2.183759e-05 0.0009940809 -0.008810616 0.003097074
000120 4e 60 49 bd d0 1e e4 3b 5c 46 31 3a 41 17 28 3c
       -0.04916411 0.006961681 0.00067624985 0.01025945
000130 fb b2 35 b9 28 06 37 b9 f0 a4 4e b8 0c 7e ec bc
       -0.0001732818 -0.00017454533 -4.9267837e-05 -0.028868698
000140 22 05 de b8 21 0a 29 3d 46 72 18 3c 15 c1 b9 3b
       -0.00010586741 0.041269425 0.009304589 0.005668769
000150 e0 06 03 bb af e2 79 39 d4 f8 85 39 42 ec 08 3c
       -0.0019993111 0.00023830937 0.00025553128 0.0083571095
000160 40 1b f2 3a 37 19 77 3a 1b 59 28 b9 d5 84 db 3c
       0.0018471256 0.00094260596 -0.00016054923 0.026796738
000170 41 30 07 3b 64 f3 15 39 06 35 ea b7 9f 85 67 b8
       0.0020628127 0.00014300417 -2.7919665e-05 -5.5199136e-05
000180 3b 31 30 b7 14 6c 74 b7 a4 c6 07 b8 2a c2 3d b7
       -1.050188e-05 -1.4568697e-05 -3.2371507e-05 -1.1310485e-05
000190 32 fd b2 37 b0 28 20 ba fa 2c a4 b9 8f b1 35 b7
       2.1337157e-05 -0.00061095785 -0.00031314028 -1.0829782e-05
0001a0 11 70 c3 3c e6 94 05 b6 e7 99 ac b6 81 eb f6 b6
       0.023857148 -1.9905215e-06 -5.143916e-06 -7.3587876e-06
0001b0 48 d1 3e ba 57 b2 65 bc 29 6f 14 3c 60 99 7d bb
       -0.000727911 -0.01401957 0.009059706 -0.0038696155
0001c0 e9 b0 bd bb f2 db 18 b9 5f d8 69 b8 2f 1b ea b7
       -0.0057889116 -0.00014577786 -5.575304e-05 -2.7907632e-05
0001d0 5f 63 9a b8 ff 61 32 3d 2f f0 8f 3d c2 d7 2f 3c
       -7.3618015e-05 0.043550488 0.07028233 0.010732593
0001e0 aa 95 c0 3c 3c dc 67 b9 16 22 c1 b8 e4 00 cc bc
       0.023508865 -0.0002211192 -9.209306e-05 -0.024902768
0001f0 2c ac a2 b8 6b 9b 21 b9 d2 22 00 bd c8 97 a7 3b
       -7.7568315e-05 -0.00015412054 -0.031283207 0.0051145293
000200 d4 d5 07 3b 0d 04 b0 ba 29 2e 26 bc 9e 8a 13 38
       0.0020726817 -0.0013428942 -0.010142841 3.517663e-05
000210 5b 32 1a bb 5b f4 e6 bc b7 5e 8a bc 58 ee 9e bb
       -0.002352855 -0.02819269 -0.016890867 -0.00485019
000220 44 08 03 3d dd 81 55 bc 78 9f 63 bd 4f de 0a 3a
       0.031990305 -0.01303145 -0.055572003 0.0005297409
000230 b3 04 a8 bb 6e 64 3a 3c 4a 5f 04 3b 83 79 84 3a
       -0.0051275133 0.011376483 0.0020198398 0.0010107014
000240 9e 11 1d ba 15 e7 db bc 63 2d d8 39 a2 59 5e ba
       -0.00059917 -0.026843587 0.00041232546 -0.0008481984
000250 7c e1 3c 37 b6 ef bf b8 d8 a0 db b8 49 d1 ed ba
       1.1258173e-05 -9.152239e-05 -0.00010472693 -0.0018144037
000260 22 bb 15 b9 0a 56 45 ba e3 cf e4 bc b9 8a 36 3b
       -0.0001427946 -0.00075277744 -0.02793116 0.0027853681
000270 22 e0 c3 bc 93 39 ac bb 6f 72 56 b8 76 9f 70 b7
       -0.023910586 -0.005255887 -5.112815e-05 -1.4342242e-05
000280 e7 fa fc 38 56 c8 63 b9 e0 25 70 3b 99 c2 44 3d
       0.000120630306 -0.00021723038 0.003664367 0.048037145
000290 1d db 0a 3b 41 a4 72 3a d9 61 a1 3c 4c 90 88 bb
       0.002118773 0.0009256043 0.019699978 -0.004167592
0002a0 b9 6c 9e b8 9b 06 d1 bc bf 35 03 b9 eb fc 31 3d
       -7.554278e-05 -0.025515845 -0.00012513156 0.043454092
0002b0 d0 27 a8 bd 82 3b 33 bc ec 8a 31 3d 15 06 45 39
       -0.08210719 -0.010939481 0.043345377 0.0001878965
0002c0 33 da 19 bd e9 96 79 38 04 4f 13 3c 4c b4 9d bc
       -0.037561607 5.9506772e-05 0.008991007 -0.019251011
0002d0 bb 5b 75 38 0f f7 56 38 45 d2 1a b8 81 3f 81 3b
       5.8497983e-05 5.1251667e-05 -3.691229e-05 0.003944338
0002e0 8c 7f 08 37 90 50 25 37 6d 12 06 37 a4 ba 33 37
       8.1359285e-06 9.853524e-06 7.9913125e-06 1.0712687e-05
0002f0 d2 bf 39 bc 34 a7 be 3c 68 4d a5 bc 29 98 a3 39
       -0.011337237 0.023273088 -0.020178512 0.0003120315
000300 e7 fb d2 3c 50 b5 dc bb c6 3b 05 b8 6e 69 04 b8
       0.025754882 -0.0067354813 -3.176534e-05 -3.156944e-05
000310 9e 3c 0e b8 ff b5 b1 b8 81 62 0c bb 66 d3 f1 bb
       -3.3911892e-05 -8.473917e-05 -0.0021421018 -0.007379937
000320 4d a6 2a 3b eb 5f e4 3a df 74 69 b8 42 5a 83 bb
       0.0026039064 0.0017423605 -5.5660374e-05 -0.0040085623
000330 3f 6d b5 b8 c9 01 14 b9 fb 03 80 b9 4b 7d d2 3d
       -8.651101e-05 -0.00014115045 -0.00024417028 0.10277804
000340 4b 6d 9d bd 26 b9 41 3d 81 a8 7e bc d3 a2 9a 3c
       -0.076868616 0.047295712 -0.015543104 0.018876469
000350 99 59 bb 3a 0c 42 b9 3b bc 9c 99 3a 14 c9 0e 39
       0.001429367 0.0056536254 0.0011719684 0.00013617083
000360 d6 b1 be 3c f6 7c 2b 3b 34 09 4a bb b5 1e 74 bb
       0.023278158 0.0026167012 -0.003082824 -0.0037249748
000370 41 51 f8 39 dd 61 7f 3c b6 71 09 39 6d 86 1f 39
       0.00047362785 0.015587297 0.00013107699 0.00015213499
000380 30 50 ba 39 8e 26 21 bd c7 26 90 3b 40 f2 ec 3c
       0.0003553643 -0.03934341 0.004399154 0.028924108
000390 60 c3 bb bb 26 c3 8b 3b 15 3b 08 39 ad 9a 07 bb
       -0.0057300776 0.004265207 0.0001299198 -0.002069156
0003a0 52 58 36 3a fe 34 00 39 dd 23 00 3a 75 2b b7 3c
       0.000695591 0.00012226772 0.00048881565 0.02235959
0003b0 61 cd ee bc 91 a4 0c bd 9d df 07 bd c1 6f 80 39
       -0.029150667 -0.03433663 -0.03317224 0.00024497326
0003c0 cc d9 b5 38 26 9a 32 bc 8e b8 c6 ba f5 6f f6 39
       8.6713204e-05 -0.01090101 -0.0015161203 0.0004700419
0003d0 b3 ef 30 3a a2 2c 20 3a e4 4f bd 39 59 83 1c 38
       0.0006749585 0.00061101664 0.00036108412 3.7315625e-05
0003e0 27 0a 12 3b 9e 6e b6 3b cd 8f f1 39 a6 fe f2 38
       0.0022283883 0.005567386 0.00046074242 0.00011586891
0003f0 97 b7 0f bc e2 30 2a ba 41 48 a8 3b e6 92 67 3c
       -0.008771799 -0.00064922695 0.0051355665 0.014134144

module.0.bias f4 [32]
000000 23 85 ec bc fb b3 57 bc 58 db 91 ba 14 c2 0f bc
       -0.028872078 -0.013165469 -0.0011127992 -0.008774299
000010 31 f5 75 ba 7b 8b 94 3c 7f ff 3e 38 89 9f c0 37
       -0.00093825447 0.018132916 4.553748e-05 2.2962473e-05
000020 3b 34 80 ba 87 42 4b 3a 96 b5 f1 bc ff 27 e6 3c
       -0.0009781191 0.0007753749 -0.029505532 0.028095243
000030 00 3c 49 3b 79 1a 8c bc 4b 4d 95 b8 8a 88 99 3b
       0.0030705929 -0.017102467 -7.1192706e-05 0.004685466
000040 a5 45 a6 3c 98 30 b1 bb 1a 37 89 b9 c6 f1 a9 3a
       0.020296881 -0.005407404 -0.0002617173 0.0012965731
000050 21 ec a9 37 af 7f 77 b9 52 e2 f8 b9 68 e4 92 3b
       2.0256326e-05 -0.00023603321 -0.00047470868 0.0044827946
000060 29 3f cf b9 0c c7 6c 39 a4 6c ea 3b f2 34 11 bc
       -0.00039529175 0.00022580865 0.0071540643 -0.008862721
000070 71 71 04 3d 2a 67 5d b8 2c 56 33 38 58 d5 1a bd
       0.03233475 -5.2786585e-05 4.275718e-05 -0.037801117

module.2.weight f4 [16, 32]
000000 b1 ed b5 bb 55 0e cb b9 d0 29 8b bc b0 ce 33 bc
       -0.0055520167 -0.00038729855 -0.016987711 -0.010974571
000010 9b 7c e5 bb 04 b4 38 39 d9 08 cd b9 bb 16 0f 3b
       -0.0070033795 0.00017614668 -0.0003910724 0.0021833617
000020 03 29 25 3b c7 65 c7 ba 7b 11 b3 bb 88 13 d1 bb
       0.0025201447 -0.0015212827 -0.0054647303 -0.006380502
000030 8a 05 86 3a dc 8b 1c 3c e9 8c 5c 3a ef 00 78 bc
       0.001022504 0.009554829 0.0008413331 -0.015136941
000040 26 d9 86 3a 79 7c 69 39 63 e6 4b 3c 52 d2 29 3b
       0.0010288104 0.00022266981 0.012445065 0.0025912714
000050 af 5d ee bb ce 02 73 3a df 58 86 3b 2e 33 4f bb
       -0.0072743515 0.0009270132 0.0040999497 -0.0031616199
000060 72 1c 08 3b 1f 5a 59 3c 5e 24 92 3c 6f 89 15 bb
       0.0020768908 0.013266115 0.017839607 -0.0022817513
000070 42 07 92 ba fb 0c 91 3a bc 0d ce b9 00 22 98 bb
       -0.0011141079 0.001106649 -0.00039301615 -0.004642725
000080 28 8b bf 3b aa b2 57 3b c4 35 62 3c c4 53 0d 3c
       0.005845446 0.0032912889 0.013806764 0.008625928
000090 0d 71 50 b9 b3 d4 3e 3a df 45 8e ba 54 22 d3 3b
       -0.0001987854 0.00072796195 -0.0010854563 0.006443301
0000a0 0d 11 3f 3b a9 5c b2 ba 98 17 10 bb 01 bc 19 bb
       0.002915445 -0.0013607937 -0.002198672 -0.0023458006
0000b0 71 cd a5 b9 3d f8 51 ba 37 77 52 3b 8c e5 76 bc
       -0.00031624318 -0.00080097077 0.0032114515 -0.015069377
0000c0 29 83 eb b8 f1 04 c9 39 30 e4 f8 bb 43 61 ac 3b
       -0.00011230104 0.0003834139 -0.0075955614 0.005260618
0000d0 e3 47 0d 3c 22 62 db 39 db 59 bb 3a 9e ea ad bb
       0.008623096 0.0004184405 0.0014293747 -0.0053075096
0000e0 22 4e fa 3b 22 3a be bb fd 06 0b bc 50 e2 2b 3b
       0.0076387087 -0.00580527 -0.008485553 0.0026227422
0000f0 b2 de aa b9 66 18 04 3a 93 64 a8 b9 54 99 4d 3a
       -0.00032590848 0.0005039036 -0.0003211839 0.0007842977
000100 b0 d0 f1 38 ca 97 02 b8 61 36 35 b9 7e 08 2a 38
       0.000115306466 -3.113578e-05 -0.00017281763 4.0539067e-05
000110 76 75 70 37 d3 6d 4d b7 d9 22 5d b7 fd 58 46 38
       1.4332463e-05 -1.2244523e-05 -1.318074e-05 4.7289755e-05
000120 74 e5 dc 37 f4 93 b1 b8 73 29 f1 b7 31 af 04 b8
       2.6332891e-05 -8.467576e-05 -2.874874e-05 -3.1634412e-05
000130 e1 f3 27 38 b8 bc 35 b9 d6 a8 7f 38 c1 61 44 37
       4.0043033e-05 -0.00017331808 6.095398e-05 1.17052705e-05
000140 9b 1c 09 38 ac f4 88 37 b7 b8 7c 37 36 5a 0c 39
       3.2689986e-05 1.6326398e-05 1.5063378e-05 0.00013385047
000150 6f 34 10 37 8e 16 2f 38 32 e2 f2 37 d9 d2 cd b7
       8.595277e-06 4.1744257e-05 2.8953978e-05 -2.4536088e-05
000160 d1 75 64 b8 bb b1 c2 38 63 c5 1a b9 41 09 ed 36
       -5.446916e-05 9.283746e-05 -0.00014760117 7.0642277e-06
000170 c6 57 00 38 f1 d5 83 38 ef e9 b2 b7 fa e0 9b 37
       3.0599324e-05 6.2864165e-05 -2.1328187e-05 1.8582203e-05
000180 d3 a6 a0 38 8a 8b a8 b7 27 20 30 b9 8c 1f fa b9
       7.660468e-05 -2.0092139e-05 -0.00016796646 -0.0004770722
000190 0c 3e c7 36 ad ce 6c b7 12 fc 06 b6 f2 d0 35 38
       5.9378854e-06 -1.4114817e-05 -2.011428e-06 4.334836e-05
0001a0 78 69 5c 38 54 5a 16 b9 df c2 9e b7 a7 bb ce b7
       5.2550313e-05 -0.00014338765 -1.8925812e-05 -2.4644496e-05
0001b0 2e 18 ce 37 a3 65 e4 b8 3b fc 24 38 2c ef 28 ba
       2.4568373e-05 -0.000108908185 3.9335555e-05 -0.0006444331
0001c0 52 56 d8 37 ad 12 f4 37 20 86 81 b8 f3 3b c7 38
       2.5789403e-05 2.9095763e-05 -6.176182e-05 9.500226e-05
0001d0 f6 7e 0f 37 2c ed 15 38 01 c0 80 37 20 01 09 36
       8.553025e-06 3.574525e-05 1.5348198e-05 2.0415246e-06
0001e0 5c 8b 59 b8 3b 2e 58 38 71 33 39 b9 a7 55 34 39
       -5.186662e-05 5.154147e-05 -0.00017662138 0.00017198046
0001f0 71 23 78 38 13 8c 0d 38 48 80 31 35 11 04 2d 37
       5.9160815e-05 3.3747474e-05 6.612431e-07 1.031255e-05
000200 ec 84 1d 39 d1 81 4e 3a 59 c7 b1 b9 90 8e a2 38
       0.00015022204 0.00078776205 -0.00033908596 7.751316e-05
000210 87 f7 73 b9 fc 5c a3 35 c8 9d 6d b7 76 7b 53 38
       -0.00023266497 1.2171508e-06 -1.4163037e-05 5.0421302e-05
000220 07 f3 e8 39 77 25 5a 39 e0 7f be b8 56 98 3d b8
       0.00044431558 0.00020804057 -9.0837246e-05 -4.5202985e-05
000230 a0 cc 8e 38 38 0d 34 b9 b8 3d a7 38 0f 56 88 b9
       6.809202e-05 -0.00017171062 7.9746766e-05 -0.0002600406
000240 b1 9e 02 b9 6d c6 f1 37 23 6c 4e b9 9b 04 57 39
       -0.00012456883 2.8821838e-05 -0.00019685975 0.00020505713
000250 25 57 ec 37 52 49 f3 38 cd 29 8a 38 fc 4b 0d b8
       2.8173972e-05 0.000116008 6.588139e-05 -3.3687786e-05
000260 24 5c 0d b9 37 9c 15 39 dd d3 17 b9 dc 6f 26 38
       -0.00013481133 0.00014267942 -0.00014479407 3.968166e-05
000270 05 39 08 3a df ff 94 38 49 9b c3 b6 2e 92 18 b7
       0.0005196485 7.10485e-05 -5.8295304e-06 -9.093941e-06
000280 e6 fd 14 39 88 e5 8d bb d2 30 1d bc a6 88 17 bb
       0.00014208964 -0.004330341 -0.009594159 -0.002312222
000290 fd 25 96 38 db 8b 30 b8 c2 0f 8a b8 59 0b 41 39
       7.159633e-05 -4.209192e-05 -6.583288e-05 0.00018410142
0002a0 a3 02 e2 b9 30 ea 25 39 84 79 b7 b8 ab 26 0f ba
       -0.00043108044 0.00015822868 -8.748754e-05 -0.0005460779
0002b0 3a 69 93 38 89 85 1a ba 2b 22 48 b9 88 32 10 bb
       7.029106e-05 -0.0005894532 -0.00019086215 -0.0022002775
0002c0 4f 1f 05 39 71 85 87 37 94 a6 83 3a f3 64 e3 39
       0.00012695532 1.6155393e-05 0.0010044151 0.00043372027
0002d0 9c b5 aa 3a 92 19 9c 3a 24 3f 7a ba c4 d8 dd b9
       0.0013024095 0.0011909476 -0.0009546152 -0.00042313908
0002e0 96 40 f5 ba 2d a1 16 3b f5 c3 af 3a 9b df c4 bb
       -0.0018711265 0.0022984252 0.001340984 -0.006008101
0002f0 44 25 b2 3a b6 07 13 39 17 28 38 b8 4d f8 84 38
       0.0013591428 0.00014021885 -4.3906355e-05 6.3405e-05
000300 e2 16 bc b8 2e 7b 9a 37 3e cf 24 39 7d ca ad b7
       -8.968801e-05 1.841559e-05 0.00015717463 -2.0717498e-05
000310 c0 2f 5d b7 56 28 5b 37 05 d7 80 38 16 1d c5 b7
       -1.3183744e-05 1.3062809e-05 6.143566e-05 -2.3497774e-05
000320 dc 76 81 b8 74 f7 a3 38 be be 35 38 d2 b9 ba 37
       -6.1733386e-05 7.8185374e-05 4.3331405e-05 2.2259457e-05
000330 ff a1 dc b7 49 b7 a3 38 56 a1 96 b8 ac 29 07 39
       -2.6301479e-05 7.806585e-05 -7.1826085e-05 0.00012890127
000340 40 8c 9a b7 f8 60 88 b7 ee e8 73 38 81 f3 03 b9
       -1.842354e-05 -1.6257618e-05 5.8152647e-05 -0.00012583846
000350 0c cf 0c b7 57 f8 02 b8 ff 04 8b b7 b1 64 1a 38
       -8.392857e-06 -3.12257e-05 -1.6572418e-05 3.6810237e-05
000360 ec 04 38 38 18 06 a1 b8 91 25 53 39 26 b4 15 b9
       4.3873602e-05 -7.678213e-05 0.00020136523 -0.00014276858
000370 89 3e 9c b9 f2 46 5c b8 39 72 ad 37 f7 ca a7 35
       -0.0002980123 -5.251816e-05 2.0676396e-05 1.250154e-06
000380 7d 54 ad 3b a9 2f 50 bb f3 33 57 bc 71 3b 97 3b
       0.005289613 -0.003176669 -0.013134944 0.0046152403
000390 b5 87 d6 b9 16 60 bb 38 0b 68 d1 38 a6 d1 32 b9
       -0.0004091837 8.934752e-05 9.985276e-05 -0.00017053503
0003a0 cc 3a 6f ba 19 21 fd 39 b8 d5 39 39 51 e3 bc 3a
       -0.0009125888 0.0004828058 0.00017722591 0.0014411007
0003b0 92 e5 33 b9 a4 93 f1 3b 60 e5 43 b9 8a 30 b5 bb
       -0.00017156292 0.0073723365 -0.00018682098 -0.005529468
0003c0 65 eb 46 ba ca 70 a1 b8 18 4a 16 bb e9 ff e7 ba
       -0.0007588177 -7.698087e-05 -0.0022932347 -0.0017700169
0003d0 ff a9 83 ba e8 25 6e ba 4d 5c 3d bc dc ae 86 39
       -0.001004517 -0.0009084628 -0.011557651 0.00025688752
0003e0 e4 f2 c6 39 d6 37 cb bb 43 60 c5 b9 a5 1b 43 bc
       0.0003794647 -0.0062017245 -0.0003764649 -0.011908446
0003f0 00 65 b6 bb e3 c1 23 3a 2a d6 ee 38 22 7e fd 39
       -0.0055662394 0.0006246848 0.000113886155 0.00048349897

module.2.bias f4 [16]
000000 06 46 02 3d 10 f0 0b bd e8 47 bb b9 c4 64 e9 b9
       0.03180506 -0.03416449 -0.00035720994 -0.000445163
000010 d2 ec 35 ba e6 40 4c bc 69 36 a3 39 cb 72 a7 bc
       -0.0006939891 -0.012466645 0.0003113032 -0.02044048
000020 06 55 d4 bb 55 b1 85 3c 1d 6f de ba 56 e0 9f bc
       -0.006479862 0.01631991 -0.001697037 -0.019516151
000030 33 fb db bc c6 73 9a bc f0 5e 50 3c 41 15 6a 3d
       -0.02685318 -0.018854033 0.012717947 0.057149176

module.4.weight f4 [8, 16]
000000 d7 27 91 3d 38 f4 33 3c a8 d2 fe 3c 46 a2 07 bd
       0.07087677 0.010983519 0.031106308 -0.03311374
000010 5f 45 13 bc 0c ac 98 ba 40 76 b6 bc 06 c8 59 bb
       -0.008988707 -0.0011647954 -0.022273183 -0.0033230796
000020 94 59 4f 3d c3 51 b8 3c 8f c2 0d bc ac 78 04 39
       0.050622538 0.022499925 -0.008652343 0.00012633455
000030 05 29 f7 bc cb 8c 20 bd de c3 05 3d 3b 4b 0f 3d
       -0.030170927 -0.03919677 0.032657497 0.034983855
000040 08 5c 1c 3d 1a c2 d0 3b 08 d0 c8 ba d7 04 e5 3b
       0.038173705 0.006370795 -0.0015320787 0.0069891023
000050 e8 ee ed bb ac 83 08 3a 1c e9 42 bb 45 1c c8 3b
       -0.007261146 0.0005207609 -0.0029740995 0.0061068856
000060 6d 9c 62 bc d4 07 af 3a 28 be ef 3c 34 bb aa bb
       -0.01383124 0.0013353773 0.029265478 -0.0052103046
000070 9e f3 3f 3c 03 1f 9a bc 04 a6 92 bb 3a 13 37 bb
       0.011715798 -0.018813616 -0.004475357 -0.0027935044
000080 14 5e 3f bd f3 d3 b4 3b 2c 38 c4 bb 1a 2b c5 bc
       -0.04672058 0.0055184304 -0.0059881415 -0.024068404
000090 60 f7 0d 3c 0f 4d 3d bb e0 08 3a 3c ba 89 06 3d
       0.008664936 -0.0028885042 0.011354655 0.03284619
0000a0 8a 39 05 3d 92 10 88 3a d0 58 14 bd 9d 01 fe 3c
       0.032525577 0.0010380915 -0.03621751 0.031006629
0000b0 89 a6 80 3d ad f2 2b bc 45 37 41 3d ea 8e 67 bd
       0.06281764 -0.01049487 0.04717185 -0.056532778
0000c0 ed cc 59 3c 1d 6c 67 3c 10 6b 06 3a 7a 42 6d 37
       0.013293487 0.014124897 0.0005127648 1.4141779e-05
0000d0 b6 da 06 b9 64 f6 9a b8 26 98 56 37 0b 69 1b ba
       -0.00012860712 -7.389186e-05 1.2790819e-05 -0.00059284334
0000e0 6c 59 26 b9 b8 83 93 38 bc 71 07 3c 92 0d 1a 38
       -0.00015864306 7.034041e-05 0.0082668625 3.67291e-05
0000f0 d0 9b 02 3a f8 37 be 3c 3f d9 de 3a 7a c8 b3 bc
       0.00049823243 0.023220047 0.0017002 -0.02194618
000100 67 2c 92 3b fe 9a 1a 3a f7 f4 8c b7 44 71 31 3c
       0.0044608596 0.00058977294 -1.6803371e-05 0.010830227
000110 a6 40 8d 36 45 35 a0 3b fe 08 8d b7 a5 44 d5 39
       4.2096535e-06 0.0048891627 -1.6812697e-05 0.0004067767
000120 a9 59 6a 38 84 3c 14 b9 6c 98 03 b9 18 d2 54 b8
       5.587345e-05 -0.00014136924 -0.00012549915 -5.0740404e-05
000130 7a da 9a 3b f2 d7 31 39 bf 68 bc b8 68 bc 35 ba
       0.0047257515 0.00016960481 -8.984049e-05 -0.0006932677
000140 1f d3 a8 3c f2 81 35 bd 2f be 2a 3d a3 4f 00 ba
       0.020608483 -0.04431338 0.04168528 -0.00048946793
000150 5c f4 e8 bc f1 94 62 bb b9 41 15 bc ad fe fc 3c
       -0.028436832 -0.003457364 -0.009109908 0.030883158
000160 f8 3f 40 39 b8 bf bb 3b ff dd a2 3c b9 a4 4d ba
       0.00018334377 0.0057296418 0.019881247 -0.0007844675
000170 85 30 f0 3c eb a9 ee 3c bb cb 8e 3b c7 01 51 3b
       0.02932001 0.029133758 0.0043577827 0.0031891929
000180 2f 83 63 3c 97 c7 94 bd eb bb 21 3c b3 1c 85 bb
       0.013886257 -0.07264631 0.009871463 -0.004062259
000190 8a c0 b6 bc 42 e5 08 bc a7 c9 b9 bc 2c c2 6b bc
       -0.022308607 -0.008355441 -0.022679163 -0.014389556
0001a0 b0 a8 22 3d 7c ed 5f bc 61 3a 3e 3b b8 de f9 3c
       0.039711654 -0.0136674605 0.0029026496 0.030501708
0001b0 f1 be 2a 3d 7d bd a6 3c bb dd 1b bb 0f cb 68 bc
       0.041686002 0.020354027 -0.0023783285 -0.014208569
0001c0 4f 6c c9 bb 95 bb f4 39 a0 ff e5 36 6a 60 7f b9
       -0.0061469446 0.00046679066 6.8544905e-06 -0.00024354612
0001d0 38 58 29 37 34 5e 5e 39 be 70 c2 bb db e5 96 39
       1.0093725e-05 0.00021206663 -0.00593385 0.00028781485
0001e0 67 23 ca 39 08 51 e5 b8 1c d8 3d 37 2a 55 92 38
       0.0003855482 -0.00010934664 1.1315595e-05 6.9776856e-05
0001f0 0a b0 f8 b7 d0 e0 99 3b 80 2a 32 b9 d1 74 0d ba
       -2.9645878e-05 0.004695989 -0.00016991235 -0.000539613

module.4.bias f4 [8]
000000 b3 ab 7f 3c cf f8 9b 3d 7b 33 35 3e b5 7b 9b bc
       0.015604901 0.07615816 0.1769542 -0.018979887
000010 32 b5 6e bd 2e ac 5f bc cd a8 f4 3d d3 60 cf bc
       -0.05827827 -0.013651891 0.11946259 -0.025314724

module.6.weight f4 [1, 8]
000000 bf 4e 24 3e d2 55 8a 3d 4c 53 47 be 01 ac 31 bd
       0.16045664 0.0675465 -0.19465369 -0.043376926
000010 89 43 55 3d b2 c6 53 bd df 94 4e be 2e f3 19 3d
       0.05206636 -0.051703162 -0.20173977 0.03758543

exp_avg f4 [32, 6]
000000 74 0d 1e b5 74 0d 1e b5 cd c5 b5 34 da 60 10 35
       -5.8879164e-07 -5.8879164e-07 3.3857796e-07 5.378512e-07
000010 45 08 0a b5 04 4e 09 b5 eb 89 35 b4 eb 89 35 b4
       -5.142104e-07 -5.1150005e-07 -1.6907113e-07 -1.6907113e-07
000020 4c 34 ed 33 4f c9 27 34 56 b4 ab b4 16 db a9 b4
       1.1045685e-07 1.5626323e-07 -3.1982444e-07 -3.163811e-07
000030 7e 03 a8 33 7e 03 a8 33 f1 82 11 b3 5a 3b d0 b3
       7.823745e-08 7.823745e-08 -3.3879534e-08 -9.696551e-08
000040 82 0f 06 33 b4 4f 03 33 c8 34 04 b4 c8 34 04 b4
       3.121341e-08 3.0573304e-08 -1.231266e-07 -1.231266e-07
000050 fb 17 f0 33 48 bb e2 33 81 a7 c5 34 5f 47 c7 34
       1.1180233e-07 1.0558011e-07 3.6815985e-07 3.7118568e-07
000060 3d 1e c2 b4 3d 1e c2 b4 4f 6b e9 34 55 fb 2d 34
       -3.6157317e-07 -3.6157317e-07 4.347771e-07 1.6203315e-07
000070 f6 94 f6 b4 4d 04 f2 b4 26 16 61 33 26 16 61 33
       -4.5929454e-07 -4.5079142e-07 5.240704e-08 5.240704e-08
000080 04 81 1d b1 55 2f a2 b3 7e 63 12 32 83 55 16 32
       -2.2919844e-09 -7.5523225e-08 8.52094e-09 8.750592e-09
000090 91 2b ef b4 91 2b ef b4 03 4d 84 34 4a d7 e4 34
       -4.4548918e-07 -4.4548918e-07 2.464295e-07 4.2624953e-07
0000a0 55 13 a1 34 b9 91 a8 34 4e 68 ab 33 4e 68 ab 33
       3.0002653e-07 3.1398466e-07 7.981781e-08 7.981781e-08
0000b0 86 52 7c b3 a2 eb a2 b3 af 91 ad 33 a1 3f ab 33
       -5.8748377e-08 -7.586574e-08 8.08244e-08 7.974382e-08
0000c0 cd 46 0d 35 cd 46 0d 35 07 13 17 b5 1f f6 84 b4
       5.262962e-07 5.262962e-07 -5.627957e-07 -2.4765993e-07
0000d0 b3 1f c3 31 b7 27 5a b1 fd 36 dc 33 fd 36 dc 33
       5.6788507e-09 -3.174575e-09 1.02545506e-07 1.02545506e-07
0000e0 cd ef 44 34 31 77 ae b4 21 28 a9 34 98 c7 a9 34
       1.8341161e-07 -3.249675e-07 3.15079e-07 3.1623927e-07
0000f0 fc b5 23 33 fc b5 23 33 7c aa 97 b4 48 77 52 34
       3.811691e-08 3.811691e-08 -2.8249985e-07 1.9601168e-07
000100 c5 04 e6 32 c7 b4 02 33 fb aa 22 b5 fb aa 22 b5
       2.6777693e-08 3.04324e-08 -6.059851e-07 -6.059851e-07
000110 3d e6 b9 34 85 b8 1a 35 96 ed 57 b4 d5 94 4e b4
       3.4626456e-07 5.763798e-07 -2.0109869e-07 -1.923939e-07
000120 5b fd 5f b4 5b fd 5f b4 ce c0 1b 34 17 25 4a 34
       -2.0860664e-07 -2.0860664e-07 1.4505642e-07 1.8826209e-07
000130 04 2a d6 33 fd 64 df 33 43 fa 30 35 43 fa 30 35
       9.972794e-08 1.04026164e-07 6.592929e-07 6.592929e-07
000140 69 92 bc b4 12 11 3a b5 56 07 93 b4 e1 82 96 b4
       -3.5124256e-07 -6.931524e-07 -2.738622e-07 -2.8034904e-07
000150 ae 26 b6 b4 ae 26 b6 b4 70 1e f2 34 18 84 ff 33
       -3.3928285e-07 -3.3928285e-07 4.509816e-07 1.18983905e-07
000160 78 52 f7 b3 9e 3e e7 b3 6c f8 35 35 6c f8 35 35
       -1.1516835e-07 -1.0768166e-07 6.7789256e-07 6.7789256e-07
000170 ac 57 0e b5 77 c0 04 b5 94 ac b8 33 e9 bc a9 33
       -5.30267e-07 -4.9453905e-07 8.5995595e-08 7.904038e-08
000180 ca 04 04 32 ca 04 04 32 2f 90 b0 32 22 64 22 b3
       7.6845e-09 7.6845e-09 2.0554664e-08 -3.7809635e-08
000190 64 a7 d3 32 61 9b d4 32 ce 22 19 b5 ce 22 19 b5
       2.4639753e-08 2.4750706e-08 -5.704759e-07 -5.704759e-07
0001a0 3c 4c 36 34 4c 64 3d 35 40 68 22 b4 05 4b 19 b4
       1.6977805e-07 7.055394e-07 -1.5125352e-07 -1.4276527e-07
0001b0 d5 77 b0 b4 d5 77 b0 b4 59 82 21 34 45 8b c5 34
       -3.2869744e-07 -3.2869744e-07 1.5041714e-07 3.679544e-07
0001c0 81 ea bc b3 81 61 b3 b3 2e 46 6e 35 2e 46 6e 35
       -8.797088e-08 -8.353073e-08 8.8764034e-07 8.8764034e-07
0001d0 d8 59 31 b5 0e 9b 40 b5 52 f2 02 34 bc 4b f4 33
       -6.606838e-07 -7.175121e-07 1.2195349e-07 1.13759114e-07
0001e0 79 52 94 b3 79 52 94 b3 f4 07 9f b1 7c a7 f3 33
       -6.906789e-08 -6.906789e-08 -4.628413e-09 1.13460345e-07
0001f0 9c 76 59 32 e3 42 6e 32 85 89 65 2b 85 89 65 2b
       1.2658031e-08 1.3868632e-08 8.154799e-13 8.154799e-13
000200 82 7f c8 ab 69 0e 1a 2c e7 27 6c 2c e7 27 6c 2c
       -1.4246245e-12 2.1892716e-12 3.3559767e-12 3.3559767e-12
000210 ff 04 ac b4 ff 04 ac b4 39 39 3f 34 64 79 b0 34
       -3.2041132e-07 -3.2041132e-07 1.7809079e-07 3.2870878e-07
000220 39 a0 73 b3 44 9a 5e b3 aa a7 1b 33 aa a7 1b 33
       -5.6723568e-08 -5.1828707e-08 3.624124e-08 3.624124e-08
000230 0a 58 14 34 36 4d 49 b4 62 19 1a 35 7b e3 1a 35
       1.3815603e-07 -1.8747673e-07 5.740641e-07 5.77005e-07
000240 5d 11 5b 34 5d 11 5b 34 02 07 05 b4 e3 2f 43 b4
       2.0402281e-07 2.0402281e-07 -1.238914e-07 -1.8178211e-07
000250 0d 4f 4f b4 90 62 52 b4 1b 0e 89 32 1b 0e 89 32
       -1.9307136e-07 -1.9593631e-07 1.5955314e-08 1.5955314e-08
000260 91 b8 0c b3 90 8d 9f 31 99 76 b4 31 d1 4f cb 31
       -3.2764152e-08 4.643603e-09 5.2521725e-09 5.9171517e-09
000270 40 cc 67 29 40 cc 67 29 0d 7e ca a9 41 b9 1b 2a
       5.1469462e-14 5.1469462e-14 -8.9924684e-14 1.3831038e-13
000280 4d c9 6e 2a 4d c9 6e 2a 34 fc 89 b3 34 fc 89 b3
       2.1208487e-13 2.1208487e-13 -6.425435e-08 -6.425435e-08
000290 76 5a da 33 27 fc ce 32 e8 00 e3 b3 92 b9 dd b3
       1.0167871e-07 2.4096222e-08 -1.0570676e-07 -1.03248695e-07
0002a0 80 bf c7 b4 80 bf c7 b4 96 d7 29 34 e6 c3 ee 34
       -3.7205973e-07 -3.7205973e-07 1.5817781e-07 4.447349e-07
0002b0 66 bd 6e b2 05 de 09 b2 00 00 00 00 00 00 00 00
       -1.38964875e-08 -8.024931e-09 0.0 0.0
0002c0 00 00 00 00 00 00 00 00 00 00 00 00 00 00 00 00
       0.0 0.0 0.0 0.0
0002d0 89 7f 91 b4 89 7f 91 b4 67 69 87 34 1a f1 57 34
       -2.710115e-07 -2.710115e-07 2.52224e-07 2.0111148e-07
0002e0 6f 82 d5 34 67 9e d5 34 2a 5b 44 b5 2a 5b 44 b5
       3.9769245e-07 3.9789595e-07 -7.314835e-07 -7.314835e-07
0002f0 92 9b e8 34 b0 34 3d 35 16 12 99 b4 e6 77 93 b4
       4.332656e-07 7.0484657e-07 -2.851163e-07 -2.746812e-07

exp_avg_sq f4 [32, 6]
000000 03 63 e5 2e 03 63 e5 2e 72 dd 10 2e 71 a4 c9 2e
       1.04313023e-10 1.04313023e-10 3.2938492e-11 9.1696324e-11
000010 79 f5 d9 2e 44 6e d9 2e f4 30 68 2f f4 30 68 2f
       9.911622e-11 9.8876046e-11 2.1117669e-10 2.1117669e-10
000020 8f d9 29 2e d6 b7 9c 2f b6 f3 45 2e e0 5d 4a 2e
       3.8619382e-11 2.8506858e-10 4.5009073e-11 4.601286e-11
000030 59 fa 63 2f 59 fa 63 2f e6 ff 10 2e c9 e2 ae 2f
       2.0734471e-10 2.0734471e-10 3.2969093e-11 3.1811556e-10
000040 a5 ec 6c 2e b1 78 6c 2e b6 00 8f 2f b6 00 8f 2f
       5.387037e-11 5.3767383e-11 2.6012054e-10 2.6012054e-10
000050 23 33 aa 2e cb 95 a2 2f 84 25 c5 2e 6a b5 d5 2e
       7.739789e-11 2.9574063e-10 8.965187e-11 9.718344e-11
000060 d9 a8 60 2f d9 a8 60 2f fc d3 23 2e e5 d4 09 30
       2.0432668e-10 2.0432668e-10 3.725019e-11 5.014285e-10
000070 65 4a c0 2e 7d 23 c0 2e cb 85 65 2f cb 85 65 2f
       8.744364e-11 8.737453e-11 2.0874961e-10 2.0874961e-10
000080 0e d1 12 2f 81 50 17 2f 94 3f 9e 2e 15 a4 9d 2e
       1.3352894e-10 1.3761971e-10 7.196302e-11 7.16868e-11
000090 1d 08 dc 2f 1d 08 dc 2f 37 1e 9b 2e 85 a3 0f 30
       4.0023532e-10 4.0023532e-10 7.053951e-11 5.225547e-10
0000a0 0c 07 e5 2e d1 ff fc 2e d5 f4 c4 2d d5 f4 c4 2d
       1.0414966e-10 1.15050754e-10 2.2391347e-11 2.2391347e-11
0000b0 ae 3d 35 2e f4 c8 e2 2c c9 c0 42 2d 5b 50 41 2d
       4.1209418e-11 6.4456166e-12 1.107043e-11 1.0988622e-11
0000c0 6e a7 f6 2e 6e a7 f6 2e 99 c6 1a 2f 0d 4b c6 2d
       1.1216526e-10 1.1216526e-10 1.4076774e-10 2.2543323e-11
0000d0 76 00 2e 2d 82 bc 21 2d 26 9c 33 2e 26 9c 33 2e
       9.890857e-12 9.193648e-12 4.0838576e-11 4.0838576e-11
0000e0 55 40 3f 2f 26 1a 31 2f 74 60 fd 2f 84 bc 02 30
       1.7394204e-10 1.6107346e-10 4.6088966e-10 4.756162e-10
0000f0 31 8e 30 2f 31 8e 30 2f c7 cc 0b 2f 9a ad 67 2f
       1.6057623e-10 1.6057623e-10 1.2714728e-10 2.1071003e-10
000100 34 10 ce 2e f2 31 d0 2e 4d 9c d2 2e 4d 9c d2 2e
       9.370674e-11 9.467617e-11 9.577459e-11 9.577459e-11
000110 28 0c b0 2d b2 fa 00 2f 78 73 13 2d b4 c5 0f 2d
       2.0014282e-11 1.1730597e-10 8.381622e-12 8.172508e-12
000120 75 8a 49 2e 75 8a 49 2e f4 ce c2 2e 14 c6 84 2f
       4.5825083e-11 4.5825083e-11 8.858861e-11 2.4151403e-10
000130 68 41 8b 2f 01 7a 91 2f 57 86 38 2f 57 86 38 2f
       2.5330427e-10 2.6462035e-10 1.678243e-10 1.678243e-10
000140 97 75 05 2f 15 8a 06 2f 0d 2f a9 2e fb db aa 2e
       1.2138056e-10 1.2236286e-10 7.693588e-11 7.769781e-11
000150 3f 0b 5b 2e 3f 0b 5b 2e 81 ea 4f 2e 18 12 a2 2e
       4.9804823e-11 4.9804823e-11 4.7274632e-11 7.370121e-11
000160 81 d7 37 2f dd 6a 3f 2f 39 f0 86 2f 39 f0 86 2f
       1.6720315e-10 1.7409314e-10 2.4545146e-10 2.4545146e-10
000170 2f f0 6d 2f 01 6c f8 2e cc 8a 4a 2e d1 b2 48 2e
       2.1640355e-10 1.12969196e-10 4.605276e-11 4.5633556e-11
000180 bd b5 09 2e bd b5 09 2e 3d 5a 2c 2e ab 7c d8 2d
       3.131161e-11 3.131161e-11 3.918842e-11 2.461172e-11
000190 4f 9b d5 2d 12 4f d9 2d 40 fc 3e 2f 40 fc 3e 2f
       2.4284267e-11 2.4705158e-11 1.7370017e-10 1.7370017e-10
0001a0 4c 22 27 2e 58 1a 75 2f a2 01 fd 2d b9 79 0b 2e
       3.8001866e-11 2.229198e-10 2.8763495e-11 3.1713052e-11
0001b0 d5 9e b0 2e d5 9e b0 2e 3f 81 34 2d 81 87 0e 2f
       8.0317676e-11 8.0317676e-11 1.0260514e-11 1.2962965e-10
0001c0 ce 46 fe 2d 3c 03 01 2e c1 5e 72 30 c1 5e 72 30
       2.89079e-11 2.9334077e-11 8.817374e-10 8.817374e-10
0001d0 c4 c0 2e 30 d7 2d 03 30 54 fa 8c 2f ec 7f 89 2f
       6.357477e-10 4.7722665e-10 2.564372e-10 2.501105e-10
0001e0 3f 26 18 2e 3f 26 18 2e 40 75 af 2d d2 91 2c 2e
       3.4594768e-11 3.4594768e-11 1.9947266e-11 3.9237787e-11
0001f0 6d 10 b1 2c 46 2d b8 2c 3b 7d 31 27 3b 7d 31 27
       5.032466e-12 5.234621e-12 2.4631572e-15 2.4631572e-15
000200 3a 62 90 2a 79 84 83 2b 7b d9 ca 2b 7b d9 ca 2b
       2.5647697e-13 9.344878e-13 1.4413326e-12 1.4413326e-12
000210 5e 42 58 2f 5e 42 58 2f fa b1 d9 2d 5d 02 ac 2f
       1.9668664e-10 1.9668664e-10 2.4749081e-11 3.1288297e-10
000220 54 ef 52 2d 9d 40 6c 2d 48 fe 18 2d 48 fe 18 2d
       1.19902595e-11 1.3429394e-11 8.6966614e-12 8.6966614e-12
000230 cb dc fc 2d 10 8d 8c 2d b5 2f 1f 2f f6 cd 25 2f
       2.8747135e-11 1.5978802e-11 1.4477915e-10 1.5079835e-10
000240 1a 17 8c 30 1a 17 8c 30 03 6a a0 2f 45 b9 88 30
       1.0192907e-09 1.0192907e-09 2.9179156e-10 9.947959e-10
000250 d4 90 4a 2f f9 d9 5b 2f 3f 94 af 2e 3f 94 af 2e
       1.8423246e-10 1.9995373e-10 7.9844124e-11 7.9844124e-11
000260 9f 85 87 2e b2 8b 59 2e 8c 9c 94 2f 18 10 95 2f
       6.162825e-11 4.9464162e-11 2.7032276e-10 2.7114377e-10
000270 2c 41 82 25 2c 41 82 25 37 73 4d 26 e4 3a 19 27
       2.2595567e-16 2.2595567e-16 7.127981e-16 2.126494e-15
000280 11 e8 c2 27 11 e8 c2 27 92 af 52 2f 92 af 52 2f
       5.4097424e-15 5.4097424e-15 1.9161764e-10 1.9161764e-10
000290 4f 59 1f 2f e6 c9 f4 2e 6f 3d 3b 2e 4e de 44 2e
       1.4492695e-10 1.11317e-10 4.257344e-11 4.4762687e-11
0002a0 d4 c0 b2 2f d4 c0 b2 2f 3f 66 42 2e 61 47 0c 30
       3.2515024e-10 3.2515024e-10 4.4201306e-11 5.103314e-10
0002b0 4e 16 b7 2d a6 b7 bf 2d 00 00 00 00 00 00 00 00
       2.0814597e-11 2.1795742e-11 0.0 0.0
0002c0 00 00 00 00 00 00 00 00 00 00 00 00 00 00 00 00
       0.0 0.0 0.0 0.0
0002d0 2a 7f 26 2f 2a 7f 26 2f 38 c4 55 2f 75 b6 5d 2e
       1.514279e-10 1.514279e-10 1.9441948e-10 5.0411637e-11
0002e0 74 81 1b 2f 27 e1 1b 2f cb 8a 96 2f cb 8a 96 2f
       1.4143159e-10 1.4177158e-10 2.738346e-10 2.738346e-10
0002f0 cc 0e 96 2e 04 e0 b2 2f 4d fc a2 2e bd e3 a3 2e
       6.823839e-11 3.2537184e-10 7.411725e-11 7.452836e-11

exp_avg f4 [32]
000000 f6 e5 3b b5 81 00 13 b5 d5 b0 61 33 ac 6c 24 b5
       -6.9997566e-07 -5.47625e-07 5.2547723e-08 -6.12529e-07
000010 0e 7d d5 b5 60 28 17 b3 8f 40 fb b4 79 0b 0a b4
       -1.5906132e-06 -3.5194148e-08 -4.6799366e-07 -1.2856425e-07
000020 24 53 eb b4 f2 fa 74 b5 03 80 24 b6 74 51 38 b5
       -4.3832654e-07 -9.1262257e-07 -2.4512417e-06 -6.866387e-07
000030 b9 bd 94 b4 b5 13 e7 b5 41 08 b3 b5 bf 2d 68 b5
       -2.770519e-07 -1.7216577e-06 -1.3338941e-06 -8.6493304e-07
000040 a9 a1 2f 33 22 d9 23 b5 e5 6c 93 b4 17 16 bf b5
       4.089239e-08 -6.10382e-07 -2.7460115e-07 -1.4237038e-06
000050 f4 46 88 b3 e7 27 6c 2c 66 ad a8 b4 3b 48 35 b5
       -6.3459e-08 3.3559767e-12 -3.1418602e-07 -6.7532864e-07
000060 e5 af e7 34 05 5a ff b2 4d c9 6e 2a 47 2d 51 b5
       4.3155083e-07 -2.9726843e-08 2.1208487e-13 -7.7924454e-07
000070 41 95 9c b4 00 00 00 00 f0 8a f7 34 a0 a6 69 b5
       -2.916586e-07 0.0 4.6108426e-07 -8.7041735e-07

exp_avg_sq f4 [32]
000000 d2 a0 19 2f 4a 17 96 2e b3 45 00 2f 1d 6c b4 2f
       1.3972404e-10 6.825347e-11 1.1666294e-10 3.2818628e-10
000010 2a b8 6a 30 49 bf b6 2f c0 c3 80 2f 3b 52 67 2d
       8.5390417e-10 3.3241523e-10 2.3422153e-10 1.3149089e-11
000020 0f 9e aa 2e 52 08 0f 31 7c b5 1d 31 fd c9 a7 2e
       7.758782e-11 2.0813968e-09 2.2949669e-09 7.630161e-11
000030 db c1 c7 2f 12 bd 82 30 42 2d 42 30 7b 77 bb 2f
       3.6335632e-10 9.512482e-10 7.0641104e-10 3.4099998e-10
000040 c9 8a c7 2d a9 5b 22 2f f3 07 0f 2e a7 29 17 31
       2.2685314e-11 1.4766378e-10 3.2521496e-11 2.1997069e-09
000050 d0 48 e2 2c 7b d9 ca 2b cc 6e c3 2e e1 bd 47 2f
       6.43139e-12 1.4413326e-12 8.887255e-11 1.8166403e-10
000060 c6 49 e5 30 71 4c ce 2f 11 e8 c2 27 6e 28 10 2f
       1.6682911e-09 3.7525497e-10 5.4097424e-15 1.3111087e-10
000070 cb 79 18 2f 00 00 00 00 a4 e5 5f 2f bb 21 96 2f
       1.3867589e-10 0.0 2.0363317e-10 2.7308808e-10
