src/logs/sine_wave/trading_rl_experiment_trial_1_checkpoint.pt (torch, 46167 bytes, 39 tensors)

module.0.module.network.0.weight f4 [32, 6]
-0.020457711 -0.1922571 0.10379128 -0.31384 -0.42263025 -0.027755735 -0.33162144 0.30608088
-0.36266094 -0.25705755 -0.31334847 0.27183408 -0.28277817 0.22047922 0.36350185 -0.39480317
-0.0011680301 0.389217 0.17678456 -0.38212666 0.108746886 0.11436844 -0.15463017 -0.10486859
0.22604218 0.15140541 -0.39000866 -0.10260889 -0.32554924 0.24820271 -0.27972046 0.27018842
0.022119746 0.31967118 -0.0038775278 0.34644777 -0.11982897 -0.11828627 -0.10542608 0.40093583
0.06938081 0.04861124 -0.4155274 0.1545869 0.3314085 -0.17933197 0.37296057 0.2843078
-0.3699978 0.2383972 -0.28683874 -0.33862433 0.28072438 -0.28895634 -0.16386048 -0.4305517
-0.043430634 0.30498156 -0.29509187 -0.27833238 0.06403761 -0.04908683 0.31399137 0.031736244
-0.07440828 0.33363152 -0.30381086 -0.14038965 0.16685562 -0.25084865 -0.29122564 0.03865614
-0.37955806 0.41351125 0.38951612 -0.29440942 0.11505321 0.011090949 0.23172773 0.20971824
0.039299127 0.3953709 0.08747057 -0.0039894735 -0.04115336 -0.04688351 -0.015058967 -0.12984218
-0.24550176 -0.011003088 -0.13615261 -0.13052768 -0.047445405 -0.29901147 -0.11284211 0.33632115
0.102323726 0.10199946 0.27890682 0.24279569 0.3440617 0.23495719 -0.39447337 0.15397656
0.13226202 0.15297118 0.242554 0.14555047 -0.009350649 -0.35476732 0.391942 -0.1387088
0.2228382 0.14580657 -0.24894223 0.121617556 -0.27204317 0.17503026 -0.33966252 0.079722546
0.25426385 -0.24522297 0.13659622 0.38656998 -0.36575928 0.044810075 -0.2250853 0.28437448
0.32555825 0.29285148 0.059282687 -0.25104588 0.38402623 0.051843077 0.34986082 -0.18332405
0.15743552 0.14825448 -0.042041287 0.06513886 -0.12530488 -0.40330905 -0.03589368 0.09899456
-0.20768282 -0.18858667 0.22468023 -0.36092752 0.40408117 0.204096 0.12163613 0.2790861
0.120045856 0.3623069 -0.20462692 -0.1734318 -0.085325375 -0.30040604 -0.14162144 -0.36143032
0.34945288 -0.20542319 -0.1530148 0.28082454 0.36254814 0.028480962 -0.19628802 -0.07827685
0.2230867 -0.19935752 0.32931557 -0.31861857 0.15200269 0.22226436 0.37079084 -0.14299135
-0.2635177 0.15652801 0.039801203 0.40623528 -0.021007355 -0.1944142 0.27615973 -0.27149954
-0.403496 0.3305724 0.25261217 -0.26782265 -0.25583753 -0.33397475 -0.4079779 -0.4233073
00000000: ee96 a7bc 0cdf 44be 8690 d43d a3af a0be
00000010: fe62 d8be ff5f e3bc 49ca a9be a2b6 9c3e
00000020: b2ae b9be 0c9d 83be 366f a0be d62d 8b3e
00000030: 4dc8 90be 4ec5 613e ea1c ba3e a423 cabe
00000040: 9618 99ba 7347 c73e 0307 353e 1ba6 c3be
00000050: b0b6 de3d 003a ea3d 5f57 1ebe 58c5 d6bd
00000060: 9a77 673e 050a 1b3e 37af c7be 9c24 d2bd
00000070: 64ae a6be da28 7e3e 8537 8fbe 2356 8a3e
00000080: 7834 b53c f1ab a33e 1f1e 7ebb 9a61 b13e
00000090: e468 f5bd 1240 f2bd a1e9 d7bd 7647 cd3e
000000a0: 8717 8e3d 941c 473d 02c0 d4be 074c 1e3e
000000b0: 60ae a93e cda2 37be b0f4 be3e cb90 913e
000000c0: 5a70 bdbe 651e 743e 87dc 92be 2b60 adbe
000000d0: 1bbb 8f3e 16f2 93be 0bcb 27be 4671 dcbe
000000e0: 52e4 31bd 8b26 9c3e 4816 97be 9581 8ebe
000000f0: 2726 833d 460f 49bd 7ac3 a03e ddfd 013d
00000100: 5e63 98bd c0d1 aa3e 198d 9bbe 4ec2 0fbe
00000110: 33dc 2a3e 3c6f 80be 871b 95be e755 1e3d
00000120: 6f55 c2be bfb7 d33e a86e c73e d5bc 96be
00000130: 04a1 eb3d d0b6 353c 094a 6d3e 61c0 563e
00000140: 1ff8 203d 0e6e ca3e c523 b33d 21ba 82bb
00000150: 6d90 28bd ec08 40bd e3b9 76bc 59f5 04be
00000160: d064 7bbe 4c46 34bc 976b 0bbe 0ca9 05be
00000170: 1d56 42bd 0818 99be c419 e7bd 4932 ac3e
00000180: 1a8f d13d 18e5 d03d e0cc 8e3e 6f9f 783e
00000190: db28 b03e 9e98 703e 6af8 c9be 08ac 1d3e
000001a0: b26f 073e 7aa4 1c3e 1360 783e 2f0b 153e
000001b0: 7733 19bc 10a4 b5be 9fac c83e ae09 0ebe
000001c0: b22f 643e 514e 153e b6ea 7ebe a012 f93d
000001d0: 3e49 8bbe 223b 333e 3fe8 adbe 9345 a33d
000001e0: df2e 823e bb1b 7bbe e1df 0b3e 80ec c53e
000001f0: cd44 bbbe c58a 373d c37c 66be 8899 913e
00000200: 92af a63e a1f0 953e 67d2 723d 1689 80be
00000210: 169f c43e 6859 543d f520 b33e 4db9 3bbe
00000220: c736 213e 06d0 173e 7c33 2cbd 8667 853d
00000230: ec4f 00be 867e cebe 4005 13bd a9bd ca3d
00000240: ceaa 54be dd1c 41be 9312 663e 7ecb b8be
00000250: bae3 ce3e 8bfe 503e 5d1c f93d 60e4 8e3e
00000260: 9ada f53d 4a80 b93e b889 51be 1b98 31be
00000270: 12bf aebd d2ce 99be 3605 11be 650d b9be
00000280: 7deb b23e 755a 52be e9af 1cbe 3cc8 8f3e
00000290: e99f b93e e850 e93c baff 48be 9d4f a0bd
000002a0: d770 643e 6124 4cbe 0d9c a83e f921 a3be
000002b0: 98a6 1b3e 4599 633e 4cd8 bd3e 536c 12be
000002c0: cbeb 86be e148 203e 9606 233d 12fe cf3e
000002d0: 9e17 acbc 8414 47be cf64 8d3e fd01 8bbe
000002e0: 0797 cebe c940 a93e 6256 813e 0d20 89be
000002f0: 23fd 82be bdfe aabe 7be2 d0be bcbb d8be

module.0.module.network.0.bias f4 [32]
0.10123376 -0.19157396 0.22260037 0.43133616 -0.27215418 -0.21986979 0.35549003 -0.37736356
-0.27077034 -0.13671464 0.39235845 0.029037895 0.3391582 0.34918687 -0.31461814 -0.42705923
-0.2161864 0.012365382 -0.18017086 -0.2464122 -0.17377429 -0.05458204 0.32448405 -0.04677174
0.09300815 -0.38523716 -0.09904513 0.1324957 -0.0030784658 -0.14210787 -0.0074690985 0.42703182
00000000: a553 cf3d f72b 44be 5af1 633e 18d8 dc3e
00000010: cb57 8bbe 8c25 61be ca02 b63e cc35 c1be
00000020: 69a2 8abe ecfe 0bbe 35e3 c83e e1e0 ed3c
00000030: 25a6 ad3e 9fc8 b23e a115 a1be 82a7 dabe
00000040: f85f 5dbe 2c98 4a3c b67e 38be 7b53 7cbe
00000050: e3f1 31be 6b91 5fbd c622 a63e b993 3fbd
00000060: 0f7b be3d ce3d c5be 2cd8 cabd f4ac 073e
00000070: 16c0 49bb ba84 11be 57bf f4bb eaa3 da3e

module.0.module.network.2.weight f4 [16, 32]
-0.08205482 -0.032951307 0.082413636 -0.17463952 -0.03443417 -0.1332796 0.066082686 0.04720879
-0.122540854 -0.043229472 -0.15557949 0.083886996 -0.109314226 0.100367285 0.107338056 -0.15624116
-0.1767655 0.07815333 -0.11837754 0.07497452 0.122964196 -0.063542746 0.072006285 -0.09303119
0.061292265 0.12260245 -0.08088893 -0.13384657 -0.11868721 -0.053669427 0.09687759 0.12231129
0.07363376 0.16576126 0.08920157 -0.11201851 -0.062471453 0.05207614 -0.16859275 -0.015547572
0.17220105 -0.04894035 -0.15250409 -0.05861175 -0.07110223 0.10299888 -0.033922855 -0.052046727
0.036681816 0.14768712 0.00075430213 0.15710886 0.08002892 -0.06207212 -0.054771893 0.07411291
0.11193103 0.04680849 -0.14400098 -0.15400866 -0.09595694 0.12164857 -0.117595136 0.1413359
0.054350067 0.038355183 -0.10058969 0.048777223 0.09529201 0.09119744 -0.045800727 0.069357015
-0.046661846 0.022028448 0.17087524 0.14471917 -0.07769579 0.18418849 0.15494935 0.026602298
0.033199307 -0.13433394 0.14062977 -0.11564178 0.077593304 -0.118892305 -0.0664094 0.10018142
0.16434143 0.08180429 0.081401445 0.10232358 0.007766403 -0.0915611 -0.046995584 -0.034600127
-0.09186526 0.08221157 -0.02732506 0.11430024 0.015527312 -0.04029864 -0.09038752 -0.01994832
-0.10335648 0.113019116 -0.09103954 -0.08609311 -0.02192382 0.08234405 0.13677327 -0.04148927
0.15753019 -0.13149092 0.0763161 0.13763745 0.11713636 -0.028135292 0.06594767 0.071914196
-0.17887433 0.061471596 0.055855647 -0.16862951 0.12591419 0.14407153 -0.15009055 0.092149496
0.085130334 -0.13412455 0.026013667 0.01841105 0.17259842 -0.023855895 -0.15759309 0.059114937
0.16743006 -0.020917965 0.14504993 -0.03322788 0.048836123 -0.0022630962 0.15232147 0.14840841
0.06875006 0.03701924 -0.07258189 0.045070976 -0.052172422 -0.15089786 -0.15461291 -0.07626573
-0.14096646 -0.038440242 -0.08026675 0.1602171 -0.015698817 -0.09158327 0.027498795 -0.078838125
0.11497794 0.07308146 0.044268724 0.039800957 0.14308308 -0.0758939 0.14565358 0.13587476
0.11163091 0.050049398 -0.09432786 -0.066921175 0.18577178 0.1358126 -0.00829493 -0.15009095
0.06843884 -0.06548972 -0.038122073 -0.120015256 -0.05454595 -0.15472636 0.043674607 0.08612341
-0.03897073 -0.055420794 -0.026197668 0.044951633 0.17970634 -0.11464183 0.036245648 0.13838074
-0.05932287 -0.11835213 -0.18710138 -0.0073652454 0.029104637 -0.020800503 -0.17573225 -0.04748901
0.049902856 -0.17653051 0.12537664 -0.09578049 0.11965149 0.051771868 0.07953439 0.13842373
0.120774604 0.027359907 0.072967425 0.167955 -0.1572319 0.06445558 0.08262628 0.020124363
0.013402662 -0.05360934 0.14359726 0.10668314 0.0911288 -0.14128941 0.05812016 -0.09279114
0.13977303 -0.17432736 -0.037160452 -0.03258017 -0.012470474 -0.1466402 0.0069639236 0.11417073
-0.15478086 -0.1413875 0.10416647 -0.03568117 0.009311234 -0.016576638 0.16338795 -0.12863033
-0.12556258 -0.004762657 -0.019047784 0.1486143 0.029195858 -0.040799707 0.01609802 -0.05682417
-0.15581141 -0.039708454 -0.08212874 -0.16107358 -0.09923469 -0.15872031 0.044662137 0.0827319
00000000: 5c0c a8bd f3f7 06bd 7bc8 a83d b4d4 32be
00000010: d80a 0dbd 737a 08be 5c56 873d 015e 413d
00000020: b3f6 fabd 6311 31bd 3b50 1fbe f2cc ab3d
00000030: 23e0 dfbd 5d8d cd3d 0ed4 db3d affd 1fbe
00000040: 0402 35be da0e a03d ec6f f2bd 3e8c 993d
00000050: a7d4 fb3d b322 82bd 0878 933d 2387 bebd
00000060: 990d 7b3d fe16 fb3d 18a9 a5bd 130f 09be
00000070: 4812 f3bd 79d4 5bbd c267 c63d 577e fa3d
00000080: 4ccd 963d 52bd 293e 50af b63d f669 e5bd
00000090: 11e2 7fbd ca4d 553d 94a3 2cbe 3ebb 7ebc
000000a0: 7955 303e ad75 48bd 082a 1cbe e012 70bd
000000b0: 0c9e 91bd 14f1 d23d b1f2 0abd f32e 55bd
000000c0: ac3f 163d 4b3b 173e 5cbc 453a 25e1 203e
000000d0: 34e6 a33d 563f 7ebd 7e58 60bd 82c8 973d
000000e0: 193c e53d 42ba 3f3d fe74 13be 72b4 1dbe
000000f0: 1285 c4bd e322 f93d b8d5 f0bd 5cba 103e
00000100: 2d9e 5e3d 531a 1d3d f801 cebd a0ca 473d
00000110: 7528 c33d b9c5 ba3d 8b99 3bbd 0d0b 8e3d
00000120: 7e20 3fbd 0175 b43c ebf9 2e3e 4331 143e
00000130: f81e 9fbd e89b 3c3e 0bab 1e3e 10ed d93c
00000140: fffb 073d d68e 09be 4001 103e 99d5 ecbd
00000150: 3de9 9e3d cf7d f3bd a701 88bd eb2b cd3d
00000160: 1f49 283e 0289 a73d cdb5 a63d 068f d13d
00000170: 4f7d fe3b 6384 bbbd 717e 40bd ddb8 0dbd
00000180: da23 bcbd 8a5e a83d ced8 dfbc 3f16 ea3d
00000190: 4466 7e3c 3010 25bd 181d b9bd a96a a3bc
000001a0: 90ac d3bd 9176 e73d f072 babd 9651 b0bd
000001b0: 9599 b3bc ffa3 a83d 4b0e 0c3e a7f0 29bd
000001c0: 984f 213e 8ea5 06be 9e4b 9c3d d5f0 0c3e
000001d0: 30e5 ef3d fc7b e6bc 920f 873d c047 933d
000001e0: d52a 37be a4c9 7b3d e4c8 643d 37ad 2cbe
000001f0: a6ef 003e 7d87 133e 56b1 19be e0b8 bc3d
00000200: d058 ae3d f257 09be 9d1a d53c c5d2 963c
00000210: a4bd 303e 706d c3bc 1560 21be 8122 723d
00000220: c972 2b3e 275c abbc f887 143e f519 08bd
00000230: 6308 483d 7450 14bb 29fa 1b3e 60f8 173e
00000240: d5cc 8c3d 7da1 173d d0a5 94bd 589c 383d
00000250: c0b2 55bd f884 1abe d952 1ebe 3531 9cbd
00000260: 8359 10be 8473 1dbd e562 a4bd f40f 243e
00000270: ce9a 80bc 0290 bbbd 2745 e13c e275 a1bd
00000280: 8e79 eb3d bcab 953d 1f53 353d 5406 233d
00000290: 5f84 123e 436e 9bbd 3626 153e c122 0b3e
000002a0: bf9e e43d 9900 4d3d f72e c1bd f80d 89bd
000002b0: f53a 3e3e 7512 0b3e 75e7 07bc 71b1 19be
000002c0: aa29 8c3d 791f 86bd e425 1cbd 8fca f5bd
000002d0: 936b 5fbd 9670 1ebe 25e4 323d 7861 b03d
000002e0: c69f 1fbd ea00 63bd 7e9c d6bc 341f 383d
000002f0: f004 383e 56c9 eabd 5176 143d aeb3 0d3e
00000300: 8afc 72bd 9a62 f2bd 8197 3fbe 2858 f1bb
00000310: d96c ee3c d165 aabc 28f3 33be d683 42bd
00000320: f066 4c3d 6ac4 34be bc62 003e 9028 c4bd
00000330: d70b f53d bd0e 543d ede2 a23d f3be 0d3e
00000340: ad58 f73d e221 e03c f26f 953d 65fc 2b3e
00000350: 6601 21be 4a01 843d f837 a93d d9db a43c
00000360: d796 5b3c 7895 5bbd 290b 133e b17c da3d
00000370: bca1 ba3d 2cae 10be 680f 6e3d 4809 bebd
00000380: a920 0f3e df82 32be 8f35 18bd c972 05bd
00000390: f550 4cbc d928 16be a031 e43b 58d2 e93d
000003a0: e07e 1ebe e3c7 10be 3b55 d53d 6b26 12bd
000003b0: 258e 183c bbcb 87bc 2c4f 273e abb7 03be
000003c0: 7a93 00be 1010 9cbb 190a 9cbc 592e 183e
000003d0: 272c ef3c 981d 27bd ffdf 833c 76c0 68bd
000003e0: 078d 1fbe 55a5 22bd 1d33 a8bd 79f0 24be
000003f0: 8f3b cbbd 9487 22be a5ef 363d 586f a93d

module.0.module.network.2.bias f4 [16]
-0.08345333 -0.087277554 0.1288899 0.1363616 -0.17079675 0.16862708 0.077284686 -0.14073367
0.039018854 0.12798119 0.12450451 0.10457551 -0.086857356 -0.057243343 -0.099063694 -0.06398838
00000000: 94e9 aabd 93be b2bd b7fb 033e 60a2 0b3e
00000010: 58e5 2ebe 94ac 2c3e 6f47 9e3d 7d1c 10be
00000020: 3cd2 1f3d 800d 033e 38fc fe3d af2b d63d
00000030: 45e2 b1bd ff77 6abd e8e1 cabd 570c 83bd

module.0.module.network.4.weight f4 [3, 16]
-0.16884124 0.23012261 0.069469236 0.22583988 0.07983893 0.03107276 -0.0888852 -0.19696306
-0.10011497 0.059858914 0.07159964 0.08873121 -0.17911331 -0.17028616 0.15533772 0.2093799
-0.03593108 0.07378249 0.22573617 -0.11849102 0.04120919 -0.08957572 0.19717862 0.10644355
0.15128657 -0.0032381075 0.19120201 -0.17884967 0.023874074 0.21335316 0.28135824 -0.1848733
0.09177083 0.17456548 -0.1638413 0.08366384 -0.016328126 -0.08874383 0.1369475 0.24141072
0.030473262 -0.09293704 -0.17821251 -0.12166836 -0.13575006 -0.02348343 -0.027103813 -0.2584255
00000000: b8e4 2cbe 43a5 6b3e e345 8e3d 9242 673e
00000010: 9882 a33d 4d8c fe3c 7209 b6bd afb0 49be
00000020: 1409 cdbd 9f2e 753d d5a2 923d b5b8 b53d
00000030: 7b69 37be 7f5f 2ebe da10 1f3e af67 563e
00000040: 782c 13bd 461b 973d 6227 673e 6bab f2bd
00000050: f8ca 283d 7a73 b7bd 31e9 493e 13ff d93d
00000060: deea 1a3e 6e36 54bb 76ca 433e 5e24 37be
00000070: 9093 c33c 4079 5a3e 300e 903e 6d4f 3dbe
00000080: 58f2 bb3d 4bc1 323e 04c6 27be f357 ab3d
00000090: 90c2 85bc 53bf b5bd f73b 0c3e 5f34 773e
000000a0: 10a3 f93c c655 bebd 577d 36be 432d f9bd
000000b0: 1002 0bbe 5260 c0bc d108 debc 5950 84be

module.0.module.network.4.bias f4 [3]
0.20012116 -0.21050927 -0.16850248
00000000: 90ec 4c3e be8f 57be ea8b 2cbe

module.0.weight f4 [32, 9]
0.0021322293 -0.00046831812 2.5524932e-06 -1.7339844e-06 0.005375211 -9.954786e-07 2.8000736e-06 0.012140339
-4.0970892e-07 1.3425655e-06 1.5792824e-06 -2.0491652e-06 0.011725694 -1.666119e-06 0.00066707784 1.9065824e-06
0.00084915286 2.9127122e-07 0.0013618701 9.670777e-07 0.009469033 -1.1719065e-06 5.9852255e-07 1.3493496e-06
0.00073289755 -0.003951843 -1.7513776e-06 -0.00015924209 0.03444639 0.0034607367 -0.0046439464 -0.023061868
-8.696156e-06 -0.012027674 1.8740712e-08 -6.423897e-07 -0.010578701 0.0055011027 -0.008547226 -0.0054106843
-0.010637875 -4.421868e-06 -3.9294456e-08 0.00067774433 1.2618925e-06 0.005675891 0.0006844174 0.008090018
-0.020553641 6.056715e-07 1.2094465e-06 1.4207554e-06 -0.02066138 -4.091218e-07 -5.1509298e-05 7.460122e-05
0.0011510809 3.5333726e-06 0.01808775 -4.9954235e-07 6.5965855e-07 -0.0016654499 -1.8705569e-07 -2.8424183e-06
-1.9817026e-06 0.000108517146 0.00015761724 1.3811489e-06 -1.1899089e-06 4.4866118e-07 0.028377753 -1.789067e-08
-0.02205115 0.0045720907 6.77845e-06 -0.00314775 0.017378336 -1.5499099e-06 1.1638114e-05 -1.2910137e-07
2.80739e-07 -0.011488788 5.6099e-05 -0.005657389 -2.0480337e-07 8.5387154e-07 -0.0036551887 1.9324739e-07
-0.010934822 -1.4673027e-05 -0.0025782376 -3.657189e-08 -4.7128906e-06 -0.02120645 -1.2492952e-06 0.023955638
-0.012488861 -0.0006762708 -9.24818e-05 -3.8093465e-06 -6.4622236e-06 -0.0053035137 0.0071400944 9.162734e-06
0.003425094 -2.1134829e-06 0.011378117 5.455421e-07 -8.945093e-07 3.5668372e-06 -0.00053472695 0.006717606
-0.0012603218 0.026954895 -2.3642829e-06 0.0006308749 -0.017466571 -0.009730244 0.025771623 -0.00035545215
5.0529638e-05 -0.0018201509 0.0017810434 -0.009901618 -1.1640016e-07 4.2553747e-05 -0.016766544 0.00052122265
0.011298821 -0.021607434 -0.014924464 1.0953302e-06 0.020601118 6.1893047e-07 0.0058373916 0.0066735316
0.0051271445 3.9893553e-06 2.6221965e-06 -4.7834206e-08 9.014266e-07 -1.1245127e-06 1.2758038e-07 -0.002507586
0.006794102 9.277921e-06 -5.4013494e-06 9.201831e-06 0.009165463 -5.7062316e-06 -0.0003815309 -0.0023492922
3.8668177e-06 0.024784897 0.002485854 0.0045060585 -5.1996744e-06 0.0008313785 -5.0694536e-07 -1.7860518e-07
4.200074e-08 -1.2541664e-06 -0.017994657 -0.014111504 9.656105e-06 -4.4716262e-07 -7.392314e-05 7.631877e-08
-9.713524e-07 0.005683805 3.933226e-07 -5.4051598e-06 -0.008313636 -4.963921e-06 -0.015027722 -3.959238e-06
-1.3870638e-06 0.00018755072 2.0442521e-06 0.009564851 1.2669319e-05 0.024189211 -0.01564584 -0.00015089771
-1.1637296e-05 -9.635623e-06 0.0046424805 -0.0031636003 -9.893179e-06 2.8552007e-05 7.772795e-06 -4.5395486e-06
-2.317252e-06 1.0236146e-06 -4.9929185e-06 0.00058337057 -8.551548e-07 -0.00038386238 -9.030987e-08 0.031493008
0.0013658286 -1.220609e-06 -0.01701182 -0.00033744882 0.0023533443 -0.0001512148 -1.3139802e-08 0.02033041
3.1609998e-05 -0.0012189205 -1.5427117e-06 8.149148e-06 6.054681e-06 -5.7625516e-07 0.021590058 7.4729013e-07
0.00454743 2.5552641e-05 -6.3987754e-05 -0.01856315 -0.01356604 -2.1838778e-05 1.4406628e-06 -0.005399728
1.4004429e-06 8.8656014e-07 -2.7583492e-06 0.022290148 0.0006084026 0.018095506 -0.0002014178 -0.027484214
-0.000277583 -2.3206983e-06 1.4945832e-05 3.9042585e-05 -5.934992e-06 -2.6083368e-05 -5.2311607e-06 -0.014688494
-0.018177567 -4.7021132e-07 -0.00067868334 -0.021958878 -0.0007396737 1.5489883e-05 8.29273e-06 -0.010478988
1.0157065e-05 -0.0020620415 1.8697485e-06 0.0069528497 -3.223529e-06 -6.3862803e-06 0.00095765013 -4.4219287e-05
00000000: dfbc 0b3b 9888 f5b9 804b 2b36 40bb e8b5
00000010: 8a22 b03b 629c 85b5 e6e8 3b36 46e8 463c
00000020: f7f5 dbb4 3332 b435 bbf7 d335 6484 09b6
00000030: 201d 403c 6a9f dfb5 d6de 2e3a ace5 ff35
00000040: af99 5e3a 0360 9c34 c780 b23a 89cc 8135
00000050: 0124 1b3c 674a 9db5 28aa 2035 4d1b b535
00000060: ec1f 403a 767e 81bb e010 ebb5 39fa 26b9
00000070: a817 0d3d 87cd 623b 3f2c 98bb 3eec bcbc
00000080: b5e5 11b7 b90f 45bc 43fb a032 af70 2cb5
00000090: 4a52 2dbc 9842 b43b aa09 0cbc 1c4c b1bb
000000a0: 7b4a 2ebc 8f5f 94b6 b6c4 28b3 a7aa 313a
000000b0: 4c5e a935 d3fc b93b 796a 333a ff8b 043c
000000c0: 1c60 a8bc 6e95 2235 4454 a235 c9b0 be35
000000d0: 0e42 a9bc 46a5 dbb4 b00b 58b8 3a73 9c38
000000e0: dedf 963a e11e 6d36 c32c 943c 4a18 06b5
000000f0: 6413 3135 3a4b daba 7ad9 48b4 60c0 3eb6
00000100: 64fd 04b6 b393 e338 0e46 2539 ea5f b935
00000110: f5b4 9fb5 86df f034 7678 e83c 00ae 99b2
00000120: 9da4 b4bc 7ad1 953b 7172 e336 7b4a 4ebb
00000130: 035d 8e3c 8006 d0b5 5241 4337 1d9f 0ab4
00000140: 79b8 9634 783b 3cbc d84b 6b38 9e61 b9bb
00000150: ece7 5bb4 9b35 6535 e48b 6fbb 707f 4f34
00000160: f827 33bc 2c2c 76b7 a6f7 28bb 3813 1db3
00000170: 6c23 9eb6 26b9 adbc 75ad a7b5 9d3e c43c
00000180: 149e 4cbc c447 31ba caf2 c1b8 13a4 7fb6
00000190: 14d6 d8b6 19c9 adbb 74f7 e93b a5b9 1937
000001a0: 8b77 603b 5cd5 0db6 486b 3a3c 5e71 1235
000001b0: 361e 70b5 cc5d 6f36 eb2c 0cba 5d1f dc3b
000001c0: 6231 a5ba 83d0 dc3c 12aa 1eb6 4c61 253a
000001d0: 0e16 8fbc 9a6b 1fbc 031f d33c fb5b bab9
000001e0: c9ef 5338 2192 eeba e671 e93a 653a 22bc
000001f0: aaf7 f9b3 bd7b 3238 fe59 89bc a9a2 083a
00000200: b11e 393c 1302 b1bc bd85 74bc 4203 9335
00000210: adc3 a83c 9424 2635 9747 bf3b a4ad da3b
00000220: 9b01 a83b 4ddc 8536 fef8 2f36 4472 4db3
00000230: 90f9 7135 f6ed 96b5 07fd 0834 5056 24bb
00000240: 0fa1 de3b 5ea8 1b37 3d3d b5b6 9061 1a37
00000250: bd2a 163c 2878 bfb6 3608 c8b9 95f6 19bb
00000260: b6bf 8136 b209 cb3c b6e9 223b 8fa7 933b
00000270: dd78 aeb6 def0 593a 0515 08b5 9ec6 3fb4
00000280: 4d64 3433 d454 a8b5 8869 93bc f033 67bc
00000290: a800 2237 9011 f0b4 2f07 9bb8 b0e4 a333
000002a0: 6a5f 82b5 363f ba3b d929 d334 f85d b5b6
000002b0: eb35 08bc c28f a6b6 d636 76bc 98d9 84b6
000002c0: 262b bab5 43a9 4439 fc2f 0936 e5b5 1c3c
000002d0: 508e 5437 7428 c63c b42b 80bc 4c3a 1eb9
000002e0: ce3d 43b7 b0a8 21b7 f31f 983b 6854 4fbb
000002f0: e1fa 25b7 f882 ef37 e667 0237 6d52 98b6
00000300: 1682 1bb6 2163 8935 d888 a7b6 56ed 183a
00000310: ca8d 65b5 2341 c9b9 60f0 c1b3 d0fe 003d
00000320: 9a05 b33a ced3 a3b5 5f5c 8bbc 9deb b0b9
00000330: 913a 1a3b 6a8f 1eb9 76bd 61b2 f68b a63c
00000340: fa94 0438 2fc4 9fba 2c0f cfb5 53b8 0837
00000350: 5029 cb36 f4af 1ab5 a2dd b03c 6399 4835
00000360: 9c02 953b e159 d637 2a31 86b8 bf11 98bc
00000370: 1944 5ebc 6b32 b7b7 cc5c c135 34f0 b0bb
00000380: daf6 bb35 f3fb 6d35 141c 39b6 d499 b63c
00000390: 357d 1f3a 073d 943c ae33 53b9 9326 e1bc
000003a0: 8f88 91b9 4bbd 1bb6 dcbf 7a37 a8c1 2338
000003b0: 3125 c7b6 9bcd dab7 5487 afb6 02a8 70bc
000003c0: 1fe9 94bc 5a71 fcb4 abe9 31ba 1be3 b3bc
000003d0: a9e6 41ba 45f0 8137 0121 0b37 10b0 2bbc
000003e0: 4368 2a37 5123 07bb 12f4 fa35 bbd4 e33b
000003f0: ce53 58b6 bb49 d6b6 d00a 7b3a 1978 39b8

module.0.bias f4 [32]
8.3996855e-07 -5.023143e-07 7.056043e-07 -0.021120999 -0.02651166 0.00089593086 -8.129116e-07 3.3585654e-06
9.035507e-06 -0.02530638 -0.0002544061 -0.002151502 0.015758146 0.009288994 -0.0006915589 -0.0006577248
1.3306188e-06 0.0016442914 -2.8665852e-06 0.020152675 -3.9562615e-06 -0.024370946 -0.0013629571 -0.013168761
-0.0128084365 -0.02022186 -0.024963722 -0.002181239 -0.006082341 -0.006077457 0.028368881 -2.2145215e-07
00000000: 337a 6135 c7d6 06b5 c268 3d35 f205 adbc
00000010: fb2e d9bc e7dc 6a3a dc36 5ab5 b763 6136
00000020: 3597 1737 534f cfbc cf61 85b9 3700 0dbb
00000030: 3a17 813c dd30 183c bb49 35ba 2a6b 2cba
00000040: b797 b235 4485 d73a 8f5f 40b6 3917 a53c
00000050: 07c0 84b6 94a5 c7bc 40a5 b2ba c9c1 57bc
00000060: 7ada 51bc 50a8 a5bc b880 ccbc 1ef3 0ebb
00000070: 604e c7bb 6825 c7bb db65 e83c 4ec8 6db4

module.2.weight f4 [16, 32]
-1.0823616e-06 -5.910839e-06 6.683599e-07 -3.9384604e-06 -4.4663866e-06 -3.4248606e-06 1.0597631e-06 -3.2018856e-06
4.369111e-06 5.046378e-07 -2.0303708e-06 1.3286781e-06 2.223696e-06 -1.502433e-06 -8.378803e-06 -1.1870945e-06
-4.230584e-07 1.66865e-07 4.241193e-06 -8.7509225e-06 -3.1363157e-05 -1.0808501e-07 -8.428338e-06 -4.7113213e-06
-2.7321523e-06 5.8147625e-06 2.6677546e-05 9.541916e-07 5.3534717e-07 5.5700425e-06 6.49988e-06 2.87869e-06
-9.953301e-05 -4.4400385e-05 -2.851271e-05 0.00025326025 0.00021623066 5.353753e-05 -2.751569e-05 0.00011886691
-8.55398e-05 -0.0003641813 0.00023906097 2.2622846e-05 -4.900239e-05 5.657141e-05 -0.00045382616 0.00029123656
5.735431e-05 -0.00063120015 0.002389919 5.6774596e-05 0.0007385349 1.0471067e-05 0.0002681395 0.0013605616
0.0008973839 -0.00032116316 0.00020135692 -0.00021983346 -2.5472214e-05 -0.00014522798 -0.00091872946 0.00031917388
-8.1983893e-07 1.9439689e-05 1.579243e-06 -4.9492763e-05 -0.00012811321 -1.8596793e-05 2.3493862e-05 -1.4175854e-06
1.9028175e-05 6.7529368e-06 6.763963e-06 4.9751898e-06 9.783111e-06 -2.9274288e-06 7.17555e-06 -5.430758e-05
3.0325211e-06 -2.2554173e-05 3.6266258e-05 3.3141578e-06 -0.00016634783 1.2235867e-06 -5.5477743e-05 -8.071618e-05
-2.2880902e-05 3.0846444e-05 -1.5884686e-06 7.96989e-06 -1.7416155e-06 1.2556953e-05 3.0391238e-05 -1.1549448e-05
1.0367179e-05 -1.14332615e-05 1.3625354e-05 -6.304815e-06 -1.145608e-05 -4.4319854e-06 -2.1643748e-06 2.3219895e-06
-1.7873283e-06 -2.7458447e-07 -6.1329165e-06 9.57852e-06 -3.6505173e-06 -1.0160023e-06 3.434879e-06 -1.3284925e-05
-2.1495398e-06 -1.5093617e-06 9.999274e-06 3.8938233e-06 -3.827815e-05 -6.621491e-06 -1.1168592e-05 -2.7778985e-06
-8.82976e-06 1.1139274e-05 -8.708689e-06 1.8549714e-05 -2.4079196e-07 2.0790067e-06 7.554926e-06 1.1479705e-05
1.0847537e-05 -1.659757e-06 1.1820301e-06 8.255392e-06 -1.1202851e-06 2.2375127e-06 5.481285e-07 8.474473e-05
-4.948594e-06 -1.2574719e-06 -1.2908258e-06 -1.733593e-05 -2.2546947e-06 9.327533e-06 -2.2464349e-06 -4.4132235e-06
1.3038648e-06 5.3380977e-06 -8.549465e-05 3.3628658e-07 -1.230381e-06 -2.859288e-07 8.4621715e-06 5.658679e-06
7.4210425e-07 2.0579175e-05 -0.000105438216 -4.9691894e-06 -4.046612e-07 -5.798626e-06 -4.3353625e-06 -4.909991e-07
-0.0016143958 3.6742622e-05 4.58369e-06 0.0035149686 0.0010548069 0.0028879296 7.717584e-05 -0.00181175
-0.0020514457 0.0006118459 0.0008795723 0.0013995504 -0.0034087207 0.00046696293 -0.00023676912 0.0050867028
-0.0008295575 -0.001104919 0.011807573 0.0055481317 0.007739262 -0.0014076706 -0.0033073553 0.00423347
-0.02182161 0.005398521 -0.006342776 0.002931573 -0.00071341434 3.9270777e-05 -0.00012659044 -5.876384e-05
-1.2796238e-06 -5.1180763e-08 -9.263611e-06 0.00036324552 -0.0008858958 -6.76193e-05 0.00043365735 -8.23806e-05
-2.7235465e-05 -0.009200733 -7.516219e-05 0.00079162297 -2.6124726e-05 0.00039751545 1.8376939e-05 -0.00022052004
-0.0011263823 -0.0002614356 -0.00017007276 -0.010127331 0.008442213 -0.0037461366 -0.00048115104 0.0047192103
0.007485746 -0.0019431413 0.000530997 0.0009843989 -2.3275243e-05 -0.0014148917 -0.0020855404 7.3996066e-06
5.585067e-06 1.8590728e-05 1.0708781e-05 -0.00013043001 -0.00038748278 -7.465175e-05 1.9969866e-05 -1.0284599e-06
5.620192e-05 -0.0013142561 -0.00011200407 -1.5126875e-05 4.0740924e-05 -3.6397567e-05 -0.00015482858 0.0014210598
-3.95949e-05 -5.3285446e-05 0.00021012111 -2.9690274e-05 -0.0038392225 9.202222e-06 -0.000113755785 -0.00033768095
-0.00020299309 0.00026423467 -0.00065885135 0.000112728434 2.5885523e-05 0.001287514 0.00087228825 5.438337e-06
00000000: a945 91b5 b855 c6b6 5869 3335 1e27 84b6
00000010: f8dd 95b6 a8d6 65b6 2f3d 8e35 fadf 56b6
00000020: 619a 9236 7276 0735 8141 08b6 0855 b235
00000030: ce3a 1536 34a7 c9b5 af92 0cb7 4254 9fb5
00000040: b420 e3b4 802b 3334 924f 8e36 edd0 12b7
00000050: ef8b 03b8 5d1c e8b3 7067 0db7 f115 9eb6
00000060: 055a 37b6 6e1c c336 98c9 df37 c611 8035
00000070: c7b4 0f35 4de6 ba36 8b19 da36 852f 4136
00000080: 61bc d0b8 8d3a 3ab8 942e efb7 04c8 8439
00000090: fabb 6239 7c8d 6038 7fd1 e6b7 3048 f938
000000a0: d563 b3b8 96ef beb9 71ac 7a39 31c6 bd37
000000b0: ea87 4db8 1747 6d38 84ef edb9 1cb1 9839
000000c0: b98f 7038 2077 25ba 30a0 1c3b 4221 6e38
000000d0: 3d9a 413a e4ac 2f37 1395 8c39 df54 b23a
000000e0: 6a3e 6b3a ca61 a8b9 5623 5339 1883 66b9
000000f0: 2aad d5b7 5748 18b9 e4d6 70ba cb56 a739
00000100: e712 5cb5 6a12 a337 60f6 d335 7396 4fb8
00000110: 2156 06b9 4f00 9cb7 af14 c537 dd43 beb5
00000120: b29e 9f37 4997 e236 00f6 e236 8ef0 a636
00000130: 2422 2437 d874 44b6 81c5 f036 52c8 63b8
00000140: 5182 4b36 b832 bdb7 991c 1838 cc68 5e36
00000150: a86d 2eb9 1e3a a435 c6b0 68b8 2b46 a9b8
00000160: 5df0 bfb7 1e61 0138 5e33 d5b5 6bb6 0537
00000170: 74c1 e9b5 b4ab 5237 b0f0 fe37 80c4 41b7
00000180: b2ee 2d37 7cd1 3fb7 7398 6437 f38d d3b6
00000190: 7d33 40b7 77b6 94b6 ad3f 11b6 7ad3 1b36
000001a0: 22e4 efb5 9a6a 93b4 5ac9 cdb6 6eb3 2037
000001b0: 69fb 74b6 935d 88b5 c682 6636 52e2 5eb7
000001c0: d040 10b6 4695 cab5 8ec2 2737 b0a7 8236
000001d0: da8c 20b8 2d2e deb6 bd60 3bb7 ef6b 3ab6
000001e0: 8823 14b7 d1e2 3a37 891b 12b7 359b 9b37
000001f0: 3246 81b4 1085 0b36 5280 fd36 f598 4037
00000200: d1fd 3537 d1c4 deb5 3fa6 9e35 a380 0a37
00000210: b45c 96b5 2d28 1636 1b23 1335 fbb8 b138
00000220: 190c a6b6 68c6 a8b5 7040 adb5 a06c 91b7
00000230: 5c4f 17b6 737d 1c37 75c1 16b6 4d15 94b6
00000240: 7400 af35 e91d b336 974b b3b8 e08a b434
00000250: 9223 a5b5 c181 99b4 c0f8 0d37 afdf bd36
00000260: 0435 4735 71a1 ac37 b61e ddb8 03bd a6b6
00000270: 3640 d9b4 d191 c2b6 7b78 91b6 34cd 03b5
00000280: 229a d3ba 171c 1a38 99cd 9936 635b 663b
00000290: 7241 8a3a 6b43 3d3b 77d9 a138 3e78 edba
000002a0: 8c71 06bb 4964 203a 1993 663a 1e71 b73a
000002b0: d864 5fbb b4d2 f439 3a45 78b9 5bae a63b
000002c0: a976 59ba eed2 90ba 8d74 413c 1acd b53b
000002d0: a399 fd3b 9681 b8ba 37c0 58bb ecb8 8a3b
000002e0: 3cc3 b2bc 14e6 b03b 10d7 cfbb a21f 403b
000002f0: 6d04 3bba adb6 2438 5dbd 04b9 3179 76b8
00000300: 8abf abb5 d8d1 5bb3 e86a 1bb7 fd71 be39
00000310: 763b 68ba d6ce 8db8 815c e339 bfc3 acb8
00000320: b777 e4b7 acbe 16bc 65a0 9db8 eb84 4f3a
00000330: 6c26 dbb7 9f69 d039 2d28 9a37 663b 67b9
00000340: 1ea3 93ba 4b11 89b9 8f55 32b9 1bed 25bc
00000350: 3551 0a3c be81 75bb 0043 fcb9 9ba3 9a3b
00000360: fd4a f53b 01b1 feba 9b32 0b3a f206 813a
00000370: 343f c3b7 e373 b9ba 90ad 08bb 234a f836
00000380: 5c67 bb36 49f3 9b37 dda9 3337 0ac4 08b9
00000390: 0f27 cbb9 5a8e 9cb8 f684 a737 9d09 8ab5
000003a0: 5aba 6b38 1e43 acba bae3 eab8 6fc9 7db7
000003b0: 3ce1 2a38 97a9 18b8 7b59 22b9 db42 ba3a
000003c0: b312 26b8 d07e 5fb8 f553 5c39 610f f9b7
000003d0: 779b 7bbb 3e63 1a37 2c90 eeb8 c50a b1b9
000003e0: 8bda 54b9 fa88 8a39 c4b6 2cba 9e68 ec38
000003f0: bd24 d937 cdc1 a83a 46aa 643a f67a b636

module.2.bias f4 [16]
0.0001164377 -0.022251084 -0.000108109336 7.456777e-05 1.650063e-05 -0.010156424 0.023613308 0.009043028
0.001965394 0.00029890687 -0.0047202967 -0.028873052 0.0059986985 0.009006305 -0.0034638431 1.754908e-05
00000000: 0430 f438 e847 b6bc c2b8 e2b8 4461 9c38
00000010: d56a 8a37 2167 26bc b270 c13c 3529 143c
00000020: d7cd 003b 9ab6 9c39 b8ac 9abb 2e87 ecbc
00000030: bb90 c43b 2e8f 133c a501 63bb 5d36 9337

module.4.weight f4 [8, 16]
-9.054986e-06 -0.010924055 0.0021193468 -4.8348434e-06 2.913866e-06 0.0022425961 -0.000110387264 0.002386774
0.007926981 -8.463012e-06 -0.00080586725 0.00011861678 -4.764473e-05 -0.00104203 0.0011019107 -6.622484e-07
-0.00012281117 0.0075213173 0.00056211464 -4.1619473e-06 -0.0017036801 0.0015960144 -0.00018289339 -5.9893508e-05
0.0064409953 -0.0010059375 -1.7577304e-06 8.775807e-05 -0.006133194 -0.00032187515 -0.00010753249 -0.00028415615
0.003237383 0.0035482184 0.0057832925 -1.4209989e-05 -1.0340907e-05 0.0017346322 -0.00055992027 0.015575534
-0.01835905 -0.0003630359 6.7520186e-06 0.0009940944 -0.0097003225 -0.0037947176 0.0026965758 0.003336766
3.0750243e-07 1.174008e-05 -6.571643e-08 -0.0006319712 1.0507688e-07 4.749031e-06 -2.2238304e-05 0.008881763
-6.325307e-06 -0.00034493368 -1.07755795e-05 1.1139238e-05 -1.4792154e-06 -1.4850703e-05 -2.0567877e-06 -3.76669e-08
0.0020632225 0.02290313 -2.1267683e-06 1.0545124e-05 -3.100969e-06 -0.0006436045 0.00065871223 -0.0034696592
0.024089111 -0.00081637624 0.007404542 -0.009898625 -0.00026827856 -0.00054560293 -0.0010600832 -0.0011823532
-9.15443e-06 0.0036417146 -0.00071350357 0.0039986195 -0.004329203 -0.00031992246 -0.0005356397 0.019772833
0.024737751 -0.01301467 -2.0613727e-06 -0.0032662738 0.000118859956 -0.018395105 0.0142439185 -0.0005335731
0.0012151175 1.7269628e-07 -0.0039752964 -3.8021387e-08 -9.720966e-06 5.5860187e-07 -1.8300426e-06 -0.001339524
4.6221052e-05 0.0046559284 -0.0021499814 0.0008355889 9.209963e-06 0.0006406378 1.05817935e-05 7.412351e-06
1.1208626e-05 0.033617876 8.888252e-07 5.301044e-06 -0.0037493594 -0.0060516344 0.00022424333 0.014130056
0.025376156 -0.0012257549 -1.1912933e-05 -0.0035365063 -6.678464e-06 0.0025172376 -0.0002652637 0.014551795
00000000: deea 17b7 cffa 32bc bde4 0a3b fd3a a2b6
00000010: d68b 4336 85f8 123b b67f e7b8 6c6b 1c3b
00000020: 2be0 013c 5cfc 0db7 d640 53ba e6c1 f838
00000030: 24d6 47b8 ba94 88ba fd6d 903a 5dc5 31b5
00000040: dfc6 00b9 6275 f63b e05a 133a dba6 8bb6
00000050: 054e dfba 5b31 d13a 12c7 3fb9 2a36 7bb8
00000060: fc0e d33b a9d9 83ba 28eb ebb5 c10a b838
00000070: f6f8 c8bb 5ac1 a8b9 1183 e1b8 cbfa 94b9
00000080: 462a 543b 3a89 683b c681 bd3b 7067 6eb7
00000090: db7d 2db7 995c e33a 9dc7 12ba 8630 7f3c
000000a0: b865 96bc db55 beb9 668f e236 464c 823a
000000b0: 1aee 1ebc ccb0 78bb 09b9 303b a5ad 5a3b
000000c0: d016 a534 42f7 4437 fd1f 8db3 dfaa 25ba
000000d0: a0a6 e133 de59 9f36 658c bab7 d084 113c
000000e0: f93d d4b6 37d8 b4b9 c3c8 34b7 aae2 3a37
000000f0: 7489 c6b5 4927 79b7 5807 0ab6 32c7 21b3
00000100: 2137 073b 589f bb3c 9ab9 0eb6 f6ea 3037
00000110: 3e1a 50b6 91b7 28ba 6ead 2c3a 3963 63bb
00000120: 8756 c53c 1502 56ba cda1 f23b d82d 22bc
00000130: bda7 8cb9 cb06 0fba 7df2 8aba 31f9 9aba
00000140: fa95 19b7 d5a9 6e3b 6a0a 3bba da06 833b
00000150: fddb 8dbb 44bb a7b9 2c6a 0cba a3fa a13c
00000160: d3a6 ca3c 7c3b 55bc 1d56 0ab6 fb0e 56bb
00000170: 7444 f938 55b1 96bc 535f 693c 7cdf 0bba
00000180: 9444 9f3a 646e 3934 3443 82bb f54c 23b3
00000190: 3b17 23b7 d4f2 1535 c99f f5b5 f892 afba
000001a0: 7add 4138 c290 983b b4e6 0cbb 6c0b 5b3a
000001b0: 7d84 1a37 7af0 273a 7588 3137 9cb7 f836
000001c0: af0c 3c37 e6b2 093d 9a97 6e35 9fdf b136
000001d0: d0b7 75bb ca4c c6bb dc22 6b39 c081 673c
000001e0: a8e1 cf3c 82a9 a0ba a8dd 47b7 bbc4 67bb
000001f0: 9217 e0b6 3df8 243b 1713 8bb9 a76a 6e3c

module.4.bias f4 [8]
0.047756255 -0.0377124 0.11209156 0.00544811 0.088111565 -0.0040270197 0.0011934014 5.087891e-05
00000000: 109c 433d 5178 1abd 4390 e53d 0f86 b23b
00000010: d673 b43d 17f5 83bb e86b 9c3a d066 5538

module.6.weight f4 [1, 8]
-0.085701324 -0.066759266 -0.120164655 -0.0067874216 0.090002455 -0.04872506 8.3048144e-05 0.059100147
00000000: 2d84 afbd 15b9 88bd e318 f6bd 0569 debb
00000010: 3553 b83d ee93 47bd 222a ae38 ff12 723d

exp_avg f4 [32, 6]
-1.7527794e-10 -1.7527794e-10 -4.5484568e-11 4.535479e-10 2.5940536e-09 2.6375537e-09 1.4224838e-09 1.4224838e-09
-8.5065904e-10 -1.4901006e-09 -5.6838717e-10 -6.107533e-10 -5.325358e-10 -5.325358e-10 1.2656619e-09 -3.8009113e-10
4.6728965e-10 4.5651513e-10 7.953539e-12 7.953539e-12 2.0179501e-10 -1.9764393e-10 6.0042105e-10 6.143556e-10
2.900267e-10 2.900267e-10 -1.7407442e-10 -2.7110408e-10 -1.8745937e-10 -1.9760868e-10 2.5406274e-10 2.5406274e-10
-3.602567e-10 -7.201568e-11 -9.418795e-11 -9.418795e-11 -5.4337645e-10 -5.4337645e-10 9.014202e-10 5.9888986e-12
3.202296e-10 3.2967165e-10 7.523628e-10 7.523628e-10 -9.531954e-10 -2.8535227e-10 -6.0102806e-10 -6.0678684e-10
-2.3378083e-10 -2.3378083e-10 9.752468e-11 2.8456876e-10 1.3577689e-11 1.9318077e-11 3.3386746e-10 3.3386746e-10
-2.2151801e-10 -2.8370142e-10 2.6611002e-10 2.6230207e-10 6.3050365e-10 6.3050365e-10 -5.6502136e-10 -5.1170723e-10
7.689377e-11 5.653503e-11 1.4807258e-09 1.4807258e-09 -1.2443614e-09 -9.456133e-10 2.0134918e-09 2.021605e-09
4.3855644e-12 4.3855644e-12 1.765243e-10 -1.8466538e-10 2.8389215e-11 1.978248e-11 -6.959012e-10 -6.959012e-10
1.0763375e-09 4.273458e-11 3.385918e-10 3.8094278e-10 2.0111063e-10 2.0111063e-10 -3.2390784e-11 -3.09926e-10
-1.8627518e-10 -2.0115197e-10 -1.1658323e-11 -1.1658323e-11 4.1040144e-11 -2.5452458e-11 2.2087866e-11 2.2087866e-11
4.537686e-11 4.537686e-11 -2.3733612e-11 -3.641166e-11 -9.38312e-11 -9.3165385e-11 2.0971952e-10 2.0971952e-10
2.012885e-10 -5.0661947e-10 -5.003376e-10 -5.033417e-10 1.7596028e-09 1.7596028e-09 -1.8794908e-09 -9.1157504e-10
-3.2757036e-10 -3.473163e-10 -2.194051e-10 -2.194051e-10 -1.425088e-10 4.17417e-10 -8.6445234e-10 -8.643947e-10
-4.820867e-10 -4.820867e-10 3.682316e-10 4.217397e-10 -5.2361804e-10 -5.2469645e-10 3.073764e-10 3.073764e-10
-3.1833478e-10 -1.9584473e-10 9.781077e-11 9.8445925e-11 2.7939566e-11 2.7939566e-11 2.238017e-10 -2.2324144e-10
-1.2759602e-10 -1.3666952e-10 -1.0647901e-09 -1.0647901e-09 5.858458e-10 1.1142209e-09 2.1466867e-10 2.4537755e-10
3.7623665e-10 3.7623665e-10 -4.465608e-10 -9.330826e-11 -1.5884581e-09 -1.593347e-09 -6.3643396e-11 -6.3643396e-11
1.6011557e-10 -1.0211714e-10 3.8982476e-10 3.9754727e-10 -6.3288125e-11 -6.3288125e-11 -2.7117093e-11 1.520267e-10
-3.2140648e-11 -2.977888e-11 -5.3208954e-10 -5.3208954e-10 2.4543803e-10 5.50014e-10 3.117416e-09 3.1903e-09
-9.4569404e-12 -9.4569404e-12 -2.2683573e-10 2.619224e-10 -1.0674293e-10 -1.02449375e-10 3.4198696e-11 3.4198696e-11
-1.1397349e-11 -6.055175e-11 1.1526307e-10 1.1526307e-10 -7.487054e-11 -7.487054e-11 3.378162e-11 9.4535255e-11
1.12218124e-10 1.1385535e-10 -5.500834e-10 -5.500834e-10 5.7330907e-10 3.2417458e-10 6.672836e-10 6.882222e-10
00000000: 5bb8 40af 5bb8 40af 120b 48ae 3157 f92f
00000010: 1343 3231 5640 3531 3381 c330 3381 c330
00000020: cfd3 69b0 41cc ccb0 b13c 1cb0 f1e1 27b0
00000030: e061 12b0 e061 12b0 85f3 ad30 12f5 d0af
00000040: 9672 0030 cbf8 fa2f 8eeb 0b2d 8eeb 0b2d
00000050: 3fe0 5d2f d24f 59af e00a 2530 6fdf 2830
00000060: a171 9f2f a171 9f2f 9865 3faf 820a 95af
00000070: 1f1d 4eaf e645 59af 27ac 8b2f 27ac 8b2f
00000080: a00d c6af 395d 9eae 1a1f cfae 1a1f cfae
00000090: b85c 15b0 b85c 15b0 cfc7 7730 34b7 d22c
000000a0: 4f0c b02f 293d b52f d3ce 4e30 d3ce 4e30
000000b0: 9501 83b0 c3df 9caf 9735 25b0 d4ca 26b0
000000c0: ba85 80af ba85 80af 8475 d62e 7e71 9c2f
000000d0: 7adc 6e2d 71ec a92d ab8b b72f ab8b b72f
000000e0: c78f 73af 6df7 9baf a84b 922f bc33 902f
000000f0: c04f 2d30 c04f 2d30 d84f 1bb0 32a8 0cb0
00000100: 5817 a92e c9a4 782e 6882 cb30 6882 cb30
00000110: 1306 abb0 cff6 81b0 b95d 0a31 74ec 0a31
00000120: a74d 9a2c a74d 9a2c 2c17 422f af0a 4baf
00000130: d4b6 f92d 2f02 ae2d b249 3fb0 b249 3fb0
00000140: 42ee 9330 dcf2 3b2e 8f24 ba2f ee6c d12f
00000150: 9c1f 5d2f 9c1f 5d2f c874 0eae 3562 aaaf
00000160: cdcf 4caf 3f2b 5daf 6b18 4dad 6b18 4dad
00000170: 187f 342e d7e1 dfad 7449 c22d 7449 c22d
00000180: cd91 472e cd91 472e 58c3 d0ad e223 20ae
00000190: 4556 ceae 73df ccae cc96 662f cc96 662f
000001a0: ad51 5d2f 2d42 0bb0 2188 09b0 865b 0ab0
000001b0: 85d6 f130 85d6 f130 5a28 01b1 6492 7ab0
000001c0: 6e15 b4af 6cf0 beaf 0c3d 71af 0c3d 71af
000001d0: a9b0 1caf 387a e52f 6d9e 6db0 5f9a 6db0
000001e0: d683 04b0 d683 04b0 fe6f ca2f 96da e72f
000001f0: 58ee 0fb0 3b3a 10b0 62fb a82f 62fb a82f
00000200: a301 afaf 6455 57af 9216 d72e 217c d82e
00000210: 4fc2 f52d 4fc2 f52d 9412 762f e174 75af
00000220: 164b 0caf 0d45 16af f957 92b0 f957 92b0
00000230: 3c09 2130 2a23 9930 dc07 6c2f d2e5 862f
00000240: 9ad6 ce2f 9ad6 ce2f d87f f5af e12f cdae
00000250: e750 dab0 eafc dab0 0cf4 8bae 0cf4 8bae
00000260: 870c 302f d78e e0ae f54e d62f ce8d da2f
00000270: 0c2c 8bae 0c2c 8bae 4486 eead b627 272f
00000280: 275b 0dae 0af8 02ae 7942 12b0 7942 12b0
00000290: 55ee 862f cb2f 1730 2a3a 5631 5a3c 5b31
000002a0: 465e 26ad 465e 26ad 9568 79af 4dfe 8f2f
000002b0: edba eaae df49 e1ae 4f68 162e 4f68 162e
000002c0: 1981 48ad 9b27 85ae 5777 fd2e 5777 fd2e
000002d0: 5ea4 a4ae 5ea4 a4ae b992 142e 9ee2 cf2e
000002e0: 30c5 f62e dd5e fa2e ae34 17b0 ae34 17b0
000002f0: 0a97 1d30 8437 b22f e96b 3730 552d 3d30

exp_avg_sq f4 [32, 6]
1.966711e-10 1.966711e-10 4.0200482e-10 1.2905095e-10 1.0466396e-09 1.0540696e-09 1.6787096e-11 1.6787096e-11
3.2167886e-11 5.1303094e-11 2.8937932e-11 2.9597397e-11 5.1008586e-10 5.1008586e-10 5.4312366e-10 1.727775e-10
1.528517e-10 1.5948085e-10 4.5879647e-11 4.5879647e-11 3.1092594e-11 4.8771476e-11 2.508943e-10 2.5290062e-10
9.8606e-12 9.8606e-12 6.4713976e-12 1.079513e-11 3.6280568e-12 3.7797764e-12 7.362079e-11 7.362079e-11
1.0971358e-10 1.6711767e-11 1.6677323e-11 1.678761e-11 1.1028634e-11 1.1028634e-11 2.922492e-11 7.3790574e-12
1.1015252e-10 1.0752921e-10 1.7052193e-10 1.7052193e-10 1.8422197e-10 5.7334987e-11 1.1972094e-10 1.2185908e-10
5.7505077e-11 5.7505077e-11 1.0502333e-11 8.210515e-11 5.351017e-12 6.1034133e-12 6.751179e-11 6.751179e-11
6.244035e-11 3.9668158e-11 5.967461e-11 5.8848884e-11 6.575402e-10 6.575402e-10 4.3741602e-10 4.7497956e-10
9.086203e-11 8.5543364e-11 1.1924598e-09 1.1924598e-09 1.3809421e-09 2.725655e-10 9.972742e-11 9.047976e-11
3.5362857e-10 3.5362857e-10 5.625743e-10 9.569919e-11 1.4474284e-10 1.4425425e-10 9.548256e-11 9.548256e-11
3.3236684e-11 1.3964531e-10 1.0263701e-10 1.0527317e-10 6.1769635e-12 6.1769635e-12 2.8694356e-11 2.2329794e-11
2.9916597e-11 3.0363743e-11 1.757438e-11 1.757438e-11 4.3094174e-11 1.1044496e-11 7.880303e-12 8.0390295e-12
2.2725509e-11 2.2725509e-11 3.645383e-11 5.5501255e-12 2.1856704e-11 2.2181377e-11 6.965692e-11 6.965692e-11
9.657361e-11 1.7901578e-11 4.0116768e-11 3.927537e-11 6.51698e-10 6.51698e-10 9.66175e-10 9.7228746e-11
3.8677513e-11 4.0187537e-11 1.0120078e-11 1.0120078e-11 5.970929e-11 7.373209e-11 3.0477582e-10 3.0373426e-10
5.3645022e-11 5.3645022e-11 3.1699348e-11 5.6797296e-11 1.4215586e-10 1.3692328e-10 1.05073825e-10 1.05073825e-10
1.3380053e-10 2.8333311e-11 1.4809595e-11 1.44728075e-11 5.0278167e-11 5.0278167e-11 1.7526607e-10 4.8390524e-11
2.3712612e-11 2.3557257e-11 5.3096392e-11 5.3096392e-11 1.5964074e-11 6.369089e-11 5.4315996e-12 5.8658126e-12
4.133889e-10 4.133889e-10 3.3878397e-10 1.7045444e-10 4.4310558e-10 4.515664e-10 1.5394798e-12 1.5394798e-12
7.0016545e-12 1.1861004e-11 4.9822563e-11 4.8818494e-11 3.064075e-11 3.064075e-11 5.039379e-11 9.234339e-12
2.0610926e-11 2.087798e-11 1.0938428e-09 1.0938428e-09 6.8516776e-10 8.2694024e-10 4.649315e-10 4.373644e-10
4.271431e-11 4.271431e-11 3.8877034e-11 4.0598643e-11 1.0153819e-10 1.0155599e-10 1.40923315e-11 1.40923315e-11
8.167062e-12 2.3898453e-11 2.4265546e-11 2.4265546e-11 1.8130605e-11 1.8130605e-11 4.3805484e-11 2.8299535e-11
5.2824086e-12 5.6159283e-12 2.132089e-10 2.132089e-10 2.929909e-11 3.704039e-10 1.2444465e-10 1.3276362e-10
00000000: fe3d 582f fe3d 582f 2601 dd2f 9de4 0d2f
00000010: 5bd9 8f30 c7de 9030 2ea9 932d 2ea9 932d
00000020: d279 0d2e 26a2 612e 6e8a fe2d b52b 022e
00000030: 1a36 0c30 1a36 0c30 ee4a 1530 8bf8 3d2f
00000040: ee0f 282f de59 2f2f e4c7 492e e4c7 492e
00000050: 26bf 082e cd7f 562e 3cee 892f 9908 8b2f
00000060: 3278 2d2d 3278 2d2d 2bb1 e32c f2e8 3d2d
00000070: 434d 7f2c 33fd 842c d2e4 a12e d2e4 a12e
00000080: 4143 f12e 8eff 922d feb1 922d 56aa 932d
00000090: 8d04 422d 8d04 422d 5688 002e 52d0 012d
000000a0: 5b3a f22e 9075 ec2e a87d 3b2f a87d 3b2f
000000b0: e08d 4a2f 7529 7c2e 73a2 032f 48fc 052f
000000c0: f6e8 7c2e f6e8 7c2e 4ec2 382d 178d b42e
000000d0: ad45 bc2c a9be d62c c275 942e c275 942e
000000e0: cb4e 892e 6076 2e2e d239 832e fa68 812e
000000f0: 47be 3430 47be 3430 d578 f02f b78f 0230
00000100: c7ce c72e a21c bc2e f3e3 a330 f3e3 a330
00000110: 95cb bd30 2fd8 952f 8c4d db2e 94f7 c62e
00000120: cc68 c22f cc68 c22f a6a3 1a30 db71 d22e
00000130: 7d25 1f2f f69b 1e2f e7f7 d12e e7f7 d12e
00000140: 2e2d 122e a98a 192f 80b3 e12e 877f e72e
00000150: 2455 d92c 2455 d92c f265 fc2d 3a6a c42d
00000160: 1893 032e 898a 052e fc95 9a2d fc95 9a2d
00000170: ba87 3d2e fd4b 422d bba1 0a2d 926c 0d2d
00000180: 4ce5 c72d 4ce5 c72d 5d53 202e 1647 c32c
00000190: ec40 c02d 051c c32d 5c2d 992e 5c2d 992e
000001a0: 1c5e d42e c576 9d2d 776f 302e 23bc 2c2e
000001b0: 2b23 3330 2b23 3330 43ca 8430 ebce d52e
000001c0: 021b 2a2e 25bf 302e c808 322d c808 322d
000001d0: 584d 832e 7a23 a22e 628d a72f ccfa a62f
000001e0: edee 6b2e edee 6b2e 4b6a 0b2e 12cc 792e
000001f0: 514d 1c2f 7a8c 162f 4e0f e72e 4e0f e72e
00000200: 801d 132f f238 f92d 3e44 822d bb9b 7e2d
00000210: 2f20 5d2e 2f20 5d2e 03b5 402f e3d2 542e
00000220: 0e94 d02d 3a36 cf2d 3985 692e 3985 692e
00000230: e66b 8c2d c90e 8c2e 801b bf2c 8b62 ce2c
00000240: 5143 e32f 5143 e32f 9b3f ba2f a96a 3b2f
00000250: 9199 f32f 5240 f82f 9ba9 d82b 9ba9 d82b
00000260: 4c59 f62c 37a9 502d 381f 5b2e bdb4 562e
00000270: 6bc2 062e 6bc2 062e 5da2 5d2e c473 222d
00000280: ae4b b52d 08a5 b72d 2c56 9630 2c56 9630
00000290: 6556 3c30 bf4e 6330 4b99 ff2f 9171 f02f
000002a0: 0adc 3b2e 0adc 3b2e a6fb 2a2e 028e 322e
000002b0: eb48 df2e f152 df2e 38ea 772d 38ea 772d
000002c0: 2dad 0f2d 8836 d22d 2771 d52d 2771 d52d
000002d0: 7e7a 9f2d 7e7a 9f2d 97a8 402e e3ec f82d
000002e0: b5db b92c c997 c52c f86c 6a2f f86c 6a2f
000002f0: d8db 002e b7a1 cb2f 0ed4 082f a3f9 112f

exp_avg f4 [32]
-3.675241e-09 1.448849e-09 2.3937063e-09 -1.4959908e-09 3.2881373e-10 -1.1736566e-10 -1.954337e-10 -9.0955343e-10
-1.7439206e-10 -5.6781957e-10 -4.1513535e-09 -3.2337033e-09 1.8728399e-09 -4.488252e-09 1.8627518e-10 2.6113344e-11
-5.235438e-11 -1.070334e-09 -1.6683336e-09 9.331167e-10 8.068084e-10 -3.426149e-10 8.4250373e-10 -1.0769533e-09
-2.5052187e-09 -3.8982476e-10 -1.3129005e-10 -4.719177e-09 -5.8559685e-10 6.082365e-11 -5.825664e-11 -1.4208013e-09
00000000: 868f 7cb1 d820 c730 877e 2431 7f9b cdb0
00000010: 6bc4 b42f 7f0b 01af b2e1 56af 2204 7ab0
00000020: 00bf 3faf c014 1cb0 b1a3 8eb1 e937 5eb1
00000030: 59b3 0031 1537 9ab1 cdcf 4c2f 06b2 e52d
00000040: cb41 66ae 081b 93b0 454b e5b0 203f 8030
00000050: 18c6 5d30 c35a bcaf ee95 6730 ed03 94b0
00000060: 4628 2cb1 f54e d6af dd5a 10af 5226 a2b1
00000070: b7f7 20b0 acc0 852e 931b 80ae 0046 c3b0

exp_avg_sq f4 [32]
2.6362983e-09 7.558732e-11 9.520188e-10 5.679985e-10 2.0150753e-11 5.971498e-11 9.608612e-11 2.2064171e-10
3.6297885e-11 1.9127286e-10 2.294014e-09 9.934461e-10 4.138857e-09 1.2622083e-09 2.9916597e-11 1.0543318e-11
5.5299203e-11 7.04823e-11 4.2033813e-10 4.503811e-10 2.1304133e-10 1.422888e-10 9.426029e-10 5.2575447e-11
1.2269601e-09 4.9822563e-11 7.6729796e-11 1.4725674e-09 1.53244e-10 4.450168e-11 5.633482e-11 4.6093324e-10
00000000: 402a 3531 e137 a62e 2fd8 8230 5721 1c30
00000010: 763f b12d 8c50 832e ad4b d32e 1f99 722f
00000020: c9a3 1f2e 864e 522f b9a4 1d31 c789 8830
00000030: c535 8e31 027a ad30 1893 032e e27a 392d
00000040: 5e35 732e 02fe 9a2e 5515 e72f 8199 f72f
00000050: ce3d 6a2f bd72 1c2f e48c 8130 b13a 672e
00000060: d2a1 a830 381f 5b2e 09bb a82e 5c63 ca30
00000070: 5a7e 282f 70b8 432e 5ec3 772e 9666 fd2f

exp_avg f4 [16, 32]
1.2772113e-10 9.996793e-12 2.454991e-17 2.7184924e-10 3.616562e-11 1.7566264e-17 1.963788e-10 0.0
3.7735302e-16 2.2755069e-10 1.0848807e-12 9.972514e-12 2.6162067e-13 2.0283973e-10 3.428533e-17 0.0
0.0 6.108316e-18 0.0 1.0914815e-10 1.01380626e-10 3.7534493e-11 6.7604874e-13 7.872982e-13
0.0 5.91906e-11 0.0 8.247469e-11 1.7842116e-18 1.5715464e-16 3.5769702e-17 5.3337934e-10
5.3505167e-10 3.2099953e-10 2.8493952e-10 3.6631043e-10 5.476787e-10 0.0 1.3002505e-10 3.84066e-12
2.0359407e-10 1.4301553e-10 8.52608e-11 1.740624e-11 4.3848336e-10 3.8563627e-10 2.0999756e-11 4.170213e-12
6.7084333e-12 0.0 0.0 7.782396e-11 5.288328e-11 1.4271336e-11 6.46493e-10 5.0145854e-10
8.1311395e-11 4.9451682e-11 5.2036247e-11 2.6184072e-10 1.8284883e-10 7.420941e-11 3.7987908e-11 1.7324994e-09
-4.5853743e-09 -1.380946e-09 -4.057159e-09 -7.678536e-09 -2.442176e-09 -9.2029284e-10 -6.826064e-09 -1.5932818e-09
-8.382458e-10 -5.200091e-09 -5.2119082e-09 -2.9308826e-09 -4.964892e-09 -5.3337943e-09 -8.808899e-11 -3.3128545e-11
-1.5670043e-09 -2.8164386e-09 -2.4229643e-09 -8.128704e-10 -2.0198e-09 -2.3021844e-09 -5.0114584e-09 -2.3652769e-09
-3.7449315e-09 -3.889075e-10 -4.381774e-10 -3.6376206e-09 -2.2142361e-09 -1.6389461e-09 -1.8496447e-09 -1.15822445e-08
2.119993e-09 6.809962e-10 1.1217601e-09 3.1477267e-09 1.2079908e-09 2.4193436e-10 2.6688356e-09 1.1464594e-10
4.1325013e-10 2.2391542e-09 1.5354459e-09 8.442331e-10 1.6386221e-09 2.5361415e-09 4.308406e-11 8.325981e-12
3.917206e-10 5.4408733e-10 1.2396485e-10 4.52857e-10 9.107058e-10 7.2263967e-10 2.1505695e-09 1.1761649e-09
7.6356954e-10 2.1186311e-10 1.4472942e-10 1.4504814e-09 6.338533e-10 7.678667e-10 3.5058298e-10 6.0623515e-09
0.0 0.0 0.0 0.0 0.0 0.0 0.0 0.0
0.0 0.0 0.0 0.0 0.0 0.0 0.0 0.0
0.0 0.0 0.0 0.0 0.0 0.0 0.0 0.0
0.0 0.0 0.0 0.0 0.0 0.0 0.0 0.0
2.1700347e-10 -1.3242785e-11 2.594397e-10 4.117091e-10 -2.1750775e-11 4.7420214e-11 2.7792518e-10 2.3355273e-10
-8.0934235e-12 3.769268e-10 3.3510922e-10 3.3807854e-10 2.8958147e-10 2.2394975e-11 2.02527e-12 5.292628e-12
1.0685498e-10 2.4477997e-10 3.639923e-10 1.5965123e-11 1.4915766e-10 2.5093316e-10 5.6293796e-11 -1.8225794e-11
3.2074374e-10 5.4445498e-12 2.2202082e-11 2.670004e-10 1.5288854e-10 -1.044615e-11 2.5172905e-10 1.4667526e-10
-2.8950456e-10 -9.4720336e-11 -9.366489e-10 -6.501487e-10 -1.6793462e-10 -2.1495343e-10 -7.0675776e-10 -6.6211747e-10
-6.199281e-11 -3.2206565e-10 -9.71853e-10 -4.676624e-10 -8.90467e-10 -3.6170492e-10 -6.683225e-12 -1.6478964e-11
-4.34632e-10 -7.149729e-10 -8.360656e-10 3.0275676e-16 -1.0371134e-10 -3.4182743e-10 -7.260707e-10 -2.1110533e-10
-1.0346434e-09 -5.4940176e-12 -1.0490179e-10 -3.894353e-10 -5.8230176e-10 -1.8753107e-10 -4.4169923e-10 -3.9377465e-10
6.864068e-14 1.3047205e-14 9.0128185e-15 4.1330258e-14 2.9124547e-14 0.0 0.0 0.0
3.5114428e-15 0.0 5.541991e-15 1.1209221e-14 4.969002e-14 2.7434057e-14 5.3248096e-16 0.0
0.0 0.0 0.0 0.0 0.0 0.0 5.476282e-14 3.1580397e-14
0.0 1.0291588e-15 0.0 4.6460218e-14 0.0 0.0 8.319753e-15 1.7135257e-13
00000000: 4d6e 0c2f 8edd 2f2d d66e e223 6173 952f
00000010: de0e 1f2e 2b05 a223 b8eb 572f 0000 0000
00000020: 7a87 d925 d331 7a2f f2ae 982b 3670 2f2d
00000030: 8347 932a 4f06 5f2f f91c 1e24 0000 0000
00000040: 0000 0000 6a5b e122 0000 0000 f204 f02e
00000050: 38f0 de2e 1514 252e 724a 3e2b d09a 5d2b
00000060: 0000 0000 5829 822e 0000 0000 1f5d b52e
00000070: cea6 0322 dd2f 3525 69f5 2424 3c9d 1230
00000080: ea12 1330 ab78 b02f aca5 9c2f 9c61 c92f
00000090: 768b 1630 0000 0000 ccf6 0e2f 9721 872c
000000a0: a3da 5f2f 4b3f 1d2f 907d bb2e 5e1b 992d
000000b0: 0c0f f12f 7b01 d42f 3fb7 b82d f0b9 922c
000000c0: 3208 ec2c 0000 0000 0000 0000 ff22 ab2e
000000d0: 4895 682e 6210 7b2d e7b4 3130 02d7 0930
000000e0: 3fce b22e a57d 592e 9bdb 642e cef2 8f2f
000000f0: 5f0b 492f 2f30 a32e 9512 272e e71c ee30
00000100: 618d 9db1 b8cb bdb0 2667 8bb1 8fea 03b2
00000110: 37d3 27b1 daf7 7cb0 b28a eab1 9ffa dab0
00000120: 4e6a 66b0 7cac b2b1 6e14 b3b1 a268 49b1
00000130: a797 aab1 8d44 b7b1 b1b5 c1ae 6db3 11ae
00000140: 105e d7b0 508b 41b1 3d81 26b1 ab70 5fb0
00000150: b3cc 0ab1 7534 1eb1 4131 acb1 648a 22b1
00000160: c4ac 80b1 ddcd d5af fde3 f0af b3f9 79b1
00000170: 4129 18b1 4a41 e1b0 9636 feb0 40fb 46b2
00000180: 50af 1131 d930 3b30 6d2c 9a30 654f 5831
00000190: 6606 a630 3c01 852f a766 3731 ed1b fc2e
000001a0: c92f e32f 9edf 1931 b307 d330 9f0f 6830
000001b0: e435 e130 4648 2e31 577c 3d2e e378 122d
000001c0: c659 d72f be8e 1530 014d 082f f5f5 f82f
000001d0: 3955 7a30 3fa3 4630 38c9 1331 a0a6 a130
000001e0: 6ee3 5130 2af2 682f b621 1f2f 475a c730
000001f0: 763b 2e30 d111 5330 2bbc c02f 024d d031
00000200: 0000 0000 0000 0000 0000 0000 0000 0000
00000210: 0000 0000 0000 0000 0000 0000 0000 0000
00000220: 0000 0000 0000 0000 0000 0000 0000 0000
00000230: 0000 0000 0000 0000 0000 0000 0000 0000
00000240: 0000 0000 0000 0000 0000 0000 0000 0000
00000250: 0000 0000 0000 0000 0000 0000 0000 0000
00000260: 0000 0000 0000 0000 0000 0000 0000 0000
00000270: 0000 0000 0000 0000 0000 0000 0000 0000
00000280: 0c99 6e2f 34f8 68ad e4a0 8e2f e856 e22f
00000290: 6452 bfad 6a8e 502e 7eca 982f a065 802f
000002a0: 8a61 0ead bb37 cf2f 6e3a b82f 53dc b92f
000002b0: f832 9f2f 00fd c42d 0584 0e2c c137 ba2c
000002c0: 02fa ea2e b891 862f 5d1b c82f 436e 8c2d
000002d0: 2600 242f b4f3 892f 2e95 772e d750 a0ad
000002e0: ab54 b02f 2590 bf2c a54a c32d f7c8 922f
000002f0: 4c1a 282f 47c5 37ad b763 8a2f 6a45 212f
00000300: 2528 9faf cf4a d0ae 67bb 80b0 26b6 32b0
00000310: 65a5 38af 0358 6caf a845 42b0 6000 36b0
00000320: d952 88ae b60e b1af 0a92 85b0 d18c 00b0
00000330: 0bc5 74b0 71d9 c6af 2425 ebac 54f3 90ad
00000340: 04f1 eeaf bf87 44b0 e3d0 65b0 0387 ae25
00000350: 4b10 e4ae efeb bbaf af94 47b0 de1c 68af
00000360: 4733 8eb0 b64d c1ac 75ae e6ae 2518 d6af
00000370: d80f 20b0 4e31 4eaf a4d3 f2af db7a d8af
00000380: a890 9a29 9d09 6b28 4a5c 2228 8b22 3a29
00000390: 512a 0329 0000 0000 0000 0000 0000 0000
000003a0: b006 7d27 0000 0000 d8ab c727 68ed 4928
000003b0: b1c8 5f29 a11a f728 297a 1926 0000 0000
000003c0: 0000 0000 0000 0000 0000 0000 0000 0000
000003d0: 0000 0000 0000 0000 3ca1 7629 b839 0e29
000003e0: 0000 0000 4251 9426 0000 0000 fc3c 5129
000003f0: 0000 0000 0000 0000 17e0 1528 04ed 402a
