src/logs/sine_wave/trading_rl_experiment_trial_3_checkpoint.pt (torch, 46167 bytes, 39 tensors)

module.0.module.network.0.weight f4 [32, 6]
-0.4235477 -0.054071676 0.34145334 -0.0877258 -0.37728348 0.2975309 0.20835544 0.38574868
-0.031419802 0.15596758 -0.26573658 -0.31346536 -0.20424223 -0.09163739 0.118575715 0.03984747
-0.2924809 0.27520093 0.13663408 -0.14916536 -0.23869017 -0.17116436 0.31786168 0.331234
0.18149394 0.36411035 -0.32794338 -0.13493267 -0.49346024 -0.30280602 0.42962012 0.33057377
0.3142315 -0.10641351 0.24100167 -0.2446714 -0.20184396 0.14313419 -0.18195316 -0.105431825
-0.13954863 0.08331763 0.1731247 -0.041612703 0.3545035 -0.013591389 0.14933744 -0.20142101
0.35368055 0.12645273 -0.39926198 -0.05344745 -0.39921978 -0.09035287 -0.3785697 -0.0010089871
0.13154729 0.097813405 0.2859052 0.24157923 0.15910992 0.18924695 0.088767014 0.42503396
-0.38068002 0.00817483 -0.052666325 0.30587575 0.19681409 -0.38417944 -0.12123897 -0.31665313
0.36390463 0.41748634 -0.3074404 0.04906559 -0.2752108 0.050806683 -0.19678894 -0.17788245
-0.17817545 0.017440213 -0.2703216 0.13814743 0.0015554917 0.24110837 0.2796575 -0.3407002
-0.11563811 0.36311775 -0.013963269 0.07976792 -0.43926996 -0.2793547 0.25758165 0.4182146
0.14973055 -0.4222901 0.016324647 -0.117737494 0.24459016 0.12437338 -0.36463505 0.17618501
0.12283239 -0.27891737 -0.04833386 -0.32982418 0.1571969 -0.22456883 0.38537237 0.3061809
-0.3835035 -0.26183665 -0.3206372 -0.2737154 0.44416916 -0.012963402 0.27747923 0.36663696
-0.19331582 -0.25700596 0.45450097 0.15378973 -0.2784681 -0.2571716 -0.13587339 -0.38188186
-0.34318823 -0.27754664 0.020343142 0.28950772 0.4600661 -0.023215113 0.091280594 -0.19987197
-0.17644137 -0.23554096 -0.20425971 0.04219975 0.021218998 0.17927642 0.112700336 -0.21116246
0.13381779 0.15956934 0.05043765 0.1634644 0.16712166 0.30843684 0.18724938 -0.17689095
-0.42254397 -0.06574333 0.23334119 0.2542841 0.4195369 -0.08185335 -0.41146114 -0.4526424
0.28826946 -0.011850706 0.09412404 -0.48586518 0.27783343 0.26295924 -0.04539296 0.025275568
-0.22231138 -0.041884255 -0.1890101 -0.24543507 -0.4581261 -0.43110007 -0.360621 0.28016526
-0.018911082 0.00042823673 0.13529713 -0.19385491 -0.24764766 0.32684362 -0.2728998 0.27899823
0.1924331 0.2767219 -0.4130411 -0.21687724 0.075484596 -0.27733207 -0.41862985 0.35948396
00000000: 3edb d8be 437a 5dbd f9d2 ae3e 96a9 b3bd
00000010: 4d2b c1be f855 983e 215b 553e da80 c53e
00000020: 0db2 00bd f7b5 1f3e a00e 88be 887e a0be
00000030: e024 51be 62ac bbbd d3d7 f23d 1a37 233d
00000040: 0ec0 95be 23e7 8c3e cee9 0b3e cebe 18be
00000050: 326b 74be b645 2fbe c4be a23e 8197 a93e
00000060: 8cd9 393e ac6c ba3e 32e8 a7be ca2b 0abe
00000070: d2a6 fcbe 6409 9bbe 2bf7 db3e f740 a93e
00000080: f3e2 a03e 54ef d9bd 24c9 763e 248b 7abe
00000090: 2fb0 4ebe c591 123e ee51 3abe a4ec d7bd
000000a0: d6e5 0ebe 6fa2 aa3d 9a47 313e 1572 2abd
000000b0: 7c81 b53e 6bae 5ebc eaeb 183e 4f41 4ebe
000000c0: 9e15 b53e d37c 013e 116c ccbe b7eb 5abd
000000d0: 8966 ccbe ed0a b9bd e3d3 c1be fd3f 84ba
000000e0: 55b4 063e 6552 c83d 2b62 923e 8c60 773e
000000f0: b6ed 223e f4c9 413e 7bcb b53d 0d9e d93e
00000100: 7ee8 c2be b9ef 053c a5b8 57bd bf9b 9c3e
00000110: a289 493e 2bb3 c4be 234c f8bd 5c20 a2be
00000120: b551 ba3e c5c0 d53e d468 9dbe 00f9 483d
00000130: 6ee8 8cbe ab1a 503d 0a83 49be d126 36be
00000140: a073 36be c7de 8e3c 9867 8abe 8576 0d3e
00000150: a4e1 cb3a 1de5 763e 452f 8f3e 4270 aebe
00000160: acd3 ecbd 92ea b93e 32c6 64bc 5d5d a33d
00000170: fee7 e0be 9407 8fbe bee1 833e 3920 d63e
00000180: f752 193e 6836 d8be 44bb 853c 5b20 f1bd
00000190: d875 7a3e 78b7 fe3d 72b1 babe d869 343e
000001a0: 8c8f fb3d 42ce 8ebe baf9 45bd b7de a8be
000001b0: 39f8 203e 5ff5 65be 874f c53e bec3 9c3e
000001c0: 925a c4be 740f 86be 8f2a a4be 6d24 8cbe
000001d0: 246a e33e 7364 54bc c211 8e3e d7b7 bb3e
000001e0: 95f4 45be 4996 83be 5ab4 e83e 0e7b 1d3e
000001f0: 5f93 8ebe ffab 83be 6522 0bbe 0586 c3be
00000200: 5eb6 afbe 981a 8ebe a9a6 a63c 5b3a 943e
00000210: c98d eb3e 9f2d bebc 52f1 ba3d 3dab 4cbe
00000220: 0cad 34be a631 71be 7529 51be a5d9 2c3d
00000230: 77d3 ad3c 3d94 373e 6fcf e63d f93a 58be
00000240: 8807 093e 2566 233e b697 4e3d 3663 273e
00000250: f121 2b3e 6feb 9d3e 4dbe 3f3e e722 35be
00000260: af57 d8be 70a4 86bd fef0 6e3e 8731 823e
00000270: 8acd d63e bba2 a7bd 09ab d2be bfc0 e7be
00000280: 0e98 933e 7729 42bc 1bc4 c03d 52c3 f8be
00000290: 2f40 8e3e 98a2 863e f8ed 39bd b50e cf3c
000002a0: 98a5 63be d38e 2bbd dd8b 41be 5553 7bbe
000002b0: 818f eabe 26b9 dcbe 51a3 b8be d271 8f3e
000002c0: 6aeb 9abc f684 e039 558b 0a3e e781 46be
000002d0: 5997 7dbe 0c58 a73e 86b9 8bbe dbd8 8e3e
000002e0: 2f0d 453e 7eae 8d3e 207a d3be 1115 5ebe
000002f0: ab97 9a3d 78fe 8dbe a756 d6be 480e b83e

module.0.module.network.0.bias f4 [32]
-0.007352098 0.43450022 -0.08797636 0.18664956 0.073881514 -0.032114003 -0.15768443 -0.16988154
-0.12921625 0.26039177 0.37464228 -0.22217476 0.30392608 0.22937112 0.15362944 -0.29684404
-0.033577897 0.17765026 -0.12194885 0.3864673 0.15121178 -0.01427153 0.15022144 0.36207548
-0.0155673055 0.4139619 -0.16318145 -0.076672636 -0.17600538 0.3132315 -0.045053374 -0.24362211
00000000: dee9 f0bb d076 de3e f32c b4bd 1021 3f3e
00000010: 314f 973d f989 03bd 0778 21be 6df5 2dbe
00000020: 4451 04be 1252 853e 1dd1 bf3e c881 63be
00000030: 339c 9b3e 43e0 6a3e 0951 1d3e f1fb 97be
00000040: fa88 09bd f3e9 353e 52c0 f9bd 0bdf c53e
00000050: 43d7 1a3e 23d3 69bc a6d3 193e f561 b93e
00000060: 030e 7fbc d0f2 d33e 0a19 27be 8b06 9dbd
00000070: c13a 34be e15f a03e e389 38bd 1378 79be

module.0.module.network.2.weight f4 [16, 32]
0.011576229 0.096349046 -0.098375134 -0.02994338 0.09591291 -0.10111172 0.12941732 -0.07587037
-0.061589815 0.09609277 -0.18393837 -0.21439098 0.07637264 0.12816519 0.060987737 0.115538344
0.14906743 0.08085724 0.11198113 -0.18513559 -0.064367354 -0.15016015 0.11229915 0.04070089
-0.18200482 -0.07795518 -0.18071839 -0.028438846 -0.08024928 -0.15063591 0.10486336 -0.06164775
-0.07594167 0.18100566 -0.036727697 -0.036994323 -0.11583357 -0.11423678 -0.15991141 0.029603673
-0.0003445685 -0.084227905 0.0471197 0.14007992 0.042629015 0.08347416 0.129018 -0.07985166
-0.132731 0.056754623 0.17078908 0.17162746 -0.08062873 0.037656713 0.09745124 -0.10690159
0.033933233 0.05332591 0.18327214 0.09529904 0.06852483 0.08218415 -0.026348617 0.090997286
-0.048795253 -0.025402268 0.17942578 -0.09311574 0.1832015 0.1418058 0.034700282 -0.083414234
0.037377354 -0.018466897 -0.04282115 0.13080463 0.08312785 0.027487343 0.23006934 0.20003891
0.057607237 0.09059648 0.2335197 0.15110037 0.2567196 0.21697584 -0.008853203 0.010175536
0.09846078 0.18103828 0.21030642 0.22324963 0.15118702 0.20130293 0.05455711 -0.05519688
0.013942515 -0.1401109 -0.0557014 0.13545002 0.011610171 -0.14939134 -0.11925712 0.04491522
0.13730632 -0.14659882 -0.13784035 0.049361356 0.13046053 -0.052961454 -0.099815495 -0.17070624
-0.021763705 0.1275443 0.076247945 -0.09513749 0.032367073 -0.03586094 -0.11124374 -0.10877113
0.054607354 -0.11286508 -0.118792236 -0.013080085 -0.09077645 -0.03872039 0.10937794 0.11858498
0.106590025 0.02888768 0.17239755 0.061818488 0.22853208 0.057175823 -0.044366226 -0.12456168
-0.050016463 -0.032731894 -0.04849262 0.18743007 -0.11429426 0.18246719 0.2175404 0.16666548
0.05844617 -0.00085175165 0.099935 0.053038258 0.20518583 -0.11118056 0.1679953 0.22087613
-0.07479984 0.22625268 0.058575712 0.034860928 0.067659274 0.18366927 0.20282292 -0.053663928
0.059753597 -0.10256115 -0.094975315 -0.013570902 -0.07850007 -0.023534149 0.046762776 0.011494244
-0.13649762 -0.14709017 -0.069765255 -0.050637033 -0.03249364 -0.03971697 -0.0632903 0.019466642
0.14381069 0.020130334 0.064118065 -0.18509726 0.06473471 -0.012672332 0.114615135 -0.0029989632
-0.085392445 -0.0022230982 0.079822555 -0.033746365 0.010614723 -0.14567773 0.060905885 0.0075131976
0.22889394 0.06417755 0.242171 -0.026429413 0.06738524 0.21110865 -0.09440315 -0.12785697
-0.03809385 0.07219595 0.23557422 0.017653538 0.14058152 0.20574339 0.17169453 0.12423732
0.09055637 -0.017763855 0.1287334 -0.021188186 0.060671575 -0.10580104 0.18878691 -0.06961195
0.03230634 0.17210951 0.10912983 0.22934256 0.19258463 0.21443121 0.12621768 0.07962733
-0.03205164 0.17191982 0.11680935 -0.045899045 0.11235091 0.09755116 0.0386161 0.02341368
0.13622864 -0.0016767265 0.03396757 0.1872017 -0.038913928 0.20145807 0.14193015 0.09027556
0.25113186 0.19975865 0.14588518 0.21701169 0.00800946 -0.04696557 0.1987882 0.24034525
-0.08806456 0.06650369 -0.025532411 -0.026150282 0.25757056 0.20018914 0.1431312 -0.03658759
00000000: 39aa 3d3c a652 c53d e778 c9bd d24b f5bc
00000010: fd6d c43d a913 cfbd f985 043e ed61 9bbd
00000020: 9a45 7cbd 49cc c43d 575a 3cbe 4f89 5bbe
00000030: 4269 9c3d bc3d 033e 47ce 793d 5e9f ec3d
00000040: 22a5 183e 7b98 a53d 5d56 e53d 2f94 3dbe
00000050: 08d3 83bd 95c3 19be 19fd e53d fab5 263d
00000060: 795f 3abe f7a6 9fbd 3e0e 39be 95f8 e8bc
00000070: bc59 a4bd 4d40 1abe 9ac2 d63d 5a82 7cbd
00000080: 4e87 9bbd 8c59 393e c86f 16bd 5c87 17bd
00000090: 273a edbd f9f4 e9bd d1bf 23be 6783 f23c
000000a0: 34a7 b4b9 ae7f acbd 9600 413d 1c71 0f3e
000000b0: c39b 2e3d 80f4 aa3d 4b1d 043e 4489 a3bd
000000c0: a3ea 07be 8977 683d 55e3 2e3e 1cbf 2f3e
000000d0: ad20 a5bd ed3d 1a3d 8494 c73d 39ef dabd
000000e0: 93fd 0a3d 456c 5a3d b1ab 3b3e 252c c33d
000000f0: bf56 8c3d 2a50 a83d 0ed9 d7bc c95c ba3d
00000100: 88dd 47bd 6b18 d0bc 64bb 373e 77b3 bebd
00000110: 2d99 3b3e 8a35 113e e221 0e3d 15d5 aabd
00000120: ff18 193d e447 97bc 3b65 2fbd a6f1 053e
00000130: ef3e aa3d 232d e13c 4c97 6b3e 00d7 4c3e
00000140: 91f5 6b3d a68a b93d ca1f 6f3e 0eba 1a3e
00000150: c070 833e ea2e 5e3e 060d 11bc 4bb7 263c
00000160: cea5 c93d 1962 393e 915a 573e 8d9b 643e
00000170: c5d0 1a3e 5b22 4e3e 4777 5f3d 2016 62bd
00000180: 256f 643c 3b79 0fbe 2727 64bd 69b3 0a3e
00000190: 9638 3e3c 0bfa 18be 143d f4bd 06f9 373d
000001a0: 079a 0c3e 001e 16be 0526 0dbe 222f 4a3d
000001b0: 7297 053e 1cee 58bd 116c ccbd 9ecd 2ebe
000001c0: cc49 b2bc f99a 023e e227 9c3d 72d7 c2bd
000001d0: 5693 043d ece2 12bd c2d3 e3bd 66c3 debd
000001e0: f6ab 5f3d cf25 e7bd 5849 f3bd da4d 56bc
000001f0: 01e9 b9bd 4699 1ebd 8b01 e03d afdc f23d
00000200: df4b da3d dba5 ec3c fc88 303e 6235 7d3d
00000210: 5004 6a3e 3231 6a3d 5cb9 35bd 321a ffbd
00000220: 10de 4cbd e111 06bd 33a0 46bd abed 3f3e
00000230: 1c13 eabd aed8 3a3e e9c2 5e3e 5baa 2a3e
00000240: 4065 6f3d 1648 5fba b9aa cc3d a53e 593d
00000250: 3c1c 523e a2b2 e3bd f606 2c3e 5a2d 623e
00000260: a930 99bd c8ae 673e 16ed 6f3d 55ca 0e3d
00000270: f290 8a3d cc13 3c3e d0b0 4f3e b5ce 5bbd
00000280: 30c0 743d 950b d2bd 6b82 c2bd 7d58 5ebc
00000290: a5c4 a0bd b0ca c0bc 538a 3f3d 5b52 3c3c
000002a0: 08c6 0bbe ce9e 16be 16e1 8ebd c768 4fbd
000002b0: 0d18 05bd 43ae 22bd 589e 81bd 8278 9f3c
000002c0: 1c43 133e 5fe8 a43c 5550 833d 238a 3dbe
000002d0: a293 843d 9d9f 4fbc 57bb ea3d 418a 44bb
000002e0: 3ce2 aebd 66b1 11bb 027a a33d a139 0abd
000002f0: 60e9 2d3c 8b2c 15be 7378 793d 4531 f63b
00000300: 2c63 6a3e 856f 833d adfb 773e 7f82 d8bc
00000310: 4601 8a3d de2c 583e 7056 c1bd f0ec 02be
00000320: 4c08 1cbd 78db 933d 5e3a 713e 279e 903c
00000330: 9af4 0f3e 65ae 523e b1d0 2f3e 2370 fe3d
00000340: 9e75 b93d 8185 91bc b0d2 033e d992 adbc
00000350: c282 783d 37ae d8bd 5b51 413e b690 8ebd
00000360: a753 043d 7a3d 303e 767f df3d c7d8 6a3e
00000370: e834 453e db93 5b3e 353f 013e a713 a33d
00000380: 9548 03bd c00b 303e be39 ef3d a300 3cbd
00000390: 3c18 e63d e7c8 c73d ea2b 1e3d 0cce bf3c
000003a0: 857f 0b3e 9bc5 dbba 9421 0b3d cdb1 3f3e
000003b0: 3664 1fbd 064b 4e3e 2356 113e 65e2 b83d
000003c0: 5b94 803e 888d 4c3e ed62 153e 5038 5e3e
000003d0: 1c3a 033c f85e 40bd 228f 4b3e 111d 763e
000003e0: 315b b4bd 1633 883d 5929 d1bc 1e39 d6bc
000003f0: 4ae0 833e 62fe 4c3e fc90 123e dedc 15bd

module.0.module.network.2.bias f4 [16]
0.011649317 0.19138591 0.015293419 -0.14062196 0.11465302 0.111213185 -0.034159448 0.101638325
-0.0020078858 0.11016066 0.0068080407 0.024542645 0.13828652 -0.12854761 0.05424126 0.24040183
00000000: c7dc 3e3c abfa 433e 4091 7a3c 34ff 0fbe
00000010: 34cf ea3d bdc3 e33d c7ea 0bbd c127 d03d
00000020: bc96 03bb ea9b e13d fc15 df3b a80d c93c
00000030: fb9a 0d3e fca1 03be 152c 5e3d e62b 763e

module.0.module.network.4.weight f4 [3, 16]
-0.18031366 0.20167458 0.17496222 0.24511686 0.049012244 -0.20323297 0.15418045 0.24118276
0.29659912 0.26386786 0.29906014 0.18302456 -0.22178859 -0.18073617 -0.050600193 -0.032613445
0.11300485 0.18424311 -0.04940565 -0.19393912 -0.27844712 -0.13596949 -0.25479668 0.121968575
0.11027715 0.057992414 -0.0938072 -0.070942365 -0.24591796 -0.14191982 0.11404887 -0.2805652
-0.19543107 -0.05313245 -0.15439174 -0.23936266 -0.2621357 0.22346438 -0.18257193 -0.255384
-0.09093539 0.09642785 -0.10549076 0.09456928 -0.004122239 0.16993755 -0.21116446 -0.14518222
00000000: 25a4 38be c883 4e3e 4c29 333e eaff 7a3e
00000010: 10c1 483d 4e1c 50be 7be1 1d3e 9df8 763e
00000020: d7db 973e b019 873e 691e 993e ca6a 3b3e
00000030: 8c1c 63be e712 39be 2642 4fbd ad95 05bd
00000040: 166f e73d 3aaa 3c3e 945d 4abd fa97 46be
00000050: 9f90 8ebe 963b 0bbe b674 82be a9ca f93d
00000060: fdd8 e13d 7489 6d3d fd1d c0bd 3b4a 91bd
00000070: ebd1 7bbe 6e53 11be 7492 e93d 3ea6 8fbe
00000080: 151f 48be 69a1 59bd de18 1ebe 7c1b 75be
00000090: a736 86be d9d3 643e 23f4 3abe b1c1 82be
000000a0: 553c babd f77b c53d 8a0b d8bd 8aad c13d
000000b0: d913 87bb 1c04 2e3e 7f3b 58be a6aa 14be

module.0.module.network.4.bias f4 [3]
-0.0035425613 0.14808366 -0.19202685
00000000: 512a 68bb 3ea3 173e b0a2 44be

module.0.weight f4 [32, 9]
-0.022096977 0.0446738 0.005161304 0.03035582 0.023269877 0.02075509 0.01859574 -0.0002636824
-0.028301455 0.08567767 -0.11782533 -0.10086195 -0.04008045 -0.029335476 0.059058793 0.019134978
-0.038979795 0.0019886012 0.08867359 -0.018290868 0.04289209 -0.059124857 0.040179964 -0.023459727
0.009746492 -0.009006694 0.00072457246 -0.026670033 -0.0990775 0.03276358 -0.005110707 -9.173595e-05
-0.0013942914 -3.1134645e-05 -0.00018260205 0.004475043 -0.0002723606 0.0003392659 -0.012547521 0.003345737
0.00022071092 -0.0069832215 2.0286894e-05 -0.007534417 2.3409744e-05 0.08717258 0.10640576 0.008168978
-0.04972205 0.07818548 -0.011760772 0.026768906 0.02434014 0.0022057395 -0.0048606577 -0.048855063
0.048422042 -0.008820315 0.0022957607 -0.029964266 -0.0002502064 -0.0100987 -0.0003350187 0.10880602
0.08386147 0.16807589 0.035346817 -0.024146328 0.0015597151 0.0075603565 -0.016040685 -0.026838718
-0.10153823 0.06176618 -0.060264397 -0.01107237 -0.004963039 -0.03166155 5.765179e-05 0.028673247
0.0014235976 0.012389088 0.030694395 -0.009330857 -0.057937376 0.0033077812 -0.003123542 -0.0012083934
-0.012559767 -0.019654801 0.003324615 -0.018708413 0.0073294407 -0.025401093 -0.0058321985 -1.8559076e-06
8.399593e-06 -0.00030555567 -0.00021808622 0.08608604 0.0072418805 -0.0041998886 0.008773385 -6.596006e-05
0.0006689747 -8.900658e-05 0.0007364651 0.000534814 -0.045057267 0.01964695 0.0020371247 0.0015747921
1.010533e-05 7.214696e-06 3.925228e-05 -0.00019183978 -0.00013160634 -0.02147087 0.0781565 -0.005399474
-0.07386251 -0.00028589214 -0.028565854 0.00015340725 -0.00066115597 0.02686758 0.04546298 -0.02893968
-0.00856226 -0.011511081 -0.023121048 -0.00074834155 -2.5954876e-05 0.00056824123 -0.02242927 0.00036714697
-0.042870652 -0.038782198 0.023815894 -0.005320781 8.427903e-06 -4.3851298e-05 0.002302208 0.0012381758
-0.0033440138 -0.013726965 -0.040758353 0.00094971736 -3.8594397e-05 2.2797856e-05 -0.016057575 0.00028967866
-0.0027762335 -0.027714456 -0.024150204 -0.026060041 -0.029444642 -1.0560589e-06 -0.007916652 -0.0008750416
-0.00011502984 -0.010377429 -0.0019887849 -0.012631115 -0.044634923 0.0005268564 0.0056690043 -0.008935206
0.0038725904 -0.0005451331 -0.00012435678 -0.095441885 -0.08624973 0.025219554 0.008930579 0.063800275
-0.06622403 0.020397797 -0.023722863 0.0017342551 0.15530542 0.09328513 -0.020972986 0.09832434
-0.11887968 0.076732405 0.021484133 -0.0018585364 -0.00027842907 0.05305008 0.09106694 0.026382651
-0.011259846 -0.0016716324 -0.016116658 0.0004929615 -0.00040449548 -0.0003280994 -0.0014241432 0.0022216728
0.002422205 0.042518992 0.007950402 -0.012682118 0.0046005854 -0.021347359 -0.024214894 0.055224087
0.023879189 0.11758739 -0.092141435 -0.045701176 -0.004780062 -3.7312282e-05 -0.0012916612 -0.00134374
0.11069354 0.029387496 -0.016357636 0.120358095 -0.01147294 -0.009182688 0.027976524 0.003958326
0.004271177 0.095560245 0.21549027 0.1585389 0.138532 0.055956177 -0.007971111 0.019579621
-0.06073039 -3.7042122e-05 -0.059909888 0.04743133 0.07154532 0.047915973 0.027871734 -0.054139998
0.00045686882 0.043561857 -0.017713938 0.007959355 -0.010922355 0.015082438 0.051576123 0.0010325745
0.016482582 -0.00462719 0.008277611 -0.0006701493 0.007646358 0.18550308 0.16003141 0.0179628
00000000: b804 b5bc e0fb 363d 2820 a93b c5ac f83c
00000010: 78a0 be3c 9406 aa3c 1856 983c da3e 8ab9
00000020: 74d8 e7bc c677 af3d 684e f1bd b690 cebd
00000030: 662b 24bd f450 f0bc a2e7 713d f5c0 9c3c
00000040: 47a9 1fbd 3153 023b 809a b53d bbd6 95bc
00000050: 9eaf 2f3d e82c 72bd bf93 243d 9d2e c0bc
00000060: c0af 1f3c d090 13bc 3cf1 3d3a 1d7b dabc
00000070: 25e9 cabd 1b33 063d b877 a7bb 5d62 c0b8
00000080: a8c0 b6ba 9296 02b8 dd78 3fb9 62a3 923b
00000090: 9fcb 8eb9 80df b139 1e94 4dbc 2744 5b3b
000000a0: a36e 6739 82d3 e4bb c62d aa37 45e3 f6bb
000000b0: 0b60 c437 8a87 b23d 43eb d93d 2dd7 053c
000000c0: 59a9 4bbd b51f a03d 41b0 40bc 774a db3c
000000d0: f964 c73c 2b8e 103b 2746 9fbb 3f1c 48bd
000000e0: 3156 463d 1583 10bc 7974 163b 9f77 f5bc
000000f0: 222e 83b9 0575 25bc 73a5 afb9 b1d5 de3d
00000100: 90bf ab3d 161c 2c3e d3c7 103d 85ce c5bc
00000110: 5b6f cc3a debc f73b c167 83bc dfdc dbbc
00000120: 47f3 cfbd 89fe 7c3d cdd7 76bd e368 35bc
00000130: fda0 a2bb 8baf 01bd 23cf 7138 28e4 ea3c
00000140: 0298 ba3a 9afb 4a3c d072 fb3c 73e0 18bc
00000150: be4f 6dbd 5cc7 583b 57b4 4cbb f462 9eba
00000160: 7bc7 4dbc 1b03 a1bc c9e1 593b 6342 99bc
00000170: ce2b f03b f415 d0bc 071c bfbb 8018 f9b5
00000180: faeb 0c37 fd32 a0b9 13ae 64b9 e14d b03d
00000190: 4c4d ed3b 389f 89bb 3ebe 0f3c 0a54 8ab8
000001a0: 225e 2f3a 0ba9 bab8 560f 413a c332 0c3a
000001b0: f88d 38bd a4f2 a03c 4881 053b 4169 ce3a
000001c0: 108a 2937 c415 f236 d1a2 2438 9928 49b9
000001d0: cfff 09b9 aee3 afbc 8410 a03d 12ee b0bb
000001e0: 3a45 97bd cbe3 95b9 f002 eabc f2db 2039
000001f0: 6d51 2dba 6619 dc3c 6437 3a3d e812 edbc
00000200: b948 0cbc f998 3cbc 5a68 bdbc 5a2c 44ba
00000210: acb9 d9b7 06f6 143a 97bd b7bc a27d c039
00000220: 2399 2fbd 15da 1ebd 8d19 c33c f259 aebb
00000230: 9165 0d37 f9ec 37b8 a4e0 163b 494a a23a
00000240: 3e27 5bbb 10e7 60bc 3bf2 26bd 74f6 783a
00000250: 6be0 21b8 063e bf37 2d8b 83bc 03e0 9739
00000260: 78f1 35bb 6d09 e3bc a6d6 c5bc de7b d5bc
00000270: e435 f1bc e8bd 8db5 d8b4 01bc 0c63 65ba
00000280: 2d3c f1b8 1806 2abc 4656 02bb bcf2 4ebc
00000290: 1cd3 36bd bc1c 0a3a 0ec3 b93b f864 12bc
000002a0: 49cb 7d3b 43e7 0eba c565 02b9 0977 c3bd
000002b0: b3a3 b0bd 3d99 ce3c 9051 123c b8a9 823d
000002c0: 77a0 87bd 4819 a73c 7356 c2bc f24f e33a
000002d0: 6208 1f3e 460c bf3d 8acf abbc 465e c93d
000002e0: 3177 f3bd e125 9d3d 7eff af3c 229a f3ba
000002f0: 1efa 91b9 0a4b 593d 4e81 ba3d 6e20 d83c
00000300: 387b 38bc ad1a dbba 1507 84bc 163a 013a
00000310: 7712 d4b9 c204 acb9 51aa baba 7c99 113b
00000320: dbbd 1e3b 6528 2e3d 6742 023c a9c8 4fbc
00000330: 82c0 963b a8e0 aebc 505e c6bc a732 623d
00000340: 4a9e c33c a8d1 f03d a6b4 bcbd 2831 3bbd
00000350: 11a2 9cbb c27f 1cb8 f54c a9ba 6f20 b0ba
00000360: 4bb3 e23d 0cbe f03c 7300 86bc 4e7e f63d
00000370: 00f9 3bbc fc72 16bc 062f e53c d8b4 813b
00000380: 3bf5 8b3b 17b5 c33d 7ba9 5c3e 0558 223e
00000390: 55db 0d3e 4e32 653d 4399 02bc 7165 a03c
000003a0: 6ec0 78bd ad5d 1bb8 1264 75bd 5b47 423d
000003b0: 5a86 923d 8a43 443d 4353 e43c e7c1 5dbd
000003c0: e587 ef39 eb6d 323d d21c 91bc f467 023c
000003d0: adf3 32bc 541c 773c 7c41 533d 7357 873a
000003e0: 7b06 873c af9f 97bb d19e 073c f5ac 2fba
000003f0: 4d8e fa3b 85f4 3d3e 46df 233e b926 933c

module.0.bias f4 [32]
-0.03773162 0.045184534 -0.03778625 -0.0036641273 0.00647268 0.056605157 -0.015467669 -0.0070404797
-0.012263316 0.0033496208 -0.0006828848 0.0013143822 -0.0012632668 -0.009401391 0.0047216355 -1.0848501e-05
0.0068920213 -0.012015982 -0.0021935871 -0.06511653 0.0204078 -0.022654837 0.00015350911 -0.030787848
-0.06654015 0.035945684 0.035743814 -0.00925177 0.08408299 -0.026532058 -0.011255791 -0.029503347
00000000: 798c 1abd 6b13 393d c1c5 1abd db21 70bb
00000010: c618 d43b cfda 673d 1b6c 7dbc d3b3 e6bb
00000020: 13ec 48bc 5085 5b3b a003 33ba 5947 ac3a
00000030: 3394 a5ba 4b08 1abc f3b7 9a3b f501 36b7
00000040: 77d6 e13b aede 44bc 49c2 0fbb d15b 85bd
00000050: 422e a73c a396 b9bc 4af7 2039 cc36 fcbc
00000060: 3446 88bd c83b 133d 1b68 123d bc94 17bc
00000070: b433 ac3d c259 d9bc 366a 38bc 01b1 f1bc

module.2.weight f4 [16, 32]
0.0047602467 -0.0037883425 0.0054927864 0.021512737 -0.0010162871 0.0011694564 0.02209576 0.0033230714
0.00023810379 -0.03846087 0.0007832872 0.00057050143 0.00066929904 -0.033146713 0.0025526143 0.0006414792
-0.0016869862 0.00015820761 -0.0031309898 -0.019305091 -0.00043550553 -0.029417593 -0.0016928791 0.00081905455
-0.0028848227 -0.0010096568 0.0025248125 0.00032023608 -0.004635852 0.0021752347 0.0052124914 -0.017165076
0.06877544 0.012682071 0.024715126 -0.02983937 0.0043491656 0.06022317 0.07157973 -0.04828564
0.0012668242 -0.07054565 0.0003176628 0.09362522 -0.032971915 -0.0019135473 -0.008260409 -0.017571231
0.01976203 0.010732538 -0.032181863 0.060437087 0.03620866 -0.06145224 0.017068133 -0.08156764
0.020614244 -0.008320296 0.07392428 -0.010592611 0.06629279 -0.053414285 0.028259404 -0.06693097
0.010052878 0.0055951057 -0.014257648 0.047149498 0.0078863185 0.052643877 0.05168176 -0.008747023
-0.009851801 0.062154446 -0.012105641 0.029133188 0.00805352 0.032703895 0.00087723916 -0.036052335
0.0028065813 -0.006741976 0.020761857 0.07104912 0.03804312 -0.07144981 -0.022328757 -0.0124509735
0.006502548 0.0015994528 -0.023946699 0.020942757 0.0057804966 -0.0026391163 0.032625023 0.08013332
-0.008671981 -0.0018836204 0.01087188 0.033871602 -0.0023569965 -0.048489094 -0.02796428 0.0060124677
-0.004943441 -0.048818484 0.00035757697 -0.008487526 -0.0005033695 0.0023752428 0.0050351135 -0.0040460913
-0.0008929863 0.0036551224 -0.0022414378 0.024898434 -0.009552633 0.033080585 0.00079382677 -0.011564547
-0.004070602 -0.0022672114 -0.011634369 -0.003488985 -0.005590829 0.0019411885 -0.005734617 0.023971295
0.026839398 0.007644836 0.013018951 0.072557665 0.005636357 0.08564101 -0.02737187 -0.00044973768
-0.00552581 0.10907313 0.0096545825 -0.016265837 -0.005306253 -0.028809426 -0.00089822453 -0.01838163
0.0055586463 -0.007185425 0.003997974 -0.06484388 0.031248948 -0.0757646 -0.0012147091 -0.023801643
-0.0032888833 0.008928161 -0.0012362775 -0.0129924705 0.0033371453 0.019146342 0.029657356 0.03540885
-4.863386e-05 0.00058143894 4.301611e-05 -0.0015422322 0.0001738777 0.001319444 -0.001304924 -0.00074459065
0.0004897681 0.0034431536 -0.00025581205 0.00094644213 0.00010482071 0.0016508272 0.00011647881 0.0002743207
0.00010859044 3.384467e-05 0.00041056352 -0.0016684391 0.0009195123 0.0005888749 -1.1696512e-05 -0.0009876989
0.00018897084 -0.00015908937 -0.00091568887 -0.00028756313 -0.0006471494 -0.00013566436 0.00040213735 0.0006753793
-0.030952305 0.006023724 -0.030146865 -0.03323583 0.004253119 -0.0131265465 -0.06335121 0.0011821344
0.021259937 0.07787545 0.0027561295 -0.000106649175 -0.0029608207 -0.05346493 0.026090719 -0.010359764
0.0028006008 -0.014285038 -0.001980636 0.03140055 0.0023207068 -0.028164709 0.0026206807 0.025624378
0.0023667517 0.0022714438 -0.034438536 -0.020800123 0.016499277 -0.004168492 -0.0012415946 0.007586486
-0.00011443018 0.00034922647 -0.00023288351 -0.0011744071 0.000113644164 0.0012409659 -0.0010687514 -0.0006718977
0.00043255166 0.00064091285 -7.784025e-06 0.00037124488 -2.2930963e-06 0.00056046486 0.00020149071 6.0597784e-05
0.00015490483 -0.0001229092 0.0005115143 -0.002370967 0.001412459 0.0006141612 -4.361438e-05 -0.000933126
0.00039458874 -0.00012233516 -0.0011121336 -0.00015160891 -0.00025996027 -0.00032610726 0.00042734863 0.0005483279
00000000: d8fb 9b3b d745 78bb d5fc b33b 7b3b b03c
00000010: f034 85ba 7248 993a 2b02 b53c e3c7 593b
00000020: 80ab 7939 2589 1dbd 8455 4d3a b48d 153a
00000030: e673 2f3a d9c4 07bd c349 273b f128 283a
00000040: dd1d ddba 88e4 2539 4b31 4dbb b625 9ebc
00000050: 9054 e4b9 2afd f0bc 99e3 ddba d2b5 563a
00000060: 4b0f 3dbb 7656 84ba 5377 253b 5ce5 a739
00000070: 58e8 97bb 628e 0e3b 8ccd aa3b c69d 8cbc
00000080: 23da 8c3d 76c8 4f3c 6077 ca3c b271 f4bc
00000090: 7283 8e3b 92ac 763d 6598 923d 2ac7 45bd
000000a0: 910b a63a 3d7a 90bd fb8b a639 94be bf3d
000000b0: 8f0d 07bd fecf faba ab56 07bc 8bf1 8fbc
000000c0: fbe3 a13c 87d7 2f3c 21d1 03bd e18c 773d
000000d0: 884f 143d 58b5 7bbd 78d2 8b3c ef0c a7bd
000000e0: 34df a83c da51 08bc 9d65 973d a18c 2dbc
000000f0: 84c4 873d f0c8 5abd 4480 e73c 1b13 89bd
00000100: d4b4 243c 2657 b73b e998 69bc d51f 413d
00000110: 9e35 013c 1ba1 573d 41b0 533d ac4f 0fbc
00000120: 7369 21bc a995 7e3d bd56 46bc b9a8 ee3c
00000130: e9f2 033c 85f4 053d 86f6 653a 9dab 13bd
00000140: 9fee 373b cbeb dcbb c514 aa3c 3382 913d
00000150: 1ad3 1b3d 4754 92bd ccea b6bc 2bff 4bbc
00000160: 5413 d53b bba4 d13a de2b c4bc 2590 ab3c
00000170: 526a bd3b 06f5 2cbb d1a1 053d f01c a43d
00000180: ed14 0ebc d0e3 f6ba f81f 323c f3bc 0a3d
00000190: d777 1abb 809c 46bd 5915 e5bc 3c04 c53b
000001a0: 97fc a1bb e4f5 47bd 2b79 bb39 440f 0bbc
000001b0: 8ef4 03ba f6a9 1b3b 98fd a43b 1395 84bb
000001c0: 4c17 6aba c78a 6f3b 16e5 12bb cdf7 cb3c
000001d0: a682 1cbc 827f 073d d018 503a 3a79 3dbc
000001e0: af62 85bb 7f95 14bb 159e 3ebc 74a7 64bb
000001f0: 4633 b7bb 7a6f fe3a 74e9 bbbb 735f c43c
00000200: 4cde db3c 8881 fa3b 704d 553c 1d99 943d
00000210: 30b1 b83b 8e64 af3d f93a e0bc c5ca ebb9
00000220: db11 b5bb bc61 df3d 412e 1e3c ef3f 85bc
00000230: 14e0 adbb bf01 ecbc d476 6bba 1295 96bc
00000240: 4e25 b63b b773 ebbb 7001 833b decc 84bd
00000250: cbfd ff3c 782a 9bbd e036 9fba aafb c2bc
00000260: 4e8a 57bb 6c47 123c 970a a2ba 5fde 54bc
00000270: 02b4 5a3b cad8 9c3c fcf3 f23c df08 113d
00000280: 36fc 4bb8 b56b 183a 326c 3438 ba24 caba
00000290: f152 3639 32f1 ac3a fc09 abba a230 43ba
000002a0: c863 003a 88a6 613b 831e 86b9 a81a 783a
000002b0: 31d3 db38 9260 d83a 1646 f438 b3d2 8f39
000002c0: 0cbb e338 70f4 0d38 e740 d739 87af daba
000002d0: 6d0b 713a ba5e 1a3a 233c 44b7 ad75 81ba
000002e0: 7926 4639 3ad1 26b9 d70a 70ba 12c4 96b9
000002f0: 76a5 29ba 2041 0eb9 f6d5 d239 f00b 313a
00000300: b08f fdbc a962 c53b 8ff6 f6bc 4b22 08bd
00000310: c05d 8b3b ba10 57bc 47be 81bd d9f1 9a3a
00000320: 5229 ae3c 2a7d 9f3d 2ea0 343b d7a8 dfb8
00000330: 540a 42bb 0bfe 5abd 34bc d53c 00bc 29bc
00000340: 498a 373b cb0b 6abc 8fcd 01bb dd9d 003d
00000350: 0017 183b adb9 e6bc babf 2b3b 37ea d13c
00000360: 811b 1b3b 81dc 143b 6c0f 0dbd 0565 aabc
00000370: 7e29 873c d897 88bb 00bd a2ba 0f98 f83b
00000380: 3cfa efb8 6218 b739 3132 74b9 90ee 99ba
00000390: 3f54 ee38 e8a7 a23a 5915 8cba 4b22 30ba
000003a0: 1ac8 e239 ef02 283a 2298 02b7 a5a3 c239
000003b0: 18e3 19b6 29ec 123a 4047 5339 602a 7e38
000003c0: f36d 2239 30e1 00b9 2517 063a 3a62 1bbb
000003d0: 4222 b93a a9ff 203a 95ee 36b8 079d 74ba
000003e0: cee0 ce39 1847 00b9 03c5 91ba 35f9 1eb9
000003f0: 474b 88b9 60f9 aab9 c30d e039 aabd 0f3a

module.2.bias f4 [16]
-0.041543752 0.061581492 -0.07145734 -0.009933794 0.014923678 0.002485193 0.051737003 0.0020763595
0.017424386 -0.0019593276 -0.0065380787 -0.000760874 0.022656826 -0.035187054 -0.006093987 0.0005243974
00000000: c829 2abd e03c 7c3d 3a58 92bd 5ac1 22bc
00000010: 7182 743c 9fde 223b 2eea 533d 8813 083b
00000020: 96bd 8e3c 1068 00bb 613d d6bb 6475 47ba
00000030: cf9a b93c 4d20 10bd 11b0 c7bb b777 093a

module.4.weight f4 [8, 16]
-4.2803902e-05 -0.0020541435 -1.9945775e-05 2.0246523e-05 2.976253e-05 5.155668e-06 1.988633e-05 -0.0030259762
0.005824017 0.00022067176 -1.4374712e-05 0.0028209568 -0.0021140398 0.011599942 -5.962942e-05 1.3263953e-07
0.027652364 0.13694482 -0.0072585465 -0.043703422 0.11058217 0.006720033 0.102648795 0.07432125
-0.10340195 0.083081566 0.02400767 0.03340029 -0.036182415 0.0144255925 0.08731185 0.011420689
-0.0067745037 0.017194236 0.03125404 0.01006726 0.037541933 -0.0010501925 -0.019123415 0.009615641
0.012200275 -0.0115507785 0.012916035 0.0028724528 -0.006682425 0.043319434 -0.022149704 0.0097593535
-0.08680841 0.10926182 0.047662783 0.04448632 0.027430732 -0.026131243 0.046542495 -0.07528263
-0.07114691 0.041922964 -0.037897456 -0.009924831 0.055512708 0.14279354 -0.03542633 -0.061139602
-0.11927446 0.12344094 0.036230333 -0.028545566 -0.0014930511 0.1216299 0.10150817 0.053795464
-0.019361217 0.106921926 -0.08245727 -0.01621433 0.012650231 -0.089285456 -0.12121331 0.024648566
-0.001423832 0.03347038 0.015950512 0.0050916784 0.013549739 0.03307826 0.067520976 0.030101638
-0.015953451 -0.061118174 0.012361137 0.0020312085 -0.020987507 0.08995353 0.05907899 0.013228059
0.058422167 0.1249041 0.09454301 -0.039354846 0.044805825 -0.052117027 -0.009643447 0.0007995353
-0.07938546 0.074312106 0.014528375 -0.009324791 0.030235771 -0.11381484 -0.025009666 0.03313991
-0.0032190057 -0.012168389 0.015460752 0.0014765274 -0.0009581524 0.015704302 -0.019711895 0.012088476
0.0112055335 -0.015552613 -0.019843882 1.2070545e-06 -0.0005128762 0.03982749 -0.00041937534 0.00023968665
00000000: 5788 33b8 cf9e 06bb 3a51 a7b7 14d7 a937
00000010: 8caa f937 dafe ac36 92d1 a637 754f 46bb
00000020: 65d7 be3b 2064 6739 eb2a 71b7 cddf 383b
00000030: b48b 0abb af0d 3e3c 9a1a 7ab8 ad6b 0e34
00000040: 3687 e23c 433b 0c3e 1ad9 edbb 5c02 33bd
00000050: e878 e23d b933 dc3b 8839 d23d bd35 983d
00000060: 67c4 d3bd ab26 aa3d bcab c43c bece 083d
00000070: 0334 14bd 5259 6c3c 8ed0 b23d d71d 3b3c
00000080: a8fc ddbb edda 8c3c 3c04 003d 26f1 243c
00000090: 92c5 193d 9da6 89ba b5a8 9cbc ec8a 1d3c
000000a0: aae3 473c 7a3f 3dbc c79d 533c c33f 3c3b
000000b0: 3ef8 dabb b86f 313d 4c73 b5bc b2e5 1f3c
000000c0: 9cc8 b1bd a9c4 df3d 0d3a 433d 4a37 363d
000000d0: 6ab6 e03c 3011 d6bc 58a3 3e3d c82d 9abd
000000e0: 79b5 91bd 6ab7 2b3d 5d3a 1bbd c29b 22bc
000000f0: 4b61 633d 7838 123e 331b 11bd 856d 7abd
00000100: 2b46 f4bd 9bce fc3d 4266 143d 64d8 e9bc
00000110: 7bb2 c3ba 1919 f93d 84e3 cf3d a258 5c3d
00000120: 6a9b 9ebc e2f9 da3d 5bdf a8bd ead3 84bc
00000130: ea42 4f3c 4bdb b6bd af3e f8bd caeb c93c
00000140: e09f baba 3d18 093d a6aa 823c 18d8 a63b
00000150: b9ff 5d3c 127d 073d 7048 8a3d b697 f63c
00000160: d0b0 82bc 0d57 7abd 5e86 4a3c 061e 053b
00000170: feed abbc 8e39 b83d d0fc 713d 80ba 583c
00000180: 154c 6f3d b9cd ff3d c49f c13d 8c32 21bd
00000190: 5086 373d aa78 55bd 8cff 1dbc e897 513a
000001a0: d894 a2bd f230 983d 6c08 6e3c 02c7 18bc
000001b0: 02b1 f73c c117 e9bd 12e1 ccbc b7bd 073d
000001c0: f4f5 52bb ec5d 47bc 184f 7d3c 0a88 c13a
000001d0: 852c 7bba 4fa6 803c d77a a1bc be0e 463c
000001e0: 6a97 373c 63d0 7ebc a38f a2bc 1402 a235
000001f0: 8a72 06ba 2622 233d 9bdf dbb9 6554 7b39

module.4.bias f4 [8]
0.010356054 -0.049034186 -0.049220484 0.20808461 0.071969874 0.018036827 -0.1627611 -0.019791758
00000000: 70ac 293c 12d8 48bd 6b9b 49bd 2214 553e
00000010: f164 933d f8c1 933c d9aa 26be 5322 a2bc

module.6.weight f4 [1, 8]
0.0025363036 0.18353276 0.07094426 0.21653838 0.25083935 -0.103872135 0.20663482 -0.054388784
00000000: 1d38 263b 03f0 3b3e 394b 913d 3dbc 5d3e
00000010: 046e 803e eaba d4bd 1498 533e c6c6 5ebd

exp_avg f4 [32, 6]
1.3449245e-05 1.3449245e-05 -8.456981e-06 -9.691293e-06 6.0479365e-06 5.721019e-06 -1.921987e-06 -1.921987e-06
8.532886e-06 -5.178407e-06 1.3746777e-05 1.3677713e-05 1.8986937e-05 1.8986937e-05 -1.270177e-05 -1.3545173e-05
6.5836048e-06 6.141681e-06 1.8643345e-07 1.8643345e-07 -1.0485695e-07 -1.0136321e-07 2.8699822e-07 2.872716e-07
-7.321867e-06 -7.321867e-06 1.5202314e-05 -3.681916e-06 2.2491125e-05 2.2556911e-05 -9.126013e-06 -9.126013e-06
5.82125e-06 6.509099e-06 2.8307545e-06 3.0675728e-06 -1.4031833e-06 -1.4031833e-06 1.0667126e-06 1.4693723e-06
1.1132998e-06 1.1403334e-06 -1.7200453e-07 -1.7200453e-07 1.9845793e-07 6.714651e-08 -3.2614675e-08 -2.804866e-08
-5.8549704e-06 -5.8549704e-06 9.726113e-06 -9.1005995e-07 1.205447e-05 1.2174643e-05 3.2844405e-06 3.2844405e-06
-9.638292e-07 -3.5085104e-06 -1.5113005e-06 -1.5966095e-06 3.831397e-06 3.831397e-06 7.232802e-06 -1.20328905e-05
1.6803657e-05 1.6752389e-05 -8.582773e-06 -8.582773e-06 6.1853357e-06 6.6777657e-06 1.2413536e-05 1.2804144e-05
-6.940214e-06 -6.940214e-06 1.3614967e-05 -2.7690764e-06 9.556055e-06 9.662738e-06 1.0904911e-05 1.0904911e-05
4.7405006e-06 -1.8479539e-05 1.6055163e-05 1.5897469e-05 -6.921804e-06 -6.921804e-06 3.2474595e-06 6.488848e-06
-1.0252294e-05 -1.0064455e-05 -6.682748e-06 -6.682748e-06 7.000418e-06 4.08311e-06 -1.0952807e-05 -1.0941311e-05
2.0161451e-06 2.0161451e-06 -8.903586e-07 -1.4377462e-06 -3.3327894e-06 -3.3418762e-06 1.1762584e-06 1.1762584e-06
1.07942796e-07 -1.5139832e-06 4.1311173e-06 4.0997907e-06 1.1452019e-05 1.1452019e-05 -2.7414017e-06 -1.3616021e-05
2.3767258e-05 2.3593135e-05 1.33579615e-05 1.33579615e-05 -4.402587e-06 -1.3465106e-05 -4.5772877e-06 -4.887624e-06
8.19187e-06 8.19187e-06 -9.002919e-07 -1.0831357e-05 1.3833709e-05 1.3719283e-05 1.3514832e-06 1.3514832e-06
9.1660104e-07 -1.7076047e-06 -3.1698112e-06 -3.1698112e-06 -6.967534e-06 -6.967534e-06 1.2147731e-05 -2.2513686e-06
2.356652e-05 2.3555729e-05 6.8499335e-06 6.8499335e-06 4.716841e-06 -1.3748236e-05 1.2465547e-05 1.2373333e-05
-1.0210258e-06 -1.0210258e-06 1.6485186e-06 -3.3748324e-07 -2.3125267e-06 -2.3125267e-06 -4.7658173e-06 -4.7658173e-06
1.6431142e-05 -6.3876346e-06 5.349629e-06 5.399276e-06 -1.0060411e-05 -1.0060411e-05 8.704017e-06 7.3351457e-06
-2.0829623e-06 -1.8671753e-06 2.0009089e-05 2.0009089e-05 -1.0360641e-05 -1.7359222e-05 8.72073e-06 8.368968e-06
1.1380502e-06 1.1380502e-06 3.938331e-06 -5.273312e-06 2.1436681e-05 2.1370955e-05 5.2949476e-06 5.2949476e-06
1.1736558e-05 -1.7126911e-05 2.2028995e-05 2.1920363e-05 -1.3476945e-07 -1.3476945e-07 9.24853e-06 -7.3362417e-06
-1.23245045e-05 -1.23245045e-05 8.385329e-06 8.385329e-06 -7.3297397e-06 -4.507292e-06 2.5888012e-06 2.3992989e-06
00000000: 11a4 6137 11a4 6137 75e2 0db7 c997 22b7
00000010: 61ef ca36 2ef7 bf36 7cfb 00b6 7cfb 00b6
00000020: 7728 0f37 2dc2 adb6 f5a1 6637 5479 6537
00000030: 2346 9f37 2346 9f37 b019 55b7 1340 63b7
00000040: bce8 dc36 a314 ce36 702e 4834 702e 4834
00000050: b82d e1b3 04ad d9b3 bc14 9a34 4f3a 9a34
00000060: 5cae f5b6 5cae f5b6 710d 7f37 d616 77b6
00000070: 53ab bc37 9938 bd37 ed1b 19b7 ed1b 19b7
00000080: 2854 c336 bc68 da36 fef7 3d36 80dc 4d36
00000090: 0355 bcb5 0355 bcb5 f72b 8f35 3f37 c535
000000a0: b16c 9535 8f0d 9935 3fb0 38b4 3fb0 38b4
000000b0: b317 5534 2f32 9033 3714 0cb3 a8ef f0b2
000000c0: d075 c4b6 d075 c4b6 562d 2337 d84a 74b5
000000d0: 8e3d 4a37 b241 4c37 426a 5c36 426a 5c36
000000e0: eb5c 81b5 c073 6bb6 e4d7 cab5 164b d6b5
000000f0: 738f 8036 738f 8036 4cb1 f236 dfe0 49b7
00000100: 94f5 8c37 7b87 8c37 bbfe 0fb7 bbfe 0fb7
00000110: a18b cf36 9211 e036 bb43 5037 61d1 5637
00000120: fcdf e8b6 fcdf e8b6 d76b 6437 5fd4 39b6
00000130: f252 2037 251d 2237 3cf4 3637 3cf4 3637
00000140: 9710 9f36 8204 9bb7 33ae 8637 8e5b 8537
00000150: d841 e8b6 d841 e8b6 eeee 5936 c8ba d936
00000160: 4401 2cb7 81da 28b7 5e3c e0b6 5e3c e0b6
00000170: 22e5 ea36 a601 8936 f3c1 37b7 9390 37b7
00000180: 1c4d 0736 1c4d 0736 fa00 6fb5 95f8 c0b5
00000190: e3a8 5fb6 ff44 60b6 eedf 9d35 eedf 9d35
000001a0: 2ece e733 1134 cbb5 079e 8a36 ef90 8936
000001b0: 0c22 4037 0c22 4037 ecf8 37b6 5d70 64b7
000001c0: cc5f c737 dfe9 c537 021c 6037 021c 6037
000001d0: efb9 93b6 31e8 61b7 9a96 99b6 5f00 a4b6
000001e0: d06f 0937 d06f 0937 97ab 71b5 53b8 35b7
000001f0: 5417 6837 df2b 6637 9c64 b535 9c64 b535
00000200: 580c 7635 da30 e5b5 f1b8 54b6 f1b8 54b6
00000210: a9ca e9b6 a9ca e9b6 1bce 4b37 3816 17b6
00000220: b7b0 c537 8b99 c537 7bd8 e536 7bd8 e536
00000230: 5b45 9e36 39a8 66b7 1e23 5137 1097 4f37
00000240: 2e0a 89b5 2e0a 89b5 ab42 dd35 582f b5b4
00000250: e830 1bb6 e830 1bb6 0fea 9fb6 0fea 9fb6
00000260: 9cd5 8937 5d55 d6b6 f780 b336 6d2b b536
00000270: 23c9 28b7 23c9 28b7 7807 1237 6c20 f636
00000280: 05c9 0bb6 a89b fab5 31d9 a737 31d9 a737
00000290: 9dd2 2db7 a59e 91b7 404f 1237 7268 0c37
000002a0: 1bbf 9835 1bbf 9835 0126 8436 68f1 b0b6
000002b0: ecd2 b337 c745 b337 41ab b136 41ab b136
000002c0: 22e8 4437 c3ab 8fb7 e8ca b837 9fe1 b737
000002d0: 25b5 10b4 25b5 10b4 222a 1b37 d629 f6b6
000002e0: 58c5 4eb7 58c5 4eb7 b7ae 0c37 b7ae 0c37
000002f0: fcf1 f5b6 583d 97b6 44bb 2d36 a403 2136

exp_avg_sq f4 [32, 6]
1.2211313e-08 1.2211313e-08 1.31990685e-08 3.4797398e-09 8.4785956e-10 7.8460216e-10 3.16048e-09 3.16048e-09
1.4336847e-09 3.3490735e-09 1.2211888e-09 1.2252115e-09 2.03117e-08 2.03117e-08 2.5365024e-08 4.734851e-09
1.3759894e-09 1.281812e-09 3.4886444e-10 3.4886444e-10 6.5622263e-10 3.039112e-10 1.9090904e-09 1.9000197e-09
2.0580355e-09 2.0580355e-09 1.8493732e-09 1.528386e-09 2.9623133e-09 2.9923282e-09 9.227478e-09 9.227478e-09
2.0515902e-09 1.0025346e-08 4.2044213e-10 4.5655432e-10 1.8084043e-09 1.8084043e-09 4.5348406e-10 2.6802744e-09
1.3040061e-10 1.413391e-10 6.431246e-09 6.431246e-09 1.0938794e-08 8.9627483e-10 3.7897804e-10 3.4466455e-10
1.944604e-09 1.944604e-09 8.5967383e-10 1.7502538e-09 7.784113e-10 8.009478e-10 3.9812312e-10 3.9812312e-10
8.6815466e-10 1.5549366e-10 6.000862e-11 5.999706e-11 1.6515835e-09 1.6515835e-09 3.763372e-09 1.4114045e-09
6.5558297e-09 6.54368e-09 1.0722439e-08 1.0722439e-08 1.0149837e-09 1.8685302e-08 2.268039e-09 2.4600844e-09
2.1369873e-09 2.1369873e-09 2.2069895e-09 1.1074951e-09 4.742762e-10 4.8638177e-10 5.2898534e-09 5.2898534e-09
2.674449e-09 5.117293e-09 1.5971368e-09 1.5643051e-09 3.919358e-09 3.919358e-09 9.782615e-09 5.846554e-09
6.2559624e-09 6.2209127e-09 2.8041403e-09 2.8041403e-09 1.8419817e-09 2.4674744e-09 4.1155266e-09 4.1018167e-09
4.534061e-10 4.534061e-10 2.4116484e-10 7.24391e-10 8.5419793e-10 8.5514773e-10 1.3121746e-09 1.3121746e-09
4.9333604e-10 2.6671747e-09 3.2280432e-09 3.2031502e-09 6.0899352e-09 6.0899352e-09 6.729737e-09 2.3404443e-09
4.476769e-09 4.3200488e-09 6.1215326e-09 6.1215326e-09 3.8518917e-09 3.379423e-09 1.7711982e-09 1.8044088e-09
5.3911235e-09 5.3911235e-09 4.004161e-09 2.8715816e-09 1.7909186e-09 1.7174765e-09 8.100914e-10 8.100914e-10
8.1728435e-10 7.8357504e-10 2.2400204e-09 2.2400204e-09 2.421921e-09 2.421921e-09 1.4878226e-09 2.2080997e-09
3.3216814e-09 3.312357e-09 1.1450423e-09 1.1450423e-09 5.702511e-10 1.5359493e-09 1.8826387e-09 1.8692803e-09
7.1964246e-10 7.1964246e-10 5.7215394e-10 5.163844e-10 4.6262844e-10 4.6262844e-10 6.456851e-09 6.456851e-09
7.981698e-09 4.018312e-09 3.6031251e-09 3.5466403e-09 6.165009e-09 6.165009e-09 2.187115e-09 6.1258167e-09
3.6746184e-10 3.7347e-10 1.4595095e-08 1.4595095e-08 1.37382035e-08 5.441086e-09 1.2057984e-09 1.1338323e-09
4.993026e-10 4.993026e-10 3.373381e-10 7.70945e-10 7.1985724e-09 7.143e-09 4.027684e-09 4.027684e-09
4.4485096e-09 5.918362e-09 8.15165e-09 7.962891e-09 4.545027e-10 4.545027e-10 1.7345035e-09 1.3767862e-09
5.9164127e-09 5.9164127e-09 1.0090796e-09 1.0090796e-09 1.2119132e-09 1.9568401e-10 8.292333e-11 8.0320715e-11
00000000: ecc9 5132 ecc9 5132 1ec2 6232 3b20 6f31
00000010: d00e 6930 78ab 5730 c12f 5931 c12f 5931
00000020: 4c0b c530 8625 6631 c3d6 a730 4c64 a830
00000030: e779 ae32 e779 ae32 47e2 d932 31b0 a231
00000040: 531d bd30 c02b b030 4eca bf2f 4eca bf2f
00000050: 9061 3430 b313 a72f 1331 0331 8091 0231
00000060: 586d 0d31 586d 0d31 092d fe30 4d0f d230
00000070: 9191 4b31 98a1 4d31 e186 1e32 e186 1e32
00000080: f5fb 0c31 f03b 2c32 f823 e72f 4ffe fa2f
00000090: 928b f830 928b f830 354e f92f e32f 3831
000000a0: 8260 0f2f 6b67 1b2f d7f9 dc31 d7f9 dc31
000000b0: 53ed 3b32 bc5d 7630 6b58 d02f 397b bd2f
000000c0: d6a1 0531 d6a1 0531 2b4e 6c30 958d f030
000000d0: d3f7 5530 b129 5c30 d9de da2f d9de da2f
000000e0: f4a2 6e30 93f7 2a2f daf5 832e 58ef 832e
000000f0: eefd e230 eefd e230 f84e 8131 62fb c130
00000100: b041 e131 d1d6 e031 c935 3832 c935 3832
00000110: 907f 8b30 6a81 a032 c4db 1b31 430e 2931
00000120: 47da 1231 47da 1231 c5a9 1731 8536 9830
00000130: 385e 0230 13b2 0530 0bc2 b531 0bc2 b531
00000140: 68c9 3731 2fd4 af31 4182 db30 18ff d630
00000150: 0aab 8631 0aab 8631 6510 2832 d5e2 c831
00000160: 07f4 d631 babf d531 f5b2 4031 f5b2 4031
00000170: f828 fd30 4590 2931 8e68 8d31 f6ef 8c31
00000180: 3c43 f92f 3c43 f92f ef94 842f 7c1e 4730
00000190: d6cc 6a30 ac0f 6b30 0a58 b430 0a58 b430
000001a0: 709b 0730 6f49 3731 56d4 5d31 6a1e 5c31
000001b0: a33f d131 a33f d131 653b e731 88d5 2031
000001c0: 14d2 9931 8d6f 9431 9255 d231 9255 d231
000001d0: 9959 8431 703b 6831 7f6e f330 fefe f730
000001e0: d33c b931 d33c b931 f994 8931 6655 4531
000001f0: 5924 f630 550c ec30 1dad 5e30 1dad 5e30
00000200: 46a7 6030 3163 5730 dbee 1931 dbee 1931
00000210: e36e 2631 e36e 2631 1b7c cc30 4dbd 1731
00000220: a343 6431 9a9f 6331 985f 9d30 985f 9d30
00000230: dbbf 1c30 6919 d330 bb5f 0131 ba74 0031
00000240: 56d0 4530 56d0 4530 c145 1d30 52f1 0d30
00000250: 2a55 fe2f 2a55 fe2f 10db dd31 10db dd31
00000260: e11f 0932 7211 8a31 d99a 7731 28b9 7331
00000270: fed3 d331 fed3 d331 224c 1631 417b d231
00000280: a803 ca2f 3b51 cd2f e8bd 7a32 e8bd 7a32
00000290: 4205 6c32 4cf4 ba31 42b9 a530 2dd5 9b30
000002a0: 4c3f 0930 4c3f 0930 1e74 b92f 6eea 5330
000002b0: 5057 f731 7e6e f531 e263 8a31 e263 8a31
000002c0: 81d9 9831 765a cb31 560b 0c32 2acd 0832
000002d0: 92dd f92f 92dd f92f 6b63 ee30 5c39 bd30
000002e0: 5149 cb31 5149 cb31 d5af 8a30 d5af 8a30
000002f0: 6890 a630 2728 572f af59 b62e 8ba0 b02e

exp_avg f4 [32]
-1.8239138e-05 -3.322332e-05 -2.4068928e-05 2.8007983e-07 -3.8988193e-05 -1.2528652e-05 -1.6061311e-06 1.1474878e-07
-2.009541e-05 -9.664523e-06 -4.4119508e-05 -1.6293774e-05 -3.038611e-05 -5.043356e-05 -3.1644657e-05 -1.5521657e-05
-5.940694e-06 -7.859757e-06 -3.2645e-05 -3.5324196e-05 -2.4744491e-05 -6.772024e-06 -3.9914466e-05 -4.273558e-05
-4.9882506e-06 -4.855134e-05 -1.5623846e-05 -3.0160198e-05 -2.1719796e-05 -7.940672e-05 -2.7820106e-05 -8.492306e-06
00000000: 4000 99b7 4559 0bb8 a1e7 c9b7 e15d 9634
00000010: 4187 23b8 2732 52b7 3f92 d7b5 cf6b f633
00000020: 9092 a8b7 cf24 22b7 f60c 39b8 9dae 88b7
00000030: ade5 feb7 9f88 53b8 31ba 04b8 8134 82b7
00000040: 2c56 c7b6 66dd 03b7 4dec 08b8 1129 14b8
00000050: 6492 cfb7 3e3b e3b6 d569 27b8 fb3e 33b8
00000060: bf60 a7b6 9ba3 4bb8 f40f 83b7 8800 fdb7
00000070: e832 b6b7 2887 a6b8 395f e9b7 2d7a 0eb7

exp_avg_sq f4 [32]
1.056191e-08 1.2224768e-08 1.4276491e-08 4.236508e-09 1.1109332e-08 8.6368015e-09 1.2542944e-09 3.4566003e-09
3.1584333e-09 1.4625768e-09 3.280263e-08 9.823906e-09 9.201839e-09 3.702708e-08 4.873919e-08 7.3497515e-09
1.478567e-09 2.0495069e-08 9.6021155e-09 1.935911e-08 1.0817011e-08 8.919288e-09 1.511337e-08 1.5882975e-08
8.418768e-10 8.059731e-08 7.159601e-09 1.5406979e-08 7.884848e-09 2.068718e-07 1.5494358e-08 6.9780387e-10
00000000: c573 3532 1905 5232 ac44 7532 b890 9131
00000010: 5cdb 3e32 0e61 1432 9063 ac30 2889 6d31
00000020: bf0b 5931 d903 c930 e0e2 0c33 ffc5 2832
00000030: 1e16 1e32 b407 1f33 4e55 5133 1989 fc31
00000040: 7436 cb30 220d b032 8df6 2432 224b a632
00000050: b8d5 3932 723b 1932 a7d2 8132 086f 8832
00000060: d069 6730 d714 ad33 8400 f631 4e58 8432
00000070: ee75 0732 7d20 5e34 7418 8532 95cf 3f30

exp_avg f4 [16, 32]
4.0837992e-07 1.5786094e-05 1.3061917e-07 6.2464346e-07 1.4019891e-05 1.2041871e-06 6.164767e-08 5.8541287e-09
7.74833e-06 1.819153e-07 1.1998951e-05 1.5771094e-06 1.1107536e-05 5.5991877e-06 3.7434702e-07 7.004511e-08
1.6515124e-15 5.2509895e-06 5.5557825e-06 5.571792e-08 6.2613703e-06 3.940317e-08 6.8733016e-06 6.8367185e-06
1.4618641e-07 2.7528781e-06 8.5749906e-07 6.075881e-07 8.974218e-06 5.3474873e-06 4.0991898e-07 5.1356785e-09
-3.88399e-06 -1.3776757e-05 -1.7444423e-06 -5.381112e-06 -1.0567709e-05 -2.652484e-06 -8.494541e-08 -3.690247e-07
-5.804826e-06 -6.714393e-06 -1.1757415e-05 -1.6942629e-06 -1.1299016e-05 -7.389217e-06 -2.6955913e-06 -2.3898065e-06
-1.750912e-06 -5.624848e-06 -6.176347e-06 -9.296115e-06 -9.818084e-06 -1.8586164e-06 -5.886913e-06 -9.764553e-06
-2.357602e-06 -9.002994e-06 -3.3338813e-06 -4.0463738e-06 -6.6569114e-06 -7.4362783e-06 -3.0724495e-06 -1.4264635e-06
-1.0161372e-05 -3.4742872e-05 -4.566965e-06 -1.31230745e-05 -2.7051952e-05 -6.8561094e-06 -2.3146198e-07 -1.0199811e-06
-1.4904272e-05 -1.6712784e-05 -2.9444493e-05 -4.5401257e-06 -2.830463e-05 -1.8462331e-05 -6.8762597e-06 -5.9235426e-06
-4.4143285e-06 -1.459393e-05 -1.6058457e-05 -2.3514436e-05 -2.535681e-05 -4.5436723e-06 -1.5170467e-05 -2.4394e-05
-5.7973807e-06 -2.179824e-05 -8.481461e-06 -1.0508449e-05 -1.7299837e-05 -1.8552395e-05 -7.3874608e-06 -3.7952232e-06
0.0 0.0 0.0 0.0 0.0 0.0 0.0 0.0
0.0 0.0 0.0 0.0 0.0 0.0 0.0 0.0
0.0 0.0 0.0 0.0 0.0 0.0 0.0 0.0
0.0 0.0 0.0 0.0 0.0 0.0 0.0 0.0
-1.2550161e-05 -4.25416e-05 -5.6414274e-06 -1.5936972e-05 -3.3242184e-05 -8.44413e-06 -2.884795e-07 -1.275188e-06
-1.8327542e-05 -2.0399304e-05 -3.5993595e-05 -5.637918e-06 -3.4601842e-05 -2.2555867e-05 -8.442555e-06 -7.222541e-06
-5.4046536e-06 -1.799032e-05 -1.980539e-05 -2.881323e-05 -3.122468e-05 -5.5212504e-06 -1.8670997e-05 -2.98019e-05
-7.054934e-06 -2.6424446e-05 -1.0406812e-05 -1.2956809e-05 -2.1333884e-05 -2.2657769e-05 -8.939528e-06 -4.705179e-06
2.9617508e-08 6.5669816e-08 6.478152e-09 5.9333498e-08 4.713031e-08 3.3295844e-08 8.339012e-10 4.9800324e-09
1.7951844e-08 6.402657e-09 4.1959925e-08 1.3557589e-08 5.907673e-08 3.374635e-08 4.2594433e-08 5.6615367e-08
8.210702e-09 5.4573114e-08 5.7641227e-08 1.5810231e-08 8.722133e-08 1.785769e-08 4.4308617e-08 4.4989914e-08
2.4624635e-08 6.4079636e-08 6.879853e-08 2.3129866e-08 6.1807036e-08 4.0892402e-08 1.6867471e-08 7.888002e-09
-1.4959409e-05 -5.057617e-05 -6.7247834e-06 -1.8899878e-05 -3.9563653e-05 -1.0056884e-05 -3.4481567e-07 -1.525608e-06
-2.1817741e-05 -2.4229217e-05 -4.276911e-05 -6.731218e-06 -4.111757e-05 -2.6797601e-05 -1.0045926e-05 -8.5762e-06
-6.4256196e-06 -2.143126e-05 -2.3596707e-05 -3.426337e-05 -3.7184855e-05 -6.5489908e-06 -2.2232207e-05 -3.5405767e-05
-8.371984e-06 -3.1319403e-05 -1.2380622e-05 -1.5436157e-05 -2.5417356e-05 -2.6915692e-05 -1.0589645e-05 -5.615152e-06
-9.809511e-06 -3.4231194e-05 -4.4068797e-06 -1.3173985e-05 -2.6429434e-05 -6.6620178e-06 -2.1844643e-07 -9.552734e-07
-1.4535585e-05 -1.6585103e-05 -2.9126708e-05 -4.3253963e-06 -2.7988279e-05 -1.8285138e-05 -6.7291567e-06 -5.8906003e-06
-4.34832e-06 -1.415462e-05 -1.5558166e-05 -2.3125129e-05 -2.46565e-05 -4.5548168e-06 -1.4765922e-05 -2.4162535e-05
-5.7919297e-06 -2.1973869e-05 -8.313494e-06 -1.0186213e-05 -1.6763352e-05 -1.8389748e-05 -7.477123e-06 -3.6287506e-06
00000000: 4f3f db34 616c 8437 5340 0c34 2cad 2735
00000010: f936 6b37 8e9f a135 2a63 8433 7625 c931
00000020: d3fe 0137 7f54 4334 1a4f 4937 11ad d335
00000030: 815a 3a37 a8e0 bb36 ddf9 c834 b56b 9633
00000040: 0e02 ee26 a831 b036 cf6b ba36 804e 6f33
00000050: c318 d236 3e3c 2933 36a1 e636 f766 e536
00000060: 6af7 1c34 16be 3836 e32e 6635 2319 2335
00000070: f98f 1637 916e b336 d612 dc34 e875 b031
00000080: 3853 82b6 b922 67b7 9522 eab5 668f b4b6
00000090: f74b 31b7 5401 32b6 3c6b b6b3 5e1e c6b4
000000a0: 13c7 c2b6 324c e1b6 b741 45b7 6e66 e3b5
000000b0: e790 3db7 e4f0 f7b6 e8e5 34b6 9060 20b6
000000c0: e100 ebb5 14bd bcb6 6b3e cfb6 83f6 1bb7
000000d0: 5ab8 24b7 9375 f9b5 3388 c5b6 70d2 23b7
000000e0: 4b37 1eb6 910b 17b7 a5bb 5fb6 16c6 87b6
000000f0: 6f5e dfb6 2585 f9b6 4830 4eb6 ea74 bfb5
00000100: c37a 2ab7 e0b8 11b8 ee3d 99b6 2d2b 5cb7
00000110: a0ed e2b7 880d e6b6 c987 78b4 49e6 88b5
00000120: 5c0d 7ab7 6e32 8cb7 91ff f6b7 6257 98b6
00000130: bb6f edb7 8edf 9ab7 9fba e6b6 d8c2 c6b6
00000140: cb1e 94b6 74d8 74b7 46b5 86b7 de40 c5b7
00000150: 56b5 d4b7 d975 98b6 a984 7eb7 b7a1 ccb7
00000160: 1f87 c2b6 5ddb b6b7 994b 0eb7 724d 30b7
00000170: 1e1f 91b7 f7a0 9bb7 cee1 f7b6 70b1 7eb6
00000180: 0000 0000 0000 0000 0000 0000 0000 0000
00000190: 0000 0000 0000 0000 0000 0000 0000 0000
000001a0: 0000 0000 0000 0000 0000 0000 0000 0000
000001b0: 0000 0000 0000 0000 0000 0000 0000 0000
000001c0: 0000 0000 0000 0000 0000 0000 0000 0000
000001d0: 0000 0000 0000 0000 0000 0000 0000 0000
000001e0: 0000 0000 0000 0000 0000 0000 0000 0000
000001f0: 0000 0000 0000 0000 0000 0000 0000 0000
00000200: 888e 52b7 b26e 32b8 7e4b bdb6 63b0 85b7
00000210: 866d 0bb8 43ab 0db7 52e0 9ab4 2027 abb5
00000220: 19be 99b7 2c1f abb7 d4f7 16b8 592d bdb6
00000230: 7221 11b8 5b36 bdb7 7fa4 0db7 2859 f2b6
00000240: 9f59 b5b6 ebe9 96b7 c023 a6b7 f1b3 f1b7
00000250: 3ff7 02b8 2e43 b9b6 a99f 9cb7 18ff f9b7
00000260: 6cb9 ecb6 11aa ddb7 eb98 2eb7 1261 59b7
00000270: 2bf6 b2b7 3011 beb7 fbfa 15b7 2ee1 9db6
00000280: 9769 fe32 5d06 8d33 6d96 de31 dfd5 7e33
00000290: 536c 4a33 2b01 0f33 9538 6530 d41c ab31
000002a0: 8634 9a32 5efe db31 6d37 3433 e8ea 6832
000002b0: 8dbb 7d33 81f0 1033 13f1 3633 4129 7333
000002c0: 0d0f 0d32 c663 6a33 3391 7733 11cf 8732
000002d0: 6f4e bb33 7a65 9932 d74d 3e33 ef3a 4133
000002e0: 2586 d332 279c 8933 64be 9333 1daf c632
000002f0: c7ba 8433 aca1 2f33 f6e3 9032 cd83 0732
00000300: 2cfa 7ab7 c021 54b8 73a5 e1b6 2e8b 9eb7
00000310: 26f1 25b8 fdb9 28b7 1b1f b9b4 7ec3 ccb5
00000320: 3e05 b7b7 d93f cbb7 fb62 33b8 b9dc e1b6
00000330: a875 2cb8 69cb e0b7 ec8a 28b7 80e2 0fb7
00000340: a79b d7b6 48c7 b3b7 8bf1 c5b7 03b6 0fb8
00000350: eff6 1bb8 67bf dbb6 4d7f bab7 a780 14b8
00000360: 6675 0cb7 f45c 03b8 5eb6 4fb7 e57c 81b7
00000370: 5b37 d5b7 02c9 e1b7 2eaa 31b7 ca69 bcb6
00000380: 8793 24b7 7793 0fb8 cfde 93b6 d605 5db7
00000390: c7b4 ddb7 4c8a dfb6 198e 6ab4 f236 80b5
000003a0: dddd 73b7 3d20 8bb7 2155 f4b7 df22 91b6
000003b0: 5fc8 eab7 0963 99b7 04cb e1b6 dfa7 c5b6
000003c0: c9e7 91b6 a179 6db7 e882 82b7 d6fc c1b7
000003d0: 6ed5 ceb7 94d5 98b6 27bb 77b7 a6b0 cab7
000003e0: 4c58 c2b6 8654 b8b7 2f7a 0bb7 74e5 2ab7
000003f0: 069f 8cb7 af43 9ab7 ffe3 fab6 7685 73b6
