src/logs/sine_wave/trading_rl_experiment_trial_2_checkpoint.pt (torch, 46167 bytes, 39 tensors)

module.0.module.network.0.weight f4 [32, 6]
000000 b9 ed fd bd e8 18 0e ba 66 7a 55 3e 45 8d 80 3e
       -0.123988576 -0.00054205814 0.20847473 0.2510778
000010 e5 67 bc be c1 c0 8b bd c2 34 05 be 00 89 c4 3d
       -0.36798015 -0.06823874 -0.13008407 0.09596443
000020 eb d2 d7 3e ab df 00 3e 98 d0 b5 3e eb 50 5f 3e
       0.42153105 0.12585323 0.35510707 0.21808212
000030 ff 4c a2 be 50 1d bd be eb 6b e6 3e f5 4f 55 3d
       -0.31699368 -0.36936426 0.4500421 0.052078206
000040 6a 17 81 be b5 52 34 be 2c fa 9e 3e ef 81 cc bc
       -0.25213176 -0.17609675 0.3105024 -0.0249643
000050 00 d5 88 bc 8a 4c a3 be f2 55 b6 be 41 1d 02 3d
       -0.016703129 -0.31894332 -0.35612446 0.03176618
000060 38 73 17 3d 99 06 d5 be 2b b3 66 3e 36 5a 81 3e
       0.036975116 -0.41606596 0.22529285 0.25264138
000070 e5 a2 3b 3e e0 92 39 3e 09 02 44 be 3c 26 c2 bd
       0.18323858 0.18122435 -0.19141401 -0.09479949
000080 d2 08 89 3e a4 78 98 be 18 4d 76 be 9c cb 34 3e
       0.26764542 -0.29779541 -0.24052846 0.17655796
000090 2b f0 82 be a2 73 b0 be 5b 52 2f be b7 63 9e 3d
       -0.2557386 -0.3446322 -0.1712126 0.07733863
0000a0 c0 0f 8e 3e c2 95 23 3d 5b af 3a 3e 73 c1 83 3d
       0.2774639 0.039937742 0.18230955 0.06433382
0000b0 f1 c4 b5 3c 77 2a a5 bd 64 8e 34 3d f9 ed a5 3e
       0.022188636 -0.0806474 0.044081107 0.3240812
0000c0 99 42 c7 3e 7e 78 9b 3d fa b7 e9 be ac 70 22 bd
       0.38917997 0.075913414 -0.45648175 -0.039658234
0000d0 dd 68 a9 bd 70 81 8c bc aa db 70 3e ea ef 33 bd
       -0.08271954 -0.017151564 0.23521295 -0.04392997
0000e0 65 b7 08 bd 2a e0 e1 bd 7d 56 aa be 69 5c c3 3d
       -0.033378024 -0.11029084 -0.3326911 0.0953911
0000f0 1d a0 99 3e 3d f5 98 be 42 5d cb 3e ea 3b 54 be
       0.3000497 -0.29874602 0.39719588 -0.2072598
000100 ab 1b a9 bd d2 4b 93 3e c5 23 5f 3e f1 90 ad bd
       -0.0825723 0.28768784 0.21790989 -0.08474911
000110 63 89 cd be 90 6c b1 be de d3 d4 3e 20 5b 88 3c
       -0.4014388 -0.3465314 0.41567892 0.016645014
000120 51 de fb 3d 09 6f fc 3c 09 05 2f 3d 8d 15 17 3e
       0.12298263 0.030814664 0.04272941 0.14754315
000130 99 55 42 bc 71 7b ad bd 98 ee 01 3e 90 98 0a 3d
       -0.011861228 -0.0847081 0.12688673 0.0338369
000140 61 12 60 be f6 a8 5d 3d 6d 51 9a 3e 43 3f 7c 3e
       -0.21882011 0.05411621 0.30140248 0.24633507
000150 52 c7 7c 3d 24 4b 13 3e 63 1a ba be c8 c6 a0 be
       0.061713524 0.14384133 -0.36348256 -0.31401658
000160 07 90 74 be 00 d1 a6 3e da a9 06 3e c8 bd 83 3e
       -0.23883067 0.3258133 0.1315073 0.2573073
000170 d0 2b 9f be 8f 70 be bc 0e 14 85 be 7b 75 d3 bc
       -0.31088114 -0.023247031 -0.25991863 -0.025812855
000180 12 68 e9 bd 03 1d 16 be 97 ff 59 3e d6 a1 d7 3e
       -0.11396803 -0.14659505 0.21288906 0.4211566
000190 5d 1b ce 3d d5 9e 68 be 73 28 62 3c e3 38 ae be
       0.10063813 -0.2271684 0.013803589 -0.34027776
0001a0 82 fc 35 3e 5c 32 83 3e 99 db d3 be 0c d9 4e be
       0.17772105 0.2562436 -0.41378477 -0.20199984
0001b0 7b f5 91 be 25 4e 73 be 9f 91 bf 3e 25 c5 83 be
       -0.285076 -0.23760279 0.37415788 -0.25736347
0001c0 7f c2 b4 bc f7 7e 73 3e c0 79 93 be 15 a5 41 3d
       -0.0220654 0.23778902 -0.28803825 0.047276575
0001d0 98 1a 23 be 43 48 09 be 37 db 20 3e 94 26 b4 3e
       -0.15928113 -0.13406472 0.15708624 0.35185683
0001e0 6a db c4 3d b4 ac 92 3e b7 2a d8 bd 0e c2 2b bd
       0.096121624 0.28647387 -0.10555022 -0.04193311
0001f0 47 81 c7 3e d9 35 3e be bc d8 67 3e 88 ce 41 3e
       0.38965818 -0.18575229 0.22641271 0.18926442
000200 2c d2 39 be 98 35 87 3e 50 5c 5d be 22 0f 6d 3e
       -0.1814658 0.26408076 -0.21617246 0.23150304
000210 41 8b 98 3e f5 bb d8 3e f0 f4 b0 be d0 48 8d 3d
       0.29793742 0.423309 -0.34561872 0.068986535
000220 88 38 b0 be 29 a8 4b 3d bc a5 a7 be 36 3f 8f 3d
       -0.3441813 0.049720917 -0.32743633 0.069944784
000230 42 73 8d 3e 7a 56 91 3e 77 01 f3 3d 44 08 44 3e
       0.27626997 0.2838629 0.11865514 0.19143778
000240 69 ec 03 3d f1 cc 46 3e 78 66 a1 3e 13 45 ab bd
       0.03220788 0.19414116 0.3152349 -0.08362784
000250 4e da 0c 3e cf 77 6d bd 82 de 04 3e 79 ae f0 bc
       0.13755152 -0.057975587 0.12975505 -0.02938007
000260 e4 6b 18 be d1 a2 d9 be 76 d4 ad 3e 13 03 53 3e
       -0.14884907 -0.42507032 0.33951157 0.20606641
000270 13 0c 58 3e b6 40 d3 3d 50 1a c5 be b3 09 c5 3e
       0.21098356 0.10315077 -0.38496637 0.38483962
000280 67 94 a5 be 04 3a 56 3d 88 e0 0c 3e d6 cf c2 3d
       -0.32339785 0.05230142 0.13757527 0.09512298
000290 7e 17 b7 ba ca d7 d3 3e 95 30 cf 3e 66 39 c1 3e
       -0.0013968793 0.4137557 0.40466753 0.37739104
0002a0 a5 c1 97 3c a4 e2 38 3e 31 26 af 3e 23 01 bf be
       0.018524954 0.18055207 0.34208825 -0.37305555
0002b0 ee db 1f 3e e7 c9 35 3e 4b 58 14 be 10 24 c8 be
       0.1561124 0.17752801 -0.14486806 -0.39090014
0002c0 f6 b6 d0 be 80 b9 b3 be a7 af b8 3e eb b3 2a be
       -0.40764588 -0.35102463 0.36071512 -0.16670196
0002d0 39 fc 5f 3e 18 c5 b4 be 4a 7c 0c 3e f8 f6 53 be
       0.21873559 -0.3530662 0.13719288 -0.2069968
0002e0 a2 a4 ac be b0 d2 5d be 48 9b 7f 3e 81 c4 64 be
       -0.33719355 -0.21662402 0.24961579 -0.22340585
0002f0 e5 20 e1 3d b1 0d 55 3e 2b 24 ac be 90 71 48 bc
       0.10992602 0.20806004 -0.33621344 -0.012234107

module.0.module.network.0.bias f4 [32]
000000 76 ff 9f be 0a a1 44 be f1 39 45 3e 25 cb cc 3d
       -0.3124959 -0.19202057 0.19260384 0.09999684
000010 aa d6 0b be fa a4 8b 3e d9 81 b5 bd cc 6a 35 bc
       -0.13656107 0.27274305 -0.08862657 -0.011072826
000020 1a c4 d6 bb 38 9d b4 3e 99 c1 ba 3e 56 29 14 3e
       -0.006554139 0.35276198 0.36475828 0.14468893
000030 b7 6e a1 bd 1b 45 e3 bc c6 fc e9 3e fb 88 9d 3e
       -0.07882445 -0.027742913 0.45700663 0.3076857
000040 fb 41 d8 3b 59 b0 40 3e 5e f1 a8 3d 71 e7 55 3e
       0.0065996624 0.18817271 0.08249162 0.20889069
000050 10 8a a5 be 8a ed 69 3e 78 d7 a1 3e d5 62 2e be
       -0.32331896 0.2284452 0.31609702 -0.17029889
000060 70 f0 1f be 7e 75 d0 3d 4b 28 2a be 7a 6b 9e 3d
       -0.15619063 0.1017866 -0.16616933 0.07735343
000070 68 fc 0c be 3d ba 5c be 7e 80 a8 be 58 89 95 3c
       -0.1376816 -0.2155542 -0.32910532 0.018253967

module.0.module.network.2.weight f4 [16, 32]
000000 a8 9e ef bd 27 2f 8d bd 73 9c d3 3d 37 30 f8 3c
       -0.11700183 -0.06893759 0.10332575 0.030296428
000010 a8 7a 53 3e 2e 91 de 3d ac 23 b3 bb d0 fe a1 bd
       0.20652258 0.108675346 -0.005466899 -0.0790993
000020 c2 1b 5c 3e 30 b5 b6 bd 5f 72 9e bd 0b 4d b4 3c
       0.21494964 -0.089212775 -0.07736658 0.022009393
000030 45 3f 58 bc 08 f8 e3 bd f6 98 b8 bd 3b 91 2c 3e
       -0.013198678 -0.111312926 -0.0901355 0.16852276
000040 b7 34 ff bb fe 6d 19 3b 10 5d 69 3d 47 4e 98 3d
       -0.0077882665 0.0023411508 0.056973517 0.07436805
000050 15 14 9c bd 83 de 33 3d 17 2f 0a 3e 55 88 5e 3d
       -0.07621018 0.043913376 0.13494526 0.054329235
000060 16 d1 0b bd af c3 d5 bd 3e fa f3 bc 5a 51 42 3e
       -0.034134947 -0.10437714 -0.02978241 0.18976346
000070 4c 17 d8 3d b2 33 2b 3e 09 8b 0b bd 47 f1 a9 bd
       0.105513185 0.16718939 -0.03406814 -0.08297973
000080 62 a6 04 3b 43 5e 4c bc 52 5a 2b 3d cc 2f 19 3d
       0.0020240773 -0.012473646 0.041834183 0.0373991
000090 ae 4b ec 3c a4 11 7b 3e fc 23 44 3e 64 c4 69 3e
       0.02884468 0.24518448 0.19154352 0.22828823
0000a0 cc 52 a2 3d 44 43 06 3e 16 e1 bd bd b7 2c 68 3e
       0.079259485 0.13111597 -0.09271447 0.22673307
0000b0 d2 aa cb bc 70 2e 37 3e 76 37 d4 bd 90 77 18 3e
       -0.024861727 0.17888808 -0.10362141 0.1488936
0000c0 d8 74 86 bd 3a 4a 18 3e e3 a0 46 bd b9 93 d1 bc
       -0.06565255 0.14872065 -0.048493277 -0.025583135
0000d0 cd d7 c1 bd 78 8b 92 bd 6b a3 2a 3e f5 30 54 3e
       -0.09464989 -0.07155508 0.16663902 0.207218
0000e0 fe 48 fa 3c 1b 30 8c 3d 64 f3 35 3e 26 a9 7c 3d
       0.030552384 0.06845113 0.17768627 0.06168475
0000f0 d4 48 a0 3d 53 1e 6a 3d e0 74 4a bd 84 1b e0 3d
       0.07826391 0.057157826 -0.049427867 0.10942748
000100 e9 cd 85 bd 1b c1 f4 3d c1 22 20 be 12 1a 20 bd
       -0.06533415 0.119508944 -0.15638258 -0.039087363
000110 b1 94 0c 3e 36 90 23 3d 99 49 28 be 2c 0b e5 3d
       0.13728596 0.039932452 -0.16434325 0.111837715
000120 65 28 45 bd cd 28 33 be e7 7e f3 3d 0a 0b c0 3d
       -0.048134226 -0.17496033 0.11889439 0.093771055
000130 4c 68 1f 3e 3f 45 86 bd e1 8d 37 3d 6c 71 d9 3d
       0.1556713 -0.065561764 0.04481304 0.10617337
000140 2b 97 19 bd 22 9d cb bd 7a a5 3e be 7f 83 0b be
       -0.03749768 -0.0994208 -0.18617812 -0.1362438
000150 00 53 9f 3d c4 cc 73 3d e8 5b 19 3c dd 29 36 bd
       0.07779503 0.05952145 0.009360291 -0.044473518
000160 2a 3b f7 bc a5 9a c0 bd f3 84 47 bd 07 f2 0f 3e
       -0.030179579 -0.09404496 -0.048710775 0.1405717
000170 66 4b aa bc 60 e3 0d 3e a1 26 d4 bd bb f4 10 be
       -0.020787906 0.13856268 -0.103589304 -0.14155857
000180 fa 07 c0 bd c8 7a 19 be 6d b5 c1 3d 98 a8 23 3d
       -0.093765214 -0.14988244 0.09458432 0.039955705
000190 0c 35 fe 3d 54 0a 5c bc 9c 45 2b 3d 96 85 2e 3d
       0.12412462 -0.013430197 0.04181443 0.042607866
0001a0 bf f9 c3 3c b1 9b 0b 3e c0 cf ad bd 6b 51 70 3d
       0.0239228 0.1363361 -0.08486891 0.058671396
0001b0 c0 74 99 3d 4c 15 75 bd c4 9d 00 be 29 42 0b 3e
       0.074929714 -0.059834763 -0.12560183 0.13599457
0001c0 f2 8c e4 3d 3e 5e a4 3c b9 10 22 bd 5b a0 2b 3c
       0.11159696 0.02006447 -0.03956673 0.010475243
0001d0 46 c5 73 3d d7 44 e7 bd 4c b9 71 3d 88 e4 34 be
       0.059514306 -0.11292427 0.059014603 -0.17665303
0001e0 9b 57 f3 3d 65 11 27 be c2 93 5a 3c a2 db 3f be
       0.11881944 -0.16315229 0.013340892 -0.18736127
0001f0 2e 36 9a bb 53 6d 7e bd b5 bb bf bd 57 e3 a2 bd
       -0.0047061658 -0.06211598 -0.09361974 -0.07953518
000200 06 0d c2 3d 71 1c 39 bc 89 d1 b9 3d 18 fe 3c 3e
       0.0947514 -0.011298285 0.09073169 0.18456304
000210 67 4b 05 3e f9 7a a7 bd 08 7c e2 bc de 7c c3 3c
       0.13017045 -0.08177752 -0.027647033 0.023863252
000220 22 0d f5 3d 47 f6 85 3d 16 98 00 3e 13 eb f9 bc
       0.119653955 0.06541114 0.12558016 -0.0305076
000230 ac 59 de bd 59 30 39 3e f3 65 de 3d 09 62 e2 3d
       -0.10856947 0.1808485 0.10859289 0.11053855
000240 a4 80 41 3d a9 90 11 bd 95 0f fc 3d 65 73 7e 3c
       0.047241822 -0.03553835 0.123076595 0.015530442
000250 f9 d0 47 3e 38 67 1e 3e e7 63 c7 3c 8f f5 85 bd
       0.1951331 0.15469062 0.02433963 -0.06540977
000260 41 68 67 bd 4e 30 70 bd 99 8b 36 3e 8f 69 b0 bd
       -0.05649591 -0.058639817 0.1782669 -0.08613884
000270 7a d8 88 3d f2 76 68 3e e3 e9 27 3e d6 34 05 3d
       0.06681915 0.22701624 0.16397814 0.03252109
000280 2e b5 f4 bd 6d 1c 44 3e db 28 98 3d 86 23 07 3e
       -0.1194862 0.19151469 0.074296676 0.13197145
000290 d0 cc d3 3d 24 f1 30 3e f7 24 1f 3e db 07 58 3c
       0.10341799 0.17279488 0.15541445 0.013185467
0002a0 02 c0 a8 3d 73 fa ef 3d de 9d 99 bc 34 d8 e4 3c
       0.082397476 0.11717691 -0.018752035 0.027935125
0002b0 9f 8b 35 3d 34 c5 63 3e 60 88 08 3d 41 8c 9e bd
       0.044322606 0.22243196 0.033333182 -0.07741595
0002c0 96 aa 5d 3e 1d 19 e4 3d 16 99 12 3d a6 84 ae bd
       0.21647105 0.111376025 0.035790525 -0.085213944
0002d0 9a a7 88 3d 87 0f 54 bd c4 e0 57 3e a7 d9 43 bd
       0.066725925 -0.05177262 0.21081835 -0.04781499
0002e0 7b 90 c7 bd 9f cd 15 bd 0e 38 0f bc b3 eb 44 bd
       -0.09744354 -0.03657305 -0.008741392 -0.048076343
0002f0 04 bd 92 3d ca 92 e4 3d 84 64 31 3e 37 4a 49 3d
       0.07164958 0.1116081 0.173235 0.049143042
000300 c5 ec c2 3d 43 a9 19 be 04 7f ec 3d fe d7 ef bd
       0.095178165 -0.15005974 0.11547664 -0.11711119
000310 1b 75 bf 3d 2a 1b 18 be c9 8b 5c bd 9f 26 d3 bd
       0.09348508 -0.14854112 -0.053844247 -0.10310101
000320 a5 12 cb bd e3 3c 92 bc 63 e9 f9 3b 00 f7 ab bd
       -0.099156655 -0.017851299 0.007626699 -0.08396721
000330 86 2d 1d 3e fe b7 1d 3e f6 12 34 be 03 d7 2f be
       0.15349397 0.15402219 -0.17585358 -0.17171864
000340 45 3a 21 bc b5 7f 09 be c6 73 e9 3d 32 c1 2d bd
       -0.009840553 -0.13427623 0.11399035 -0.042420574
000350 64 8c c6 3d 4a a6 f9 3c 3e bf 20 be 22 d3 f3 3d
       0.09694746 0.0304748 -0.15697953 0.11905505
000360 43 7d fe 3d 66 95 82 bc cd ee 1a 3e db 7f f0 bd
       0.124262355 -0.01594038 0.15130158 -0.117431365
000370 5a a6 de 3b 6c 63 e4 3d 7a ca f4 3d 5c 2a ee bd
       0.006794733 0.11151776 0.11952682 -0.11629173
000380 28 ca 6b 3d 01 2a 30 bd 1d fc 95 bd ba 39 99 bd
       0.057565838 -0.043008808 -0.073234774 -0.074817136
000390 48 08 48 3e 5f 0a 3f bd b6 e5 33 3e 2b 7d ef 3d
       0.19534409 -0.04664075 0.17568097 0.11693796
0003a0 59 3d 30 3e fb c6 e0 3c 0d 2c 46 3e 1f d8 84 bb
       0.17210902 0.027438631 0.19352742 -0.004054084
0003b0 02 e7 31 3e 3b 4b 08 3d aa aa 70 3e e5 51 31 3e
       0.17373279 0.03327487 0.23502603 0.17316397
0003c0 96 ab 54 3e a8 a5 2a bc 89 3a c6 3d 4b 4c 0c 3e
       0.2076858 -0.010415472 0.096791334 0.13700978
0003d0 c1 10 b6 bd 0c ca 09 3d 17 e3 89 3d 2f c4 07 3d
       -0.08889914 0.033639953 0.06732767 0.03314608
0003e0 de 03 98 3d df 3f b1 bd cf d5 f9 3d 01 75 3b 3e
       0.074226126 -0.086547606 0.12198984 0.18306352
0003f0 48 12 15 bd 4b 6c 81 3d e1 68 bf 3d a7 15 2c 3e
       -0.036394387 0.06319483 0.09346176 0.16805135

module.0.module.network.2.bias f4 [16]
000000 2a da 33 3e 03 3e f0 bd e9 18 cc bd e1 ae 52 bd
       0.17563692 -0.11730578 -0.09965689 -0.05143631
000010 8c d5 11 3e a1 ce 05 3d 34 17 98 bd 37 fa b0 bd
       0.14241618 0.03266776 -0.07426301 -0.08641475
000020 06 dc 82 bd 3b 6c 45 be b2 53 19 3e 73 e7 25 be
       -0.063896224 -0.19279568 0.14973333 -0.16201572
000030 27 3b 93 3d 51 3a 97 bd 8b 74 10 3d c0 ab 0d 3e
       0.07189017 -0.0738417 0.035267394 0.13835049

module.0.module.network.4.weight f4 [3, 16]
000000 eb a1 6e 3d b7 b2 1d be 39 c2 d1 3c 0c 44 59 3e
       0.058259886 -0.15400206 0.025605308 0.21217364
000010 5f b4 cd 3d 48 d0 9d 3d 05 44 1e 3d ee ad c9 3d
       0.10044169 0.07705742 0.038639087 0.098476276
000020 70 be 13 bd be 80 50 3e f4 fa 5c bc 73 f0 38 3e
       -0.036070287 0.20361611 -0.013487566 0.18060474
000030 90 67 2e be a9 e7 4f be f5 01 2f bc b4 7c cf 3d
       -0.17031693 -0.20303215 -0.010681619 0.10131207
000040 05 8a 01 be a2 7b 88 3d c0 c2 35 3e d2 ba 14 3e
       -0.12650307 0.06664206 0.17750072 0.14524391
000050 f4 55 0b 3e d9 5d e9 bd 9b 11 23 3d 3d d4 8c be
       0.13607007 -0.11394853 0.03981171 -0.27505675
000060 d2 90 2c 3e b3 7b 46 3e fb f0 90 be b2 68 80 bb
       0.1685212 0.19383125 -0.28308854 -0.0039187307
000070 8a 0b 82 be b1 08 17 be fb cc cb bd 4b fa 17 3e
       -0.2539943 -0.1474941 -0.09951206 0.14841573
000080 15 4e 95 3e 59 06 29 3e 88 9a c1 bd 5f 09 1b 3c
       0.29161134 0.16506328 -0.094533026 0.009462683
000090 a7 2e 81 3e f6 64 63 3e 9a 29 06 bb 5f 06 71 3e
       0.25230905 0.22206482 -0.0020471574 0.23537587
0000a0 ed 40 84 3d 16 1d f0 3d 61 8c c5 3d c6 bd 4f be
       0.06457696 0.11724298 0.09645916 -0.20287237
0000b0 6e 1b 4f be 99 a7 81 3e db df 6c 3e 0a 46 08 3d
       -0.20225307 0.2532318 0.23132269 0.03326992

module.0.module.network.4.bias f4 [3]
000000 99 ab d7 3c 82 2e 49 3c cc da 18 be
       0.026326941 0.012279155 -0.14927214

module.0.weight f4 [32, 9]
000000 f9 44 f5 3b 67 66 88 bc 6d 3b 9c bc ab e8 75 bc
       0.007485029 -0.016650392 -0.019071305 -0.015009086
000010 9e b4 62 3c 1d 9f 76 37 8a e5 e9 bc 2a 42 19 ba
       0.013837008 1.4699789e-05 -0.028551836 -0.0005846346
000020 c8 db 17 3c 7a ad 43 36 19 67 c5 37 67 92 4e b8
       0.0092687085 2.915824e-06 2.3532239e-05 -4.9250575e-05
000030 b1 ed f5 3c 5d 92 ba 37 1f f4 91 bb 8f 5b d3 b6
       0.030020567 2.2241084e-05 -0.0044541503 -6.298949e-06
000040 56 9b 64 35 1f f4 85 3a eb 3d 1b b9 b1 92 03 3d
       8.516266e-07 0.0010219848 -0.00014805018 0.032122318
000050 39 d2 e0 b8 85 fb 8b 39 d3 85 5f 38 1e 26 88 38
       -0.000107203094 0.00026699543 5.3291977e-05 6.492085e-05
000060 a4 5b 0e b5 2c 72 c0 3c e7 fe aa 3a 29 86 ad 38
       -5.3032477e-07 0.023491941 0.0013045938 8.274272e-05
000070 8f 22 0c 3d 1a fd b6 b8 dc 30 a8 b8 39 d3 e8 b8
       0.034212645 -8.72558e-05 -8.019965e-05 -0.00011101965
000080 fd 8f db b8 07 dd 3e 3b e8 84 d5 3b da 05 28 bb
       -0.00010469554 0.0029123442 0.006516088 -0.0025638253
000090 cd f9 53 b8 da aa 09 bb 71 96 89 38 b9 69 03 b9
       -5.0538965e-05 -0.0021006376 6.560691e-05 -0.00012532518
0000a0 f0 14 30 b8 18 91 53 3c 3e a9 8c 37 45 ae 05 bb
       -4.198117e-05 0.012913011 1.676811e-05 -0.0020398062
0000b0 ce 78 4f 37 2a 67 a3 3a c7 9a ce b8 6d 5a 1c 38
       1.23662885e-05 0.0012466658 -9.851675e-05 3.7277514e-05
0000c0 9d 84 86 ba d8 c2 15 bb 57 99 a9 37 6e da 97 36
       -0.001026291 -0.0022851732 2.0217774e-05 4.5255792e-06
0000d0 aa 4c 99 bc f5 b6 4a 37 e4 ff f6 3b 4c 81 54 38
       -0.018713314 1.2082736e-05 0.0075378288 5.0665156e-05
0000e0 7c ed 8f bb 90 0f bd bb 81 fd 90 3c 17 26 1a bc
       -0.004392324 -0.0057696775 0.017699005 -0.009408495
0000f0 89 23 87 bb 7e a6 33 3a 80 2d 66 37 8b c6 35 bd
       -0.004124109 0.00068531174 1.3719662e-05 -0.0443788
000100 b3 c9 0b 3d bc f5 8c 39 36 a0 8d 3c 8a 1e 9f 38
       0.034127902 0.00026885967 0.017288309 7.587399e-05
000110 1e f5 c7 38 b6 90 ae b6 73 e9 9f b7 fd b1 ec b7
       9.534716e-05 -5.2024507e-06 -1.9062985e-05 -2.8216275e-05
000120 6d 8e 85 3b 75 de 96 3c 31 1c 9e bb 10 fa 7d 3c
       0.0040758164 0.018416623 -0.004825138 0.015501514
000130 ba 89 3b 3b 30 a5 66 3b d1 fe 4b 3c da 7b ea b5
       0.0028616027 0.0035193674 0.01245089 -1.7470404e-06
000140 89 df db ba 7a db 99 38 4d c9 f7 3c 49 2b 36 bc
       -0.0016774993 7.336489e-05 0.030247355 -0.011118718
000150 ad e2 08 bb 2e 9a a6 b8 56 3c c7 bb ca 70 04 b7
       -0.0020887062 -7.944215e-05 -0.0060801907 -7.894074e-06
000160 a4 9e 36 ba a2 c2 f0 37 51 3b 3a 39 97 c6 86 ba
       -0.00069663883 2.8700862e-05 0.0001776044 -0.0010282573
000170 dd 13 b9 bc c4 d9 00 bb 37 ca ea b8 99 cb 9a b8
       -0.02259248 -0.0019661048 -0.00011195655 -7.381215e-05
000180 c1 78 d4 37 1a aa 78 3b 28 3f 21 38 3e b3 37 bc
       2.53286e-05 0.0037943185 3.844421e-05 -0.011212168
000190 2b 52 05 3b 1b 65 82 3a 99 68 a8 3c a0 fc 00 3c
       0.0020343165 0.0009948345 0.020557689 0.0078727305
0001a0 dc 23 4e 3c d9 19 bc 3c f0 e9 b4 ba 10 25 39 b7
       0.012581792 0.022961544 -0.0013802629 -1.1035489e-05
0001b0 8f 66 d5 39 3b e8 f5 38 c7 d8 5d 39 79 7d c5 bc
       0.00040702938 0.00011725767 0.00021156958 -0.024107682
0001c0 e7 15 64 3c ec 0d cb b8 a1 86 92 3b 26 09 d4 bb
       0.013921238 -9.6823875e-05 0.0044716154 -0.006470817
0001d0 2b 50 d6 b9 93 da cb 3c b8 8b 3c bd 31 95 cb 3c
       -0.0004087699 0.024884498 -0.046031684 0.024851413
0001e0 0c 6c 72 bb 55 99 9f b9 cf a1 1b 3d 65 0a 2f bc
       -0.003699067 -0.00030441085 0.03799611 -0.010683631
0001f0 c4 61 15 36 5c 61 ef 37 c1 49 87 bb 10 58 1e b9
       2.2259637e-06 2.8536357e-05 -0.004128665 -0.0001510086
000200 dc c0 8e 39 40 fc dc bc 80 72 3c b9 37 00 27 b8
       0.00027228042 -0.02697575 -0.00017971732 -3.9816103e-05
000210 c8 f8 60 38 98 27 da 3c 59 0d 94 37 21 9e 6e 3d
       5.3637457e-05 0.026630208 1.764919e-05 0.058256272
000220 ca 61 ac bd c4 dc 7c bc c8 6e 6a 3c ff 5b 9a 39
       -0.08417089 -0.015433494 0.014308639 0.0002944171
000230 c3 0e c2 3a 29 c1 ae bb b8 c1 98 34 43 ab 99 3c
       0.0014805425 -0.005333085 2.8453155e-07 0.018758422
000240 e8 4e ec 3c 53 88 8e ba 8f 87 26 38 6e d0 b9 3b
       0.02884622 -0.0010874368 3.9703733e-05 0.0056705987
000250 a5 7a c6 3c ec cf 41 3c 34 bb 0e 3b eb 13 09 b9
       0.024228403 0.011829358 0.0021779062 -0.00013072758
000260 da a9 09 36 4d 67 e8 b5 e8 c2 d9 36 b1 08 8c b5
       2.0513457e-06 -1.7315411e-06 6.489794e-06 -1.0433342e-06
000270 26 87 a1 36 42 cf 9a b8 80 0b ca b2 21 ec 2a b5
       4.8139073e-06 -7.381897e-05 -2.3521125e-08 -6.367355e-07
000280 55 d3 6e b4 e3 6d 92 b5 7a e9 ee 3c 7e cd 0c 3c
       -2.224236e-07 -1.0909829e-06 0.029164065 0.008593915
000290 66 fd 10 ba 57 31 b8 3a c4 00 ac b8 41 89 ac bb
       -0.00055309234 0.001405279 -8.201742e-05 -0.0052653854
0002a0 33 e5 de 3b 01 28 80 36 90 72 a4 3b 31 21 d5 3c
       0.006802225 3.8193543e-06 0.0050185397 0.026016803
0002b0 f4 02 4a 38 3f 34 63 bb 8e 4b c2 bc 88 19 90 bc
       4.8163303e-05 -0.0034668592 -0.023717668 -0.0175903
0002c0 05 4f f8 3a 99 fc 5e ba 66 fd db b7 09 14 a8 3b
       0.0018944448 -0.0008506268 -2.6224832e-05 0.0051293415
0002d0 8b c1 6a b8 47 99 b4 37 cf 6c eb bc 56 b5 a9 38
       -5.59702e-05 2.1529047e-05 -0.028738407 8.0923244e-05
0002e0 a0 21 24 37 d1 27 40 3c d8 13 d6 b5 bc 27 f3 bb
       9.782991e-06 0.011728243 -1.5950018e-06 -0.007420508
0002f0 eb 67 49 b6 22 49 ad b8 02 bf c6 b8 b5 b1 12 3d
       -3.0011822e-06 -8.262905e-05 -9.476954e-05 0.035814006
000300 cd 3f 19 bc 48 8a 48 38 a8 31 90 bc b8 0a 69 3a
       -0.00935359 4.78125e-05 -0.017601803 0.0008889842
000310 84 73 10 b7 24 a0 5d b7 cd cd cd bb 1d 92 ce 38
       -8.609964e-06 -1.3209912e-05 -0.006280637 9.850061e-05
000320 a6 ff 58 b8 54 7a 9e 37 ca e3 a7 3a 03 2e f7 b9
       -5.1736504e-05 1.8892031e-05 0.0012808975 -0.00047145793
000330 d1 0b 51 3a 92 8a b9 ba 62 26 38 b8 60 cb a8 3b
       0.0007974478 -0.0014155677 -4.3904765e-05 0.0051511973
000340 78 00 30 ba 1f c2 f9 3b 13 ab 36 bb 22 05 b2 3c
       -0.0006713937 0.007622018 -0.0027872964 0.021730963
000350 6f b8 30 3c dd c9 35 38 b2 ee 7f 3c 0f b3 1e 37
       0.01078616 4.3341763e-05 0.015620874 9.459224e-06
000360 ef ab 20 39 94 34 1a 3c 62 04 d9 bc 8f 2e 87 bb
       0.0001532284 0.00941195 -0.026491348 -0.0041254233
000370 50 b1 31 3c 2e 20 9a 3c f2 11 a1 3a 86 6b bf bc
       0.010845497 0.018814173 0.0012288673 -0.0233667
000380 8f 90 0b 38 07 29 a8 bc 35 da 9c 3c f2 81 22 3d
       3.3274813e-05 -0.020527376 0.019147018 0.039674707
000390 35 d9 ff 3b b8 b5 d1 38 e2 03 a7 39 16 70 7d b5
       0.0078078755 9.999744e-05 0.00031855615 -9.441295e-07
0003a0 56 8a 04 bb 3e d1 32 b7 2a ad 86 3c 73 ce bf b9
       -0.0020224056 -1.0658345e-05 0.016439993 -0.00036584176
0003b0 7a 27 93 ba 64 3c 96 39 bd 35 1c 39 00 9f aa 3c
       -0.0011226975 0.00028655224 0.00014897338 0.02082777
0003c0 89 3d ed bb 35 8b 06 b6 e4 0f 2d b6 6c ff 71 b9
       -0.0072400016 -2.0048585e-06 -2.5788258e-06 -0.00023078703
0003d0 32 95 6f b6 4a 4f 03 3a ed c3 99 3c 50 4c 3e b9
       -3.5700618e-06 0.00050090684 0.018770183 -0.0001814824
0003e0 b7 33 10 b9 56 f6 c0 bc f5 56 98 bc c2 cd 3a 37
       -0.00013752175 -0.023554962 -0.018596152 1.1134371e-05
0003f0 74 07 76 3c 74 2b 84 3b a3 59 48 3c f4 28 c4 3a
       0.015016425 0.0040335003 0.012228402 0.0014965818

module.0.bias f4 [32]
000000 ef aa d7 bc 75 55 18 bc 89 e4 ad ba 09 bb 0b 38
       -0.026326625 -0.009297718 -0.0013266961 3.3314373e-05
000010 fa 6b 09 37 2d 34 62 36 5e 75 fe 37 32 4b 50 3a
       8.190977e-06 3.3706995e-06 3.0333813e-05 0.0007945775
000020 9a 8c 7b bc 73 f4 66 38 7b 02 ca bc 00 d6 9c ba
       -0.015353346 5.5063934e-05 -0.024659386 -0.0011965632
000030 c8 8e d9 37 53 d7 0e ba 3e 2f e1 37 e9 46 9c bc
       2.5934904e-05 -0.0005448956 2.6844089e-05 -0.019076781
000040 2c 2d ad 36 87 f9 83 bb 95 78 e5 36 51 52 0c ba
       5.1610605e-06 -0.0040275487 6.8387694e-06 -0.0005352842
000050 32 a1 9f b7 a1 ff cf 37 c5 35 4d b7 73 bd bd 39
       -1.902934e-05 2.479536e-05 -1.2231471e-05 0.0003619004
000060 c6 9c ef 3c ee eb 68 3c f0 fa fa 3a dc c5 be 38
       0.02924956 0.014216406 0.0019148272 9.09676e-05
000070 7f f4 f2 b7 35 15 05 b7 99 97 98 bb f5 cf 08 bc
       -2.89625e-05 -7.932355e-06 -0.0046567437 -0.008350362

module.2.weight f4 [16, 32]
000000 37 78 20 bb e8 8d 32 b8 bc 8c 84 38 09 00 1d bc
       -0.0024485716 -4.2570668e-05 6.320464e-05 -0.009582528
000010 3e c3 bf 3a 0b 64 5b 37 99 2f d6 ba df dc 1b 3a
       0.001463033 1.307671e-05 -0.001634109 0.0005945693
000020 f2 68 fe 38 c4 09 84 3b 94 03 f3 39 1f 80 69 b9
       0.000121312114 0.0040294845 0.00046351238 -0.0002226834
000030 ca 4c c4 38 48 43 50 b7 d6 22 22 39 e5 9a b9 b8
       9.3603114e-05 -1.2413431e-05 0.00015462501 -8.850339e-05
000040 7a 9b 39 3a 4d 0c 94 39 4b 5a 36 3c 2e 49 41 3c
       0.0007080358 0.00028237925 0.011129926 0.011797233
000050 a7 01 30 b8 74 fd a0 b9 fb 51 02 b7 af 15 90 b7
       -4.196321e-05 -0.00030706415 -7.767691e-06 -1.7176235e-05
000060 91 25 84 3b 3a d1 cd b9 84 f9 f7 36 5b 4e a9 37
       0.0040327986 -0.00039256533 7.390221e-06 2.0182857e-05
000070 0e c1 5e 38 d5 7a 4f 38 fc 13 5c ba e1 44 4e 39
       5.310872e-05 4.9467042e-05 -0.0008395312 0.0001967135
000080 5f 26 9d 36 98 fb be b7 65 0f 91 38 b7 59 34 3a
       4.6834316e-06 -2.2766922e-05 6.917006e-05 0.00068798236
000090 c8 4b 10 b6 17 7f f8 36 8c 89 90 37 58 5e 64 37
       -2.1501783e-06 7.405771e-06 1.7230188e-05 1.3611825e-05
0000a0 10 9c 0f b7 28 24 9a b9 2d b8 2f b7 2c 14 db b6
       -8.5598e-06 -0.00029400107 -1.0473695e-05 -6.529057e-06
0000b0 c4 7a 52 34 80 c6 04 b6 0e 42 88 b6 e8 e2 85 36
       1.9602436e-07 -1.9785075e-06 -4.0608056e-06 3.9901242e-06
0000c0 40 98 8b b7 22 33 10 b5 85 ef 98 3a 4b e2 1d 38
       -1.6640988e-05 -5.371859e-07 0.0011668062 3.764247e-05
0000d0 02 2d a1 b7 79 87 92 37 fd cf 21 b4 4a 35 5e b6
       -1.9213654e-05 1.746764e-05 -1.5069959e-07 -3.3111596e-06
0000e0 0e 15 4c b9 68 12 41 36 75 5e 61 b7 d8 f7 58 b5
       -0.000194628 2.8769955e-06 -1.3433038e-05 -8.082693e-07
0000f0 da 6f 99 b6 a3 b9 b6 b4 46 16 14 37 9c ca 92 37
       -4.5727766e-06 -3.403521e-07 8.826673e-06 1.7498904e-05
000100 63 ff 69 b8 ae fd 07 3a dd e7 24 b8 4c 3b c6 ba
       -5.5789376e-05 0.00051876425 -3.9316586e-05 -0.0015123873
000110 1a 2a d1 37 32 3c 82 b7 55 86 0e ba 4c 99 ab ba
       2.4934347e-05 -1.5525238e-05 -0.0005436887 -0.0013091951
000120 7a ab ef 38 17 8c b0 b8 d4 ad 48 39 bc 93 7f b8
       0.00011428348 -8.418428e-05 0.00019138242 -6.0934326e-05
000130 41 69 36 bb 70 ab 43 ba 9a c4 c2 b8 f9 b2 2f 3a
       -0.0027833732 -0.0007464206 -9.287261e-05 0.0006702389
000140 42 5a 35 39 06 84 0f 37 7d 0b 87 3b 56 3d 56 bc
       0.00017295129 8.554203e-06 0.0041212426 -0.013076147
000150 8a e2 ce 38 4e c5 58 b9 0a 39 96 b4 80 6a d9 b6
       9.865042e-05 -0.00020672867 -2.798118e-07 -6.479502e-06
000160 df 09 8b 39 e8 3b 63 b8 f9 e3 33 ba 3e 26 22 3a
       0.000265195 -5.417681e-05 -0.00068622787 0.0006185508
000170 e1 34 af 37 75 39 cf b8 a8 1b 04 3a a5 97 97 b9
       2.088625e-05 -9.8812314e-05 0.00050395215 -0.00028913948
000180 65 9e 18 3a ff e1 a4 39 56 1a 74 b9 0b 18 c8 bb
       0.00058219425 0.00031448898 -0.00023279464 -0.006106382
000190 33 e8 03 39 bb 6e 15 b8 80 c5 a4 3b 10 a6 d3 3b
       0.00012579634 -3.5627494e-05 0.0050284266 0.006459005
0001a0 23 96 c5 3a 73 6b 9d 3b 9a 57 c2 39 8b a9 e3 ba
       0.0015074651 0.0048040687 0.00037067832 -0.0017369253
0001b0 f8 c3 37 3b ba 9e 2b b8 fe ac c1 39 30 4f 66 39
       0.002804039 -4.0917403e-05 0.00036940718 0.00021964009
0001c0 ba f1 08 39 ff 85 73 36 64 00 15 bc e6 f8 23 3c
       0.00013060021 3.6287818e-06 -0.009094331 0.0100080725
0001d0 c1 f4 53 3b 4f 6f 85 b9 22 32 5a 38 de 2e af 39
       0.003234193 -0.00025450668 5.202194e-05 0.0003341352
0001e0 73 75 9f bc 71 a6 f7 3b 0f 49 da ba 97 42 3a ba
       -0.019465184 0.007557683 -0.0016653853 -0.00071052596
0001f0 1c a7 96 b8 5c 9d ac b8 ab c5 33 b9 d0 b9 95 b9
       -7.183684e-05 -8.2309096e-05 -0.00017144407 -0.00028557936
000200 24 aa d9 b9 d6 a0 43 b5 d6 7e b6 36 23 0e 28 bb
       -0.0004151623 -7.287721e-07 5.4387883e-06 -0.0025643192
000210 e7 18 4a 36 1a 37 7a b4 7b 07 54 b7 15 5a 56 b7
       3.011484e-06 -2.330311e-07 -1.2637926e-05 -1.2776368e-05
000220 9a 34 af 37 3d 43 06 39 c8 e6 0f 36 72 f6 80 b6
       2.088612e-05 0.00012804284 2.1442993e-06 -3.8433873e-06
000230 ec d7 96 37 24 c2 16 b7 49 0e 3f b7 7a bf 18 37
       1.798194e-05 -8.985899e-06 -1.1387813e-05 9.104488e-06
000240 fa d8 b8 37 82 7f 3f b7 7f 59 4f bb 79 e5 28 3a
       2.2035547e-05 -1.1414175e-05 -0.0031639037 0.00064428855
000250 3d 27 18 37 f2 e4 e6 b7 e8 44 6a 33 53 a0 74 36
       9.069042e-06 -2.7524748e-05 5.454504e-08 3.6452154e-06
000260 65 6f 1b b9 82 f1 85 b6 94 62 c2 37 b6 ec 6c b6
       -0.0001482345 -3.991824e-06 2.3172506e-05 -3.5304524e-06
000270 c6 56 e0 35 9d 26 e5 37 e0 a5 f1 39 1a af b5 b7
       1.6714555e-06 2.7316908e-05 0.0004609069 -2.165842e-05
000280 a4 b2 ae b8 15 2b dd 39 bb 82 bf b8 8e f9 2c b9
       -8.330241e-05 0.00042184503 -9.13194e-05 -0.00016496165
000290 11 a4 40 38 26 9a a9 35 1c 17 a8 b9 11 6c 6d 39
       4.5929166e-05 1.2636344e-06 -0.00032060675 0.00022642339
0002a0 6e 75 10 39 65 4d 20 b9 f6 9b 25 39 fa 2b f5 39
       0.00013776656 -0.00015287621 0.00015793726 0.00046762807
0002b0 1c 7c a9 b9 60 5e e3 b8 f3 15 9f b9 d7 9c d2 38
       -0.0003232666 -0.00010841782 -0.00030343197 0.00010042794
0002c0 b9 f4 e8 38 d4 a3 46 36 73 58 2c 39 2a 13 16 3a
       0.00011108205 2.959966e-06 0.00016436148 0.00057249016
0002d0 2c 98 5b 39 9b 20 be b9 f6 b4 a5 36 25 72 96 38
       0.00020942156 -0.00036263917 4.93845e-06 7.1738184e-05
0002e0 2d 43 e7 39 22 55 11 b8 c9 c4 0d 39 28 a6 c5 39
       0.00044109803 -3.464998e-05 0.00013520116 0.00037698564
0002f0 fb bd 54 38 90 bd 11 b9 c6 bb c1 b9 bd d6 16 ba
       5.0721672e-05 -0.00013898895 -0.0003695173 -0.00057540444
000300 b1 76 c4 3a e4 11 24 3b 0f 69 02 3c 31 f8 9e bc
       0.0014988986 0.0025035078 0.007959618 -0.019405456
000310 a4 13 a9 bb 74 f5 5d bb a7 eb 86 bc d7 c4 ac 3b
       -0.005159812 -0.0033868225 -0.01646979 0.0052724886
000320 d3 df 67 3c 6d a2 e3 bc 0f be 56 bc c6 66 e6 3b
       0.014152485 -0.027787412 -0.013106837 0.0070312945
000330 aa 34 50 bc aa f3 55 bc 9b 97 6d bc 63 a5 6d 3c
       -0.012707869 -0.013058582 -0.014501478 0.014504763
000340 c0 5f 5b bb 9a c1 d0 b9 12 8a 7f bb 2a 65 18 3c
       -0.003347382 -0.00039817096 -0.0038992208 0.009301463
000350 fa 49 8b 3a 47 25 a8 3b 44 f2 a0 3b 8c 45 ac bc
       0.0010626905 0.005131397 0.004911693 -0.021029256
000360 1b db 37 bd b5 32 46 3c 41 70 a4 3c 0b 3c ce bc
       -0.04488669 0.01209705 0.020073058 -0.025175115
000370 33 fd d2 3b a3 c3 ed 3b 4d 8d 26 3b d3 50 01 bc
       0.006438875 0.0072559877 0.0025413812 -0.007892805
000380 fc d2 2b 34 cf 01 0f 37 ce 84 d0 34 a0 c2 76 3a
       1.6002372e-07 8.523885e-06 3.8839647e-07 0.00094131567
000390 a0 db 2a 37 1d b5 3f b6 d0 91 e7 ba 2c d2 86 37
       1.0183925e-05 -2.856664e-06 -0.0017667357 1.6071914e-05
0003a0 27 08 46 36 d7 f8 78 3a 3c ac 97 b9 cc c8 b1 37
       2.9509044e-06 0.0009497529 -0.0002892929 2.1193548e-05
0003b0 63 13 3a 3a 81 7c 03 36 06 94 f6 b4 fb 9e 50 37
       0.0007098226 1.9592992e-06 -4.5928772e-07 1.2434782e-05
0003c0 36 43 c0 36 11 e5 f4 34 cf 87 67 39 2f e1 9c 3a
       5.7298703e-06 4.561521e-07 0.0002208047 0.0011968965
0003d0 ce 70 14 37 08 40 7b b8 38 f3 14 b6 34 e9 28 b8
       8.847752e-06 -5.9902697e-05 -2.219529e-06 -4.027151e-05
0003e0 4d dd 50 bb 6c cb 0b 3a ef f3 b5 35 36 6e 9d 37
       -0.0031870187 0.00053327414 1.3556545e-06 1.876718e-05
0003f0 f9 ed 85 36 26 ce 1d b7 08 b6 d0 b6 d1 b3 70 b7
       3.9914125e-06 -9.405927e-06 -6.2200743e-06 -1.43469815e-05

module.2.bias f4 [16]
000000 14 9e a8 bb 39 2f 8e ba fd bc a8 bb ec 13 be bb
       -0.0051457975 -0.0010847814 -0.0051494823 -0.0058007147
000010 14 df b3 3b c0 d8 05 bc ee 7b 9f 3d 00 69 ba 3a
       0.0054892395 -0.008169353 0.077873096 0.0014221966
000020 97 b9 fc bb ce e2 72 3c 69 81 df 35 8c 81 31 bb
       -0.0077125537 0.014824582 1.6652458e-06 -0.0027085273
000030 c2 51 74 bc 22 5f e4 bb 8b 3e c1 ba 14 22 1c 3a
       -0.014912071 -0.0069693485 -0.0014743371 0.0005956006

module.4.weight f4 [8, 16]
000000 b7 4d bd 3c d9 6e 98 bc 7b 30 2f 3d 90 0b 4a 3d
       0.023108346 -0.018607544 0.042770844 0.049327433
000010 f6 b8 1e bb 6c 42 52 3d 33 a6 5d 3d 01 19 8c ba
       -0.0024219132 0.051332876 0.054113578 -0.0010688604
000020 3c a9 b0 3a 42 48 55 bd f9 f9 1b 3a 3b c8 88 bd
       0.001347817 -0.052070864 0.00059500296 -0.06678816
000030 38 56 45 bc f0 a3 db bc 4d 1b 93 3d b8 b9 c7 3c
       -0.012044482 -0.02681157 0.071829416 0.02438055
000040 9c 80 e7 3c 65 de 90 bc 00 a0 19 3c 55 11 5f 3c
       0.028259568 -0.017684171 0.009376526 0.013614972
000050 45 28 81 bc 00 44 3a bc 78 9b 8e bd d9 6a 8e ba
       -0.015766272 -0.0113687515 -0.06963247 -0.0010865583
000060 70 e5 f2 3b 79 6d e7 3c 0d 92 9a b9 06 ac b8 bc
       0.007412605 0.028250443 -0.00029481985 -0.022542965
000070 96 72 d9 bb 8a 81 19 bd 55 c7 62 bc ad b6 04 bd
       -0.006635974 -0.037477054 -0.01384147 -0.032400776
000080 f6 44 96 b5 cb eb 15 b6 ca 08 ea b5 2d e5 36 36
       -1.1195941e-06 -2.233998e-06 -1.7436917e-06 2.7253511e-06
000090 c2 9d 12 bb 62 22 8f b6 e5 ad 9c bb e8 87 49 3b
       -0.0022371863 -4.265735e-06 -0.004781472 0.0030751172
0000a0 f0 64 20 b6 76 3a 80 3b 5a 6e c1 33 bc 93 af b6
       -2.3900611e-06 0.003913219 9.007336e-08 -5.232605e-06
0000b0 5c 04 b3 b7 50 11 ea b6 0f d6 0d b6 59 6a d1 33
       -2.1340493e-05 -6.975759e-06 -2.1135236e-06 9.7516654e-08
0000c0 c4 54 2f bb 70 e0 84 ba e0 8a 86 bb 0a 81 bc bc
       -0.0026753405 -0.0010137688 -0.0041059107 -0.02301075
0000d0 a2 7a 03 bc 50 1b 96 3b 8a 2d 9b 3b c3 82 ab 3a
       -0.008024843 0.0045808926 0.0047356533 0.0013085235
0000e0 35 f3 a3 3a ee 0d f4 3b b4 47 94 3a 1b 94 cf 3c
       0.0012508394 0.0074479496 0.0011312873 0.025339177
0000f0 9a fc 07 3d 17 eb 15 bb e3 28 48 bd 98 22 0f bd
       0.033199884 -0.002287572 -0.048867118 -0.0349451
000100 b6 a7 c7 36 c9 b1 e9 ba 73 3f 67 3b 54 1d 07 3b
       5.9501863e-06 -0.0017829473 0.0035285621 0.0020616846
000110 b8 c3 9e b7 42 41 82 bb ec ae fe b9 dd 82 80 3b
       -1.8926206e-05 -0.0039750645 -0.00048576982 0.00392185
000120 0b f9 2d 37 3a f3 9e bb ea 98 92 39 1d f4 b0 36
       1.0369588e-05 -0.004850772 0.0002796122 5.2736273e-06
000130 c6 b7 e0 3b e7 2e f5 3b a4 aa 79 bb 29 4c 30 b8
       0.006857845 0.007482398 -0.0038096095 -4.20326e-05
000140 72 60 ac b9 2c 24 00 ba b4 b3 63 3c e1 29 90 bc
       -0.00032878254 -0.00048882025 0.013897825 -0.017598094
000150 21 94 58 3b e4 ff 8e 3c 03 89 3a bd 4d 15 05 ba
       0.0033047276 0.017456003 -0.04554082 -0.00050767214
000160 72 62 8a bb ef d1 4b bc 07 e2 2d 3a 63 c6 dc bc
       -0.0042231614 -0.012440189 0.0006633107 -0.026950067
000170 df e9 ae bc 16 fb c1 ba 20 72 bd 3c a5 00 51 3c
       -0.021351753 -0.0014799561 0.023125708 0.012756501
000180 99 65 cc 3c 43 18 9f 39 0c f2 9f bc 4a 88 7f bc
       0.02495079 0.0003034492 -0.019524597 -0.015596459
000190 92 9c 84 3a 02 7e 40 3a b5 cb 95 bc 45 04 70 3a
       0.0010117462 0.00073429954 -0.018285612 0.00091559096
0001a0 a4 7b d1 bb 71 8c 06 3c a4 c5 44 3b 7e a5 1b bd
       -0.006392913 0.008212195 0.003002503 -0.037999623
0001b0 27 ec 24 bc eb 22 4a bc 76 65 0c 3d bb 5a 62 bc
       -0.010066069 -0.012337427 0.03427645 -0.013815577
0001c0 79 6c 34 ba 33 c3 b1 ba 7a 65 82 b7 3b b9 6f bb
       -0.0006882619 -0.0013562202 -1.5544461e-05 -0.0036578912
0001d0 3e cc 3c 37 3a 09 21 b5 35 d7 5d 38 a0 4c dc 36
       1.1253227e-05 -5.99906e-07 5.2890933e-05 6.5654312e-06
0001e0 60 d3 62 37 f4 3c c8 ba 51 f7 dd b4 84 a4 b0 b9
       1.3519864e-05 -0.0015276955 -4.1344404e-07 -0.0003369191
0001f0 d4 a8 10 37 4f 84 29 b7 03 9a e2 b6 2f ce 0a bb
       8.622377e-06 -1.01039905e-05 -6.753254e-06 -0.0021180024

module.4.bias f4 [8]
000000 ff 98 23 3e ac ad 1e 3e 97 42 49 39 63 4d d1 3d
       0.15976332 0.15495938 0.0001919366 0.102198385
000010 4d fe 53 bc 31 0c 4f bc 97 f7 9d 3d 05 d2 41 3c
       -0.012939048 -0.012637184 0.0771324 0.011829858

module.6.weight f4 [1, 8]
000000 75 d1 38 3e 67 35 32 be 28 e4 5d bb 38 e7 14 3e
       0.18048652 -0.17403184 -0.0033857916 0.14541328
000010 02 3b 02 3d 08 c9 b6 bd 2d e5 d6 bd 8e 35 b8 bc
       0.031794555 -0.089250624 -0.104929306 -0.022486474

exp_avg f4 [32, 6]
000000 2c 49 31 b2 2c 49 31 b2 ac 91 10 32 e9 24 ea 31
       -1.0319393e-08 -1.0319393e-08 8.415025e-09 6.8144925e-09
000010 8f 89 14 b2 f9 a7 10 b2 03 92 50 b2 03 92 50 b2
       -8.646011e-09 -8.420096e-09 -1.2140393e-08 -1.2140393e-08
000020 66 d0 3a 32 7d 57 16 32 d9 24 62 32 df 74 65 32
       1.0874009e-08 8.751042e-09 1.31633096e-08 1.3356128e-08
000030 56 08 1d b3 56 08 1d b3 5d 3b d7 32 ce c8 df 32
       -3.6561993e-08 -3.6561993e-08 2.505629e-08 2.6051932e-08
000040 5d 56 cd b1 2e 1f bc b1 43 e6 e2 32 43 e6 e2 32
       -5.9761036e-09 -5.475065e-09 2.6414574e-08 2.6414574e-08
000050 ba 32 a5 b2 a8 50 d7 b2 c1 05 68 b2 8d 2b 6e b2
       -1.9231596e-08 -2.5065972e-08 -1.3505486e-08 -1.3863326e-08
000060 a6 0a 79 b3 a6 0a 79 b3 2c cb 2b 33 6d c8 44 33
       -5.7984515e-08 -5.7984515e-08 3.9998824e-08 4.5817092e-08
000070 32 9b 19 33 ed 7c 1c 33 7a d7 b4 30 7a d7 b4 30
       3.5764238e-08 3.64352e-08 1.3157966e-09 1.3157966e-09
000080 b6 00 0e 31 a9 15 bd b1 94 5d 8f ae a2 75 0d af
       2.0664124e-09 -5.5030864e-09 -6.51951e-11 -1.2865667e-10
000090 e6 4c 5e b3 e6 4c 5e b3 02 e7 d8 32 af 10 4e 33
       -5.175834e-08 -5.175834e-08 2.525076e-08 4.7978286e-08
0000a0 6c f1 43 33 f1 0f 47 33 b7 6e e7 31 b7 6e e7 31
       4.5621547e-08 4.6347797e-08 6.7355717e-09 6.7355717e-09
0000b0 88 6d b2 b1 18 b9 ca b1 ea 83 52 32 0e c1 50 32
       -5.192934e-09 -5.9000165e-09 1.2253603e-08 1.2151089e-08
0000c0 ea 30 94 33 ea 30 94 33 fc 9f 8d b3 7d 2e 34 b3
       6.9006845e-08 6.9006845e-08 -6.594925e-08 -4.1951797e-08
0000d0 46 1a 11 32 fe 19 fe 31 25 f5 79 31 25 f5 79 31
       8.446085e-09 7.395328e-09 3.6373617e-09 3.6373617e-09
0000e0 13 b7 97 b1 d3 28 c0 b0 be 9b 20 32 c3 b9 20 32
       -4.4154915e-09 -1.3981442e-09 9.348637e-09 9.355463e-09
0000f0 a7 7c 72 b1 a7 7c 72 b1 0e 4c be 31 13 0e 50 b1
       -3.5286492e-09 -3.5286492e-09 5.538374e-09 -3.0275984e-09
000100 97 9b 5c 32 d1 41 5d 32 62 c6 85 32 62 c6 85 32
       1.2841062e-08 1.2878858e-08 1.5573452e-08 1.5573452e-08
000110 e0 b0 7b b2 65 60 49 b2 df 93 38 32 5c 2b 32 32
       -1.465034e-08 -1.1721657e-08 1.0743832e-08 1.0370822e-08
000120 ff 98 99 30 ff 98 99 30 4e ec 6f b1 9e cf 18 31
       1.1175699e-09 1.1175699e-09 -3.49134e-09 2.2236928e-09
000130 c4 25 12 b2 1a 40 13 b2 a8 4b 52 32 a8 4b 52 32
       -8.506905e-09 -8.571101e-09 1.2240811e-08 1.2240811e-08
000140 3e 2b 80 b2 67 5d a0 b1 f6 cb 14 33 f6 cb 14 33
       -1.4920825e-08 -4.6672315e-09 3.4644437e-08 3.4644437e-08
000150 88 b0 0c 33 88 b0 0c 33 b7 e3 39 b3 9e 1b 72 b2
       3.2756844e-08 3.2756844e-08 -4.3280775e-08 -1.4092533e-08
000160 fd d8 46 32 bf 0f 3a 32 8e 05 0c 33 8e 05 0c 33
       1.1574454e-08 1.0830205e-08 3.2601342e-08 3.2601342e-08
000170 02 58 27 b3 22 21 8a b2 da 8d 08 b0 37 96 85 b0
       -3.896276e-08 -1.6080381e-08 -4.9678095e-10 -9.719717e-10
000180 6d 7d 56 b3 6d 7d 56 b3 05 80 c2 32 85 0d 4f 33
       -4.9939832e-08 -4.9939832e-08 2.2642789e-08 4.820824e-08
000190 9e af 06 32 f7 bc 0f 32 4b 32 ac b2 4b 32 ac b2
       7.839757e-09 8.366661e-09 -2.0046306e-08 -2.0046306e-08
0001a0 ef 46 63 32 4d 8c 87 32 df 6f 38 b2 e0 9d 36 b2
       1.32292675e-08 1.577987e-08 -1.0735646e-08 -1.0629691e-08
0001b0 9e 82 e9 b1 9e 82 e9 b1 e2 5a b2 31 7d f4 ae 31
       -6.796042e-09 -6.796042e-09 5.190814e-09 5.0918616e-09
0001c0 02 0e bd 31 24 60 c0 31 8c 55 c9 b0 8c 55 c9 b0
       5.5022165e-09 5.5988654e-09 -1.4648989e-09 -1.4648989e-09
0001d0 5e e1 f4 b1 ab 89 cf 31 85 40 81 33 85 40 81 33
       -7.126956e-09 6.040144e-09 6.0187666e-08 6.0187666e-08
0001e0 2d d2 3d b0 2d d2 3d b0 c1 cc eb 2f ed 9f 0a 30
       -6.9056477e-10 -6.9056477e-10 4.2891737e-10 5.0431376e-10
0001f0 dc c9 9b b0 60 99 9c b0 98 22 52 32 98 22 52 32
       -1.1335106e-09 -1.1394086e-09 1.22314745e-08 1.22314745e-08
000200 d5 98 81 b2 90 c4 b9 b1 85 9f ed 30 48 e7 c7 30
       -1.5087076e-08 -5.406555e-09 1.7289358e-09 1.454489e-09
000210 4b 2d 56 33 4b 2d 56 33 f5 8f 6c b3 02 14 dd b2
       4.986695e-08 4.986695e-08 -5.507896e-08 -2.5736885e-08
000220 95 5a 9f 31 59 ed 82 31 1e 6f 89 b2 1e 6f 89 b2
       4.637807e-09 3.8104813e-09 -1.599943e-08 -1.599943e-08
000230 84 ea 5c 32 83 d0 45 32 de ef ff 31 fc f3 03 32
       1.2859008e-08 1.1514319e-08 7.4487465e-09 7.680679e-09
000240 5e 67 84 2f 5e 67 84 2f c7 b4 45 31 50 ea 6c b1
       2.4084107e-10 2.4084107e-10 2.8770033e-09 -3.4475711e-09
000250 f4 40 1a 31 2b 10 1b 31 2b de 2a b1 2b de 2a b1
       2.244687e-09 2.256466e-09 -2.4864544e-09 -2.4864544e-09
000260 69 cc 8b 31 6b bb ea 2e c9 08 44 b2 c1 1b 43 b2
       4.068671e-09 1.067438e-10 -1.1410699e-08 -1.1356804e-08
000270 5c d8 87 32 5c d8 87 32 65 70 02 b3 93 95 2c 31
       1.5814457e-08 1.5814457e-08 -3.0370206e-08 2.5114317e-09
000280 4d 96 00 b3 e4 9d 02 b3 49 3c 80 b2 49 3c 80 b2
       -2.993902e-08 -3.0411584e-08 -1.4928576e-08 -1.4928576e-08
000290 5f b5 2b b1 88 c7 d2 32 07 d7 60 33 07 d7 60 33
       -2.4986873e-09 2.4537954e-08 5.234963e-08 5.234963e-08
0002a0 fd 5f b7 30 fd 5f b7 30 75 7e 2a b0 56 41 bc b0
       1.3342284e-09 1.3342284e-09 -6.2025346e-10 -1.369737e-09
0002b0 b6 76 52 30 59 b8 4f 30 46 db 93 31 46 db 93 31
       7.6566253e-10 7.5568135e-10 4.3031916e-09 4.3031916e-09
0002c0 54 7e 12 b2 e0 da 8b b1 11 af af 32 11 af af 32
       -8.527042e-09 -4.0703156e-09 2.0452292e-08 2.0452292e-08
0002d0 e8 a6 52 b1 e8 a6 52 b1 f3 6e ae 31 68 4e 92 b1
       -3.0653897e-09 -3.0653897e-09 5.07668e-09 -4.258073e-09
0002e0 70 bf 12 b3 a0 54 13 b3 01 d8 ab b2 01 d8 ab b2
       -3.4167385e-08 -3.430307e-08 -2.0005247e-08 -2.0005247e-08
0002f0 51 4a 2d 32 af c8 93 32 dc d3 03 b3 e2 ff 02 b3
       1.0086823e-08 1.7204313e-08 -3.06935e-08 -3.0500708e-08

exp_avg_sq f4 [32, 6]
000000 79 be 65 2d 79 be 65 2d 28 33 b3 2d 28 3c b5 2c
       1.3059436e-11 1.3059436e-11 2.0372662e-11 5.151008e-12
000010 14 f7 83 2d 07 19 7a 2d 8c 2b 45 30 8c 2b 45 30
       1.50027e-11 1.4216412e-11 7.1730066e-10 7.1730066e-10
000020 94 d9 b3 30 9b 16 a4 2e 6c 92 14 2e 3f 60 09 2e
       1.3085804e-09 7.461872e-11 3.3781353e-11 3.1235677e-11
000030 0f d6 1f 30 0f d6 1f 30 24 03 df 2f 2f 82 a1 2f
       5.814806e-10 5.814806e-10 4.0565695e-10 2.937823e-10
000040 cd b8 32 2f 8e 4d 2a 2f aa 2a af 2f aa 2a af 2f
       1.625466e-10 1.5488963e-10 3.186263e-10 3.186263e-10
000050 b3 f1 da 2e f0 49 c3 2f 9b 45 dc 2e ba 92 e8 2e
       9.956427e-11 3.552283e-10 1.0016806e-10 1.05762024e-10
000060 37 14 65 30 37 14 65 30 4d ae 6a 30 5b 53 a5 2f
       8.333844e-10 8.333844e-10 8.53764e-10 3.0072553e-10
000070 ab db 5d 2f 6d 44 64 2f 19 f5 3a 2f 19 f5 3a 2f
       2.0177875e-10 2.0760789e-10 1.7003678e-10 1.7003678e-10
000080 8a 58 90 2e 13 58 86 2f ae 14 24 2f af 6e 26 2f
       6.5640895e-11 2.4437039e-10 1.492306e-10 1.5136935e-10
000090 09 a1 9d 2f 09 a1 9d 2f d3 c3 d1 2f 4b a7 26 2f
       2.8672556e-10 2.8672556e-10 3.815602e-10 1.5157046e-10
0000a0 03 c6 91 2f 83 28 92 2f 4b 70 95 30 4b 70 95 30
       2.6516042e-10 2.658603e-10 1.0873092e-09 1.0873092e-09
0000b0 d0 09 36 30 0a 7c 1c 30 b9 62 23 30 4f 1e 22 30
       6.622516e-10 5.692874e-10 5.943935e-10 5.897833e-10
0000c0 67 58 f5 30 67 58 f5 30 8f d0 e3 30 35 cd 77 30
       1.7851222e-09 1.7851222e-09 1.65757e-09 9.0149693e-10
0000d0 85 d4 60 2f a0 b8 6a 2f c1 d0 9f 2f c1 d0 9f 2f
       2.0448183e-10 2.1347768e-10 2.907026e-10 2.907026e-10
0000e0 a1 66 8b 2f 1b eb ba 2f 01 b4 76 30 be b2 71 30
       2.5356875e-10 3.4000255e-10 8.975008e-10 8.7929297e-10
0000f0 79 75 68 2e 79 75 68 2e 87 d4 98 2e 6a 14 81 2e
       5.285503e-11 5.285503e-11 6.949912e-11 5.869867e-11
000100 db 50 06 2f f8 fe 0a 2f 6e 56 49 2f 6e 56 49 2f
       1.2215955e-10 1.264161e-10 1.831155e-10 1.831155e-10
000110 99 f8 1c 2f b7 a3 0f 2f 91 8b 16 2f d5 30 16 2f
       1.4276437e-10 1.3063937e-10 1.3692004e-10 1.3659769e-10
000120 4d 44 56 2e 4d 44 56 2e 46 2b 89 2e 57 26 15 2f
       4.871863e-11 4.871863e-11 6.2377256e-11 1.3565092e-10
000130 0b a0 cf 2f 13 3f cf 2f 07 86 8d 2f 07 86 8d 2f
       3.7766798e-10 3.7697898e-10 2.5742983e-10 2.5742983e-10
000140 98 c7 e7 2e 84 34 86 2f dd dc 1d 2f dd dc 1d 2f
       1.0540119e-10 2.4411773e-10 1.4357533e-10 1.4357533e-10
000150 27 7f 6a 30 27 7f 6a 30 2f fa 6e 30 a1 95 fe 2f
       8.53094e-10 8.53094e-10 8.693943e-10 4.6308649e-10
000160 01 a4 6e 2f 4e 9c 71 2f a1 1a 76 30 a1 1a 76 30
       2.170424e-10 2.1974353e-10 8.953212e-10 8.953212e-10
000170 cb df 11 30 dc 86 5d 30 f6 e1 b4 2e 96 1c bb 2e
       5.306872e-10 8.059098e-10 8.225591e-11 8.508853e-11
000180 c3 06 9b 2f c3 06 9b 2f 9a c8 86 2f 11 c8 4f 2f
       2.819914e-10 2.819914e-10 2.4516994e-10 1.8897618e-10
000190 cf 83 8d 2f 22 77 8d 2f c6 57 a1 2f c6 57 a1 2f
       2.5741406e-10 2.57324e-10 2.9348096e-10 2.9348096e-10
0001a0 8f 87 c4 2f ba e5 c1 2e 1a 95 65 2e 92 1f 62 2e
       3.5748512e-10 8.8174315e-11 5.2201e-11 5.141449e-11
0001b0 1c 5a 80 2f 1c 5a 80 2f 32 b0 88 2f e9 07 53 2e
       2.334709e-10 2.334709e-10 2.486345e-10 4.798287e-11
0001c0 62 79 6d 2d 57 5a 5d 2d 57 a5 fc 2f 57 a5 fc 2f
       1.3498843e-11 1.2582455e-11 4.5956014e-10 4.5956014e-10
0001d0 40 4b 01 30 60 e8 b2 2f f0 c7 28 31 f0 c7 28 31
       4.7036863e-10 3.2543124e-10 2.456087e-09 2.456087e-09
0001e0 a0 35 35 2f a0 35 35 2f aa f1 80 2e e8 59 37 2f
       1.6480906e-10 1.6480906e-10 5.863694e-11 1.6675694e-10
0001f0 e4 e1 2a 2d f6 7a 32 2d 3a d3 fa 2d 3a d3 fa 2d
       9.713539e-12 1.0145431e-11 2.8515513e-11 2.8515513e-11
000200 3e 63 1c 2e 57 ec 63 2e 87 43 5a 2e bf 6b 5a 2e
       3.5558438e-11 5.1823736e-11 4.9627438e-11 4.966316e-11
000210 80 64 31 31 80 64 31 31 b6 15 26 31 9f 02 a4 30
       2.5814018e-09 2.5814018e-09 2.416852e-09 1.1933315e-09
000220 98 9a 03 30 84 da 08 30 c3 ca bd 30 c3 ca bd 30
       4.7877213e-10 4.978704e-10 1.3809188e-09 1.3809188e-09
000230 cb 9d f3 30 ca 8b b8 2f 9a 2e cb 2e c0 19 c9 2e
       1.7725424e-09 3.356873e-10 9.239649e-11 9.144996e-11
000240 8e a8 ca 2e 8e a8 ca 2e 00 d1 9d 2f 8e 27 9e 2e
       9.215838e-11 9.215838e-11 2.8706637e-10 7.1920345e-11
000250 a8 6b db 2d 98 08 d3 2d 1d 8f 0f 30 1d 8f 0f 30
       2.4945226e-11 2.399174e-11 5.2226473e-10 5.2226473e-10
000260 24 c5 46 2f 20 5b 08 30 7f fb cc 2f ae 2d cd 2f
       1.8078034e-10 4.960601e-10 3.7286083e-10 3.732174e-10
000270 f7 ad 14 2f f7 ad 14 2f 15 e1 7e 30 07 68 8e 2f
       1.3522326e-10 1.3522326e-10 9.272452e-10 2.5903565e-10
000280 d5 12 e6 2f 03 8e ed 2f 2d c7 c8 2f 2d c7 c8 2f
       4.1850137e-10 4.3210954e-10 3.652131e-10 3.652131e-10
000290 56 fb b9 2f 1b f7 02 30 2b b0 29 30 2b b0 29 30
       3.382989e-10 4.764488e-10 6.173219e-10 6.173219e-10
0002a0 a8 75 41 30 a8 75 41 30 3d de 3e 2f cb 76 8f 30
       7.038019e-10 7.038019e-10 1.7359354e-10 1.0438382e-09
0002b0 9a 31 06 30 cb 5a 05 30 f2 4e 72 2d f2 4e 72 2d
       4.8819404e-10 4.851414e-10 1.3773637e-11 1.3773637e-11
0002c0 98 93 96 2d b9 ce 7c 2d 3c 7c 9a 2e 3c 7c 9a 2e
       1.711857e-11 1.4370443e-11 7.025178e-11 7.025178e-11
0002d0 d0 bf 04 2f d0 bf 04 2f bc 57 9b 2e fe ea 30 2f
       1.2073476e-10 1.2073476e-10 7.064169e-11 1.6090593e-10
0002e0 f9 7b 1b 2f 5b 7a 20 2f a2 28 18 2e a2 28 18 2e
       1.4141212e-10 1.4595385e-10 3.4596888e-11 3.4596888e-11
0002f0 41 51 06 2e 18 66 0f 2e e8 c5 54 2f 98 b4 56 2f
       3.054024e-11 3.2605113e-11 1.9351598e-10 1.9527346e-10

exp_avg f4 [32]
000000 00 2d 64 32 6e 0f bc 32 9b d3 66 33 53 07 38 33
       1.32815785e-08 2.1893097e-08 5.3743502e-08 4.28475e-08
000010 41 6e bc 33 ca b0 af 32 6f 97 de 33 86 d9 b0 32
       8.774487e-08 2.0453076e-08 1.0365226e-07 2.0588015e-08
000020 3b 88 04 34 9e f2 84 32 af 00 95 33 ff d3 21 33
       1.2343018e-07 1.5477152e-08 6.9384775e-08 3.7678543e-08
000030 c8 42 1d 32 64 70 50 33 0c 43 ee 33 a9 53 cd 33
       9.153787e-09 4.8530993e-08 1.10949344e-07 9.561274e-08
000040 6e b3 c1 33 06 14 3c 33 b2 a5 5e 32 de 37 e3 33
       9.019901e-08 4.3790372e-08 1.29597755e-08 1.05806734e-07
000050 dc ab 80 b0 2d b6 27 33 ac 59 00 34 35 31 b6 32
       -9.362071e-10 3.9048405e-08 1.1953551e-07 2.1209965e-08
000060 8f 78 ac 31 e9 5b a4 b2 b9 f2 77 33 74 48 c1 33
       5.0195648e-09 -1.9133909e-08 5.7729924e-08 9.000442e-08
000070 bf 41 c2 30 39 4b b7 32 ea 3b 20 33 48 8d 82 33
       1.4134044e-09 2.1338211e-08 3.7307395e-08 6.0792956e-08

exp_avg_sq f4 [32]
000000 98 a6 83 2d c9 d0 8c 2f b9 a3 9d 30 bb 8b 1f 30
       1.4966958e-11 2.5614202e-10 1.1469786e-09 5.804243e-10
000010 c5 12 80 30 e7 9d f1 30 5a 65 1c 30 c0 48 35 31
       9.31856e-10 1.7579936e-09 5.68965e-10 2.638032e-09
000020 e1 e3 b1 31 41 8f 08 32 b3 e7 2f 30 46 0d 24 30
       5.177285e-09 7.948814e-09 6.3993894e-10 5.9681715e-10
000030 2d e4 2a 30 97 0a e5 2f 79 89 ab 31 c6 d9 1b 31
       6.2169897e-10 4.1662382e-10 4.992384e-09 2.2679258e-09
000040 8c 4b 40 30 61 bc d8 2f da 4f 45 2f b2 f8 24 32
       6.995655e-10 3.9424022e-10 1.7945415e-10 9.602603e-09
000050 80 82 38 2f 11 e9 81 2f 5d 4e 2d 32 c7 88 aa 30
       1.6781065e-10 2.3630567e-10 1.0087743e-08 1.2408002e-09
000060 be 85 de 2e 75 a1 94 30 e0 63 40 31 ec ce 93 31
       1.01191486e-10 1.0814306e-09 2.799645e-09 4.3017874e-09
000070 52 11 d5 30 9c a8 93 2e 7d 2a 15 2f 54 df a7 2f
       1.5502712e-09 6.714737e-11 1.3566566e-10 3.0535807e-10
