src/logs/sine_wave/trading_rl_experiment_trial_0_checkpoint.pt (torch, 42455 bytes, 39 tensors)

module.0.module.network.0.weight f4 [32, 6]
00000000: c22d 42be 64b4 26be fcaf 9dbe d867 ac3e
00000010: 5771 f2bd 0b90 31bd cba9 853e c19e 2c3e
00000020: bb36 13be c822 5c3e 2b3f 70be bfcf 79be
00000030: b731 533e 90b4 b03d 5c56 9b3d 7e5e ea3d
00000040: f16a 76bd e8c9 cebd 4f90 a83e 3803 d6be
00000050: 0cbd acbe 2256 803e a476 53bd 0843 563d
00000060: d574 56be c8e8 a3bd 7554 eabb bb0d ab3e
00000070: 52c7 c8be b1d4 2a3e 8eaf 323e c48e 9b3e
00000080: 66db cabd 525d 243e c38a 363d bbe4 93be
00000090: 4de4 30be 214c 2fbe e899 4dbc 2e2d 94be
000000a0: 6411 1abe 64aa d2bc 2fa5 7e3e 50bd 6a3e
000000b0: 251d f8bc cefd b6be b46f 6a3e d2d9 1fbd
000000c0: 386c 75be fc11 4fbe 460b 64bc 0fcf 413c
000000d0: 05a6 b6be f68e f7bd 724a 6cbe c5fc 19bd
000000e0: 6743 22be cbe2 38be 3e17 933a 34d3 91be
000000f0: 443a d63c fb0f 79bd d901 363d 1809 9cbe
00000100: 0629 27be 2154 71be a508 2a3e 3d20 843c
00000110: 9451 d13e e14f ca3e dd78 c8be a768 113d
00000120: 6385 8ebe beeb 88be ecdb 9a3e 3d9e acbe
00000130: 8879 af3e 4724 903e 9407 b73e 87e9 2a3e
00000140: 88ce f73d 5ee9 c5be be80 1fbe 538f 6bbe
00000150: 00aa 9c3e ab84 89be fd6b d8bd 907e 81bb
00000160: f05c 6ebe 3e82 a3be 3485 b73d 0670 bd3e
00000170: 219b 893d 59f3 04be 27c7 ae3e dccf c53e
00000180: 8c60 c2bd 3629 3fbd f374 13bd 8266 433d
00000190: 0cfb 453e 4399 46bc 0e07 a9be 2e0b 6bbd
000001a0: 4ae1 89be 8228 963e 8ace f8bd 2054 1f3e
000001b0: 4eba a4be 156e a53e eb11 393d 4a2a c23c
000001c0: 6318 b9be 98aa 6dbe 6346 99be 2aef 84be
000001d0: fdc2 61be e995 bfbe 7fbb e7bd 223a bfbe
000001e0: 0e5b 35bd ae38 efbd b771 25be 12fa 96be
000001f0: 8f0a cbbe 4a89 d63d 0d5d 8bbe 5035 96bd
00000200: aa6f 913d 571c 643e 7074 2fbd cbae 06bd
00000210: af64 3dbd 7866 a5bd baaa d0be e3b6 b03e
00000220: 965e 9abe 1b88 9f3e 61d6 b9be ef22 683e
00000230: 6093 ec3d 0e75 66be 818d 663e 147a 08be
00000240: e901 a8be bb2f 4dbe 05e5 b53d 0d19 973c
00000250: 4c76 59bc bcf0 8dbe 1bae 59be d2ad 86be
00000260: c7d0 f5bd 9afe b8be 03ca 903d db70 7ebe
00000270: c63c 9b3e 4e28 cebd f446 873e aef7 a9be
00000280: 5a0a 47be 2c26 833e c72a ef3d ac13 1d3e
00000290: 73c3 8bbe 403a f4bd f5db 11be 3be2 8a3e
000002a0: ee52 aa3e 673f bd3e 618f a03e 52fa a23e
000002b0: a000 65be a7d9 303e af83 a1be b072 ce3c
000002c0: b343 dbbe 34c8 8c3e b95f 0ebe 478b 98bd
000002d0: 51c9 b8be 8cc4 3cbe 2efc 5b3e 70d6 79be
000002e0: 58d2 9b3e 049d 0a3e 3e82 853e 1bed 6fbe
000002f0: f23d fbbd f49b e93d 732a 90be 90dc 88be
-0.18962768 -0.16279751 -0.30798328 0.33672976 -0.11838024 -0.04335026 0.26106104 0.16857435
-0.14376347 0.21497643 -0.23461597 -0.24395655 0.20624433 0.086281896 0.07584831 0.11443804
-0.06016058 -0.10097104 0.329226 -0.4179933 -0.3373798 0.25065714 -0.051626816 0.05231002
-0.20943005 -0.08003384 -0.0071511813 0.33408913 -0.3921457 0.16682698 0.17449781 0.3038236
-0.09905128 0.16051224 0.044565927 -0.28885445 -0.1727459 -0.17118885 -0.012548901 -0.2894072
-0.15045696 -0.025716014 0.248677 0.2292378 -0.030287335 -0.35740513 0.22894174 -0.03902609
-0.23967063 -0.20221704 -0.013918703 0.011829152 -0.35673538 -0.120878145 -0.23075274 -0.037594575
-0.15846024 -0.18055265 0.0011222137 -0.28481448 0.02615083 -0.060806256 0.044435356 -0.30475688
-0.16324243 -0.23567249 0.1660486 0.016128654 0.40882552 0.39514068 -0.3915471 0.035500195
-0.2783614 -0.26742357 0.30245912 -0.33714476 0.34272408 0.28152677 0.3574797 0.16690646
0.120999396 -0.38654608 -0.15576455 -0.23003893 0.3059845 -0.2685903 -0.10567472 -0.003951855
-0.2327764 -0.31935304 0.08960953 0.3699953 0.067190416 -0.12983455 0.34136316 0.38635147
-0.09491071 -0.04667016 -0.036000203 0.04770518 0.19334048 -0.012121501 -0.33013195 -0.05738371
-0.26929694 0.2932778 -0.12148769 0.15559435 -0.3217339 0.32310548 0.045183104 0.023701806
-0.36151418 -0.23209608 -0.29936513 -0.25963718 -0.22047038 -0.3741906 -0.11315059 -0.3734904
-0.04427629 -0.11680733 -0.1615666 -0.29487664 -0.39656493 0.104754046 -0.2721943 -0.07334387
0.07101376 0.22276436 -0.042835653 -0.03288154 -0.046238597 -0.08076185 -0.40755254 0.34514531
-0.30150288 0.31158528 -0.3629637 0.22669576 0.11551547 -0.2250559 0.22514917 -0.13327819
-0.32813957 -0.20037739 0.08881573 0.018444562 -0.013272833 -0.27722728 -0.21257822 -0.2630449
-0.12002712 -0.36131746 0.07069781 -0.24847738 0.30319804 -0.10066281 0.2642132 -0.33196777
-0.19437543 0.2561506 0.11678081 0.15339535 -0.27297553 -0.11925173 -0.14244063 0.27125725
0.33266395 0.36962435 0.3135939 0.31831604 -0.2236352 0.17270528 -0.3154578 0.025201172
-0.42825088 0.27496493 -0.13903703 -0.0744844 -0.36091092 -0.18434352 0.21482918 -0.24398208
0.30433917 0.13536459 0.2607593 -0.23430292 -0.122676745 0.11406699 -0.28157386 -0.26730776

module.0.module.network.0.bias f4 [32]
00000000: 1d50 113d 0ddf 82bc 1767 223e 3525 1d3e
00000010: b13b 57be 38a2 ee3d cc65 803e 1eb5 74be
00000020: ac0d 95be b050 83bd 00a9 92be 345e 1c3e
00000030: 9f71 01be 1ed5 b6be f183 b4be ae62 c63e
00000040: 5b02 1fbc b915 053e 5001 e13d 8335 dc3e
00000050: 13d5 883e 4ac7 203e c12f 18be e4e0 d4be
00000060: 8d2e 10be e921 acbe aa1b 78be 1748 1ebe
00000070: afc7 39be 55ac a3be 05a9 ee3d 6f58 d83e
0.035476793 -0.0159755 0.15859638 0.15346225 -0.21018864 0.116520345 0.25077665 -0.23897216
-0.29111993 -0.06411874 -0.28644562 0.1527031 -0.12641 -0.3570947 -0.35256913 0.38747162
-0.009705151 0.12996568 0.109865785 0.43009576 0.26725063 0.15701023 -0.14861967 -0.41577828
-0.14080258 -0.3361962 -0.24229303 -0.15457188 -0.1814258 -0.31967416 0.11653332 0.4225497

module.0.module.network.2.weight f4 [16, 32]
00000000: d9dd 913d 9c76 19be 9f11 6a3d c7bc e03c
00000010: 147d 073e b0e7 8dbb 5efc 323e 4914 6dbc
00000020: a9e3 22be 5978 143e 2605 bdbd 774e b73d
00000030: 4746 2c3e 1fda 98bd 1392 aa3d 10e8 c73b
00000040: e2a8 ca3c 2261 09be 1e35 9c3d 1f34 a6bd
00000050: 6355 95bd b78e df3b 5889 4d3c e955 053e
00000060: 03e8 02be 223a 7b3d 3ea6 a3bd 1d3b 2e3d
00000070: 743e 28bc f552 403d da2a 423e 97c7 22bd
00000080: d20b 82bd 1c6b c63d bd66 f83d 54b3 1b3e
00000090: 71bd f33d 1dcb 483d f339 1dbe 96f8 f6bc
000000a0: a7a1 cfbd 0e79 c6bd aeea 98bd 9857 fa3d
000000b0: 1d72 823d b98b b9bd f6b8 a13d 0c8b cdbd
000000c0: 26c3 0d3e 2caf 42bc 493e e4bd 31d0 9e3d
000000d0: ebc7 8dbc 56f6 003c 723d 0a3e 5256 d73c
000000e0: bcc7 213e 0cbb c33d 1ada 2a3d 33cb 99bd
000000f0: e3bf dcbd 4101 16be 99aa 9d3d 4b5f 073e
00000100: c930 a5bd dc60 15be 5154 cf3d b2ee 08be
00000110: ae3c 3dbd 064a 353d 8874 1dbd 4431 09bd
00000120: 97c2 41bd ad03 153e 287a 7c3d 33df 033d
00000130: ee26 cbbd f674 d0bd e82c 0e3c b889 ecbd
00000140: 0330 a33d 2b34 07be cb11 1fbe dfc8 6ebd
00000150: 2b24 d3bd 9e75 4b3d d8a9 f7bb 6f46 33bd
00000160: 3a65 0fbd 0b03 c73d c4d8 b23c 738f a7bd
00000170: b494 b73d b7db 803d cd23 1f3d 59f1 ef3c
00000180: 63c7 13bd bff8 843d 7ad3 e2bd 48f9 1c3e
00000190: c840 9a3d e585 3b3e fd6b e2bd d789 fa3d
000001a0: 2bf9 78bd 9a7f 1c3e 7248 9dbd 1253 a83d
000001b0: 43c1 b0bd b1bd 5f3d 612e dd3d a7ae da3d
000001c0: 22df b03d 9632 08be 7a80 e3bd d4cf 01be
000001d0: ae3e e93d 6232 b6bd bea5 e2bd 2227 0c3e
000001e0: 383b 213e 499f b63d 6535 e8bb e384 b8bc
000001f0: a3d9 01be df32 ad3d efaa 7e3d 0ebf 283e
00000200: 0f7d ec3b 8f3b debd a858 1fbe 3e3c 20be
00000210: 06a6 ccbd c84f 30be 135b 0ebe 05e6 d9bc
00000220: ed77 37be 7f94 203d 29e0 e2bb 34a0 98bd
00000230: 8dc8 2f3d 3247 163e 48a9 e8bc 0498 1abe
00000240: 9f32 ec3c e9a5 063e 9556 6cbd db37 c2bd
00000250: fd21 b33b de7d 1c3d b09a 38be 17ad d13d
00000260: d691 683b 7035 14be f06f 073e bd67 04be
00000270: f9f4 1c3e 425e 5fbd c99c 04bd 9370 4ebd
00000280: b115 7dbd 3b3b 0abd 9e80 2a3c 6314 fcbd
00000290: cb4f 6b3d 2048 453e 9721 243e 5856 413e
000002a0: 360a 9ebd 47b8 bcbd 38c8 113e a89b 35bd
000002b0: 72ff 2dbc 6a8c 443e 81c8 c3bd 0c7d e23d
000002c0: 2eec 67bd 4be3 b0bd 0b32 f73c fa27 b63d
000002d0: 5f43 3b3e 5f5e 69bd 6004 f6bd 69e6 a23c
000002e0: 645f eebd 3f39 d93d eab3 173e 5048 20be
000002f0: b352 c33d 944e 243e 1c0f 2f3d 0ffc 3ebd
00000300: c5c3 a63d c102 d9bd b88a 35be bf13 823d
00000310: b031 b0bd d3e9 91bd 468f 74bd b7ba 993d
00000320: 9689 403c b7db 603d 6f0a 4ebc f909 31be
00000330: 3eb0 0abd 29f1 183e 06f6 01be d9b5 f43d
00000340: e7db 25be 892f 2bbe f161 d53d 39b0 96bd
00000350: 84c8 edbd aec2 863d fecb 2e3b 41f6 f93d
00000360: 46c9 aa3d 2c2e 103e eb51 28bd 6029 0bbe
00000370: 98da 3d3d 9e2f 463d aaf3 14be d667 053e
00000380: 49b8 1bbd b49e 2abd f77d eb3d f0b9 c03d
00000390: fa60 acbc a850 113e 12dd 923d 8301 7abd
000003a0: bba7 463d 7cff 1b3e 258a fc3c a7b7 3fbe
000003b0: d76e 003e 4ae7 27be 8f19 c33d cc76 823d
000003c0: eaf2 eebd 1077 d43d 1a47 b13d f384 00be
000003d0: 0b82 8f3d 9978 023e b676 253d 3b67 c73d
000003e0: 4a02 15be 7ad2 01be bf8a 32bd 82ec 133e
000003f0: 8ae3 62bd 42d8 ce3d a3ec 9d3c 8429 01be
0.07122392 -0.14986652 0.05714571 0.027433766 0.13231307 -0.004330598 0.17479083 -0.014470168
-0.15907158 0.14499034 -0.092294976 0.08950513 0.16823684 -0.07463478 0.08328643 0.006100662
0.024738733 -0.1341596 0.07627319 -0.0811541 -0.07291677 0.006822433 0.012544952 0.13021053
-0.12783818 0.061334737 -0.079906926 0.042536844 -0.010268796 0.046954114 0.18961659 -0.039741125
-0.06349911 0.09688398 0.12128971 0.15205127 0.119013675 0.04902183 -0.15354137 -0.030147832
-0.101382546 -0.09691058 -0.074666366 0.122237384 0.06369422 -0.09059853 0.078966066 -0.10036287
0.13843974 -0.011882585 -0.111446925 0.07754553 -0.017307242 0.007871231 0.13500002 0.026286278
0.15798849 0.09557161 0.041711904 -0.0750946 -0.10778787 -0.14648916 0.076985545 0.13219945
-0.08065946 -0.1458773 0.10123504 -0.13372305 -0.046200447 0.044260047 -0.03844121 -0.03349425
-0.047304716 0.14552183 0.061639935 0.03219528 -0.099195346 -0.101785585 0.008677699 -0.11549705
0.07968142 -0.13203494 -0.15534131 -0.058297034 -0.10309633 0.049672715 -0.0075580887 -0.043768343
-0.035008647 0.09717377 0.021831878 -0.08181658 0.0896391 0.06291907 0.0388525 0.029289888
-0.036078822 0.06492757 -0.11075492 0.15329468 0.07531887 0.18312795 -0.110557534 0.12233322
-0.0607845 0.15283051 -0.076798335 0.082189694 -0.08630612 0.054624263 0.10799862 0.106778435
0.08636309 -0.13300547 -0.11108489 -0.12676936 0.11388908 -0.088963285 -0.11066769 0.13686803
0.15745246 0.089171 -0.0070864432 -0.022524303 -0.12680678 0.084569685 0.062174734 0.16479132
0.0072170566 -0.10851204 -0.15561163 -0.1564798 -0.09992604 -0.17217934 -0.1390193 -0.02659894
-0.17916842 0.039204117 -0.0069236946 -0.07452431 0.04291587 0.14675596 -0.028401032 -0.15097052
0.028832732 0.13149227 -0.05769976 -0.0948331 0.005466698 0.038205974 -0.18027759 0.102380924
0.0035487316 -0.1447351 0.13226295 -0.12930198 0.15327825 -0.05453325 -0.032376084 -0.050400328
-0.061788265 -0.033747893 0.010406641 -0.12308576 0.057449143 0.19265795 0.16028439 0.18880594
-0.07716791 -0.092148356 0.14236534 -0.0443379 -0.010619985 0.19194189 -0.095597275 0.11059007
-0.056621723 -0.08637103 0.03017523 0.08894344 0.18287419 -0.056974765 -0.12012553 0.019885259
-0.11639288 0.10606622 0.14814726 -0.15652585 0.09537258 0.160456 0.04273902 -0.0466271
0.08142809 -0.105962284 -0.17728698 0.063514225 -0.08603227 -0.071246766 -0.05970695 0.07506316
0.011751553 0.054897036 -0.01257573 -0.1728896 -0.033859484 0.14935745 -0.12691507 0.11948747
-0.16197167 -0.16717352 0.104190715 -0.073578306 -0.11610511 0.06580101 0.0026671882 0.12205172
0.08339171 0.14080113 -0.041093748 -0.13590002 0.046351045 0.048385255 -0.14546075 0.13027892
-0.038017545 -0.041655257 0.11498635 0.09410465 -0.021042336 0.14190924 0.07171072 -0.061036598
0.048499804 0.15234178 0.030827591 -0.18722402 0.12542282 -0.16396824 0.09526359 0.06370315
-0.11667426 0.10374272 0.0865614 -0.12550716 0.070072256 0.12741317 0.040396415 0.097364865
-0.14551654 -0.12677947 -0.04358935 0.1444569 -0.05539278 0.10099842 0.019277876 -0.12613493

module.0.module.network.2.bias f4 [16]
00000000: 2d51 093e 5da2 213e 2e81 20be 578c 843d
00000010: ead5 c93d 48bd 1bbe f6d4 eebd 52a7 433d
00000020: f184 b83d 673b 78bd c56e f7bd dea1 0e3c
00000030: 0a88 123e 423d 9fbc 0fcb 363e cdf2 ec3b
0.13409872 0.15784593 -0.15674278 0.0647208 0.09855254 -0.15208924 -0.11661713 0.04776699
0.090097316 -0.060603525 -0.120816745 0.008705584 0.14309707 -0.01943839 0.17850898 0.0072310925

module.0.module.network.4.weight f4 [3, 16]
00000000: 1c5c 25be d467 203e 1812 32be e17c 4fbd
00000010: 0a9e 7ebd a315 1b3e db60 1dbe c6ed 083e
00000020: 1b4d e5bd 18ea e9bd 4c31 8b3c cda7 b13d
00000030: 4ea2 cdbd 823f 463e bf75 e3bc 34f0 183e
00000040: a054 2cbe 3d86 5c3d 8862 543d f76a 0dbe
00000050: 0573 0d3e cdca b5bd fd7a 0b3d f635 6c3e
00000060: b385 40be ca77 cebd 23b8 383e de5d 0fbe
00000070: 13bc 1a3e 12b5 42be 2e67 78be ba4d 5bbe
00000080: 6e19 3e3d 71e6 803e b085 06bd a659 1c3d
00000090: d5e6 803d 035f 90bc bfb0 3a3e 7953 64be
000000a0: 907e 113e b822 3abe 4f59 183e e0f1 fe3d
000000b0: bd9d 6a3e 27c9 a73d a3dd dabd 8c73 0dbe
-0.16148418 0.15664607 -0.17389715 -0.050656203 -0.062162437 0.15144973 -0.15368979 0.13371953
-0.11196347 -0.11421603 0.01699128 0.086745836 -0.10040723 0.19360164 -0.027766107 0.1493538
-0.16829157 0.053838957 0.05185178 -0.13810335 0.13813408 -0.08876572 0.034052838 0.2306746
-0.18801002 -0.10081442 0.18038993 -0.14000651 0.15110807 -0.19014385 -0.2425811 -0.21416369
0.04641097 0.25175813 -0.032842338 0.038171433 0.06294028 -0.01762343 0.18231486 -0.22297467
0.14208436 -0.18177307 0.14877819 0.12448478 0.22911735 0.08192664 -0.10686805 -0.13813609

module.0.module.network.4.bias f4 [3]
00000000: d760 973d e3e8 633e 20dc 62be
0.073915176 0.22256808 -0.22154284

module.0.weight f4 [32, 9]
00000000: 2ec4 18bb b8a5 b33d e726 6cba 1769 36bb
00000010: 9336 333e e9ca 65bd 6d66 2d3e b06d 963d
00000020: 8f79 673e 6591 6b3d 68b4 35be 7604 073c
00000030: ed3b 77bd 38ae bd3d 5b9e 6f3e 446c 95bb
00000040: a979 eb3d 8022 91bd e670 e63d 2bfc 153e
00000050: bc12 ab3d 5487 953b b9f7 3f3e 8b49 b43d
00000060: d4c4 4b3e d5f4 08be 9a51 1e3c 5b19 17bd
00000070: ef9b 29be 0b69 4dbe e925 dbbb b465 43bd
00000080: 90a5 dc3d 8c47 6abe d5fa 223e 976c ac3c
00000090: c7d0 c0b9 16b2 35be d8ed 20bb b7ed 6dbb
000000a0: 11e5 493e bc8f 463e ffae 5ebe 2b5d 90bb
000000b0: 7d6d 31be e038 233d 1a38 773e f16f 4bbe
000000c0: 9764 4e3e 8659 583d 751d 543d 267e 023e
000000d0: c038 bf3a 72c3 06be e5e0 213e 21e1 51be
000000e0: 4f00 18bc 8fc6 36bd 54e8 2abd 401f c63d
000000f0: 3b3d 153d c89a de3d df34 11bd 01bc 1dbe
00000100: c6d1 283d 3156 2cbc 37fb a0bd 8bef 4ebe
00000110: 3491 683e 48f1 d2bd 7119 193c 0ce2 ccbb
00000120: 9b6d bb3d 0772 df3d 941e 25bc 7395 da3d
00000130: 0c07 523e 22ab 183e d8c6 423e 8ed7 a93c
00000140: 3fff 113e d659 54be 953b 523e 54eb 0d3e
00000150: 1d5a 08bc c115 e9bd c8b8 e93a 8116 343e
00000160: 141a 6e3e 3d09 213e ecdf e33c d07b 683e
00000170: 9d2b 6ebe 95d4 50bb 39fc 72be e7b4 9bbd
00000180: dcb9 daba 6b25 2d3e f5bc c6bc 99c6 f5bd
00000190: 7faf 32be 874d 94ba 9915 e53d 5f0f b93c
000001a0: 95ae 4bbe 51e5 9cbd 1302 f6bb c9d2 7f3b
000001b0: f049 f9bc f5a7 3bbc 67fb ad3d 1e99 a3bd
000001c0: 3069 093e ae50 953d 4949 e6bd da9b 0d3e
000001d0: 407d e33c ba6a 4e3e da9d 273a 601c c13b
000001e0: 502a 8cbd cffe 433d b621 a3bd f3a0 7fbb
000001f0: 3d22 97bb 8b03 45bb 9ed9 173b 8359 01be
00000200: 8a85 ef39 89b0 c13d 5a88 95ba 1167 973d
00000210: 0b13 8f3a 4633 87bd 66e4 0e3e c152 b83a
00000220: 2e14 c9b9 d94c a339 bf61 e2bd 0f4a a0bc
00000230: 31fc 483e 6da2 65bd a6ac 05be 63f3 6b3e
00000240: 10d2 49bc e804 46be be97 373d 344e 2a3e
00000250: 48c0 02be 251c d8bd 2a34 163e 681e 45bc
00000260: 2c8b 203d 3979 20be 550c 03be 98af c4bd
00000270: e217 cebd ad1e 61bd af17 04be 1ae2 1dbd
00000280: 07e7 3cbe 0376 d5bd b061 4bbc 7d2c 843a
00000290: a1c5 5ebd 682c 39bb 0d0c fd3d 31a8 863d
000002a0: 7fae 8fbb 2ae9 1cbe 6caf bf3c 55b2 13be
000002b0: f3e7 ccbd 620b d33d f00b a4ba c0e2 713a
000002c0: 3bed 33bd 37ae 0f3e a086 21be c509 5dbb
000002d0: 3e4b d43b 2fb9 11bd baa3 d53d 40d3 74be
000002e0: 638d 61be 3d14 133e 25d3 9f3b d2ca 42bc
000002f0: 4993 45be d18f 4e3d af00 ebbb 5f5d 353e
00000300: 42e6 92bd 5c09 993d 228b 10be f755 963c
00000310: c61e 9abd 05a2 37bb 1014 293e a0f6 11bd
00000320: c929 af3c 7600 1bbe a86e aa3d 1103 6c3e
00000330: 09bd dfba cf98 c3bc 21ff e83d e19f 593e
00000340: 4ee9 503e ccaa 043e 0870 8bbc a996 963d
00000350: 4f16 09bd 72ff 2b3e 6968 ee3a 99e6 01be
00000360: dfe1 5dbe ad34 5bbd 1694 0d3d 9acc 79be
00000370: 90ac df3d 44df 5c3e ea38 233e f84e 4d3b
00000380: c6ae bebc c49e 293c 7f98 9ebd 0c41 f639
00000390: bf3e 58be 95b2 893c f984 c93d 6908 46be
000003a0: c978 543a 48e3 c03c 4a29 513d ac83 693c
000003b0: 316d 23bd 77b1 723b e59a 1f3d 60f3 633e
000003c0: 31ae 13be 6bb9 63be 449f 09be 63c8 863d
000003d0: 9d5f 493e 97ab e7bd 6a55 eb3b 0308 c9bc
000003e0: 2894 243e 0c10 053d 88c2 87bd 5ac7 73bd
000003f0: 2933 e9bd c62b 27bb 62cf b63d 9615 80bc
-0.0023310292 0.08771843 -0.00090084824 -0.0027833635 0.17501287 -0.056101713 0.16933604 0.0734514
0.22604965 0.057511706 -0.17744601 0.00824081 -0.060359884 0.09261745 0.23400252 -0.0045600254
0.11497814 -0.070866585 0.112520024 0.14646976 0.08353183 0.0045632515 0.18746842 0.0880309
0.19899303 -0.13374646 0.00966301 -0.036889415 -0.1656339 -0.20059602 -0.006687869 -0.047704414
0.10773766 -0.22878855 0.15915997 0.021047873 -0.00036776645 -0.17743716 -0.0024555828 -0.003630502
0.19716288 0.19390768 -0.21746443 -0.0044056377 -0.17326923 0.039849162 0.24142495 -0.19866921
0.2015556 0.05281975 0.051785905 0.12743434 0.0014589056 -0.13160494 0.15808447 -0.20496036
-0.009277417 -0.044622954 -0.04172547 0.09673929 0.036435347 0.10869366 -0.035450812 -0.15403749
0.04121568 -0.0105185965 -0.078604154 -0.20208566 0.2271164 -0.10299927 0.009344445 -0.006252533
0.09151765 0.10910421 -0.010078091 0.106730364 0.205105 0.14909032 0.19021165 0.020732667
0.14257525 -0.20737395 0.20530541 0.13859302 -0.008322266 -0.11381102 0.0017831558 0.1758671
0.23252136 0.1572618 0.027816735 0.2270348 -0.23258825 -0.003186499 -0.23729028 -0.07602864
-0.001668747 0.16908805 -0.024260024 -0.1200077 -0.17449759 -0.0011314609 0.1118576 0.022590337
-0.19890817 -0.07660926 -0.0075075715 0.003903555 -0.030430764 -0.011453618 0.08495217 -0.07988189
0.13419032 0.07290779 -0.11244447 0.13828984 0.027769685 0.201579 0.0006394066 0.005893275
-0.06844008 0.047850426 -0.07965414 -0.0039005845 -0.004612236 -0.0030061926 0.0023170481 -0.12631802
0.00045685127 0.094574995 -0.0011408434 0.07392705 0.001091571 -0.066015765 0.13954315 0.0014062749
-0.00038352743 0.0003114704 -0.110538 -0.019566564 0.19627453 -0.056063104 -0.13054141 0.23042063
-0.012318149 -0.19337809 0.044822447 0.16631395 -0.12768662 -0.10552243 0.14668337 -0.012031175
0.039195225 -0.15671243 -0.12797673 -0.09603804 -0.10063149 -0.054960895 -0.1289966 -0.038545705
-0.18447505 -0.104228996 -0.012413427 0.0010084059 -0.054387692 -0.0028255228 0.12355814 0.06575049
-0.004384815 -0.1532332 0.023399077 -0.14423497 -0.10005178 0.103049055 -0.0012515765 0.0009227209
-0.043927412 0.14031301 -0.15774012 -0.0033727747 0.006478696 -0.035576995 0.10431619 -0.2390871
-0.22026591 0.14363189 0.0048774653 -0.011889176 -0.19294466 0.050430123 -0.0071717124 0.177114
-0.071728244 0.07472488 -0.14115575 0.018351538 -0.07525401 -0.0028020155 0.1651156 -0.03563559
0.02138223 -0.15136895 0.08321887 0.23048045 -0.0017069887 -0.023876576 0.11376787 0.21252395
0.20401499 0.12955779 -0.017021194 0.07352955 -0.03346854 0.16796663 0.0018189076 -0.12685622
-0.21668194 -0.053517032 0.034565054 -0.24394456 0.109215856 0.21569544 0.1593968 0.0031327587
-0.023276698 0.010352794 -0.0774393 0.0004696924 -0.21117686 0.016808787 0.09839816 -0.19339146
0.00081051566 0.023545876 0.051064767 0.014252584 -0.039899055 0.0037032047 0.03896608 0.22260809
-0.14421917 -0.222387 -0.13439661 0.065811895 0.1966538 -0.11312025 0.007181813 -0.024539953
0.16072142 0.032486007 -0.06628901 -0.05951629 -0.11386711 -0.0025508269 0.08926274 -0.015635293

module.0.bias f4 [32]
00000000: 9ca5 beba 19b5 693c 44ae 563d ac7a e93c
00000010: 967d ab39 2cc7 2b3e 5097 e43d 8ed8 073e
00000020: b360 203b 6b89 68be 8450 6fbd 1a11 17b8
00000030: 721e 5e3c cdb7 afbb 28a1 60be d16f 943d
00000040: 03db 40be ed7a 51bd 93b6 2cbe 7194 d7bc
00000050: cbcd 163e a9d9 79be 16be 7cbe 97fb 20bd
00000060: 604c 333e 537e 123d 855f 223e efc4 993d
00000070: b475 b83d 3933 92bd f3fa 26be cce6 afbd
-0.0014545205 0.014264368 0.052412286 0.028500877 0.0003270923 0.16775197 0.11161673 0.13266203
0.00244717 -0.22708671 -0.058426395 -3.6017133e-05 0.013557063 -0.005362487 -0.21936476 0.0724789
-0.18833546 -0.05114262 -0.16866522 -0.0263159 0.14726941 -0.24399437 -0.24681887 -0.039302435
0.17509604 0.035765003 0.1585675 0.07508265 0.09006825 -0.07138676 -0.16306667 -0.08588943

module.2.weight f4 [16, 32]
00000000: d810 d1bb 8eee 5c3d 30fe cdbd 9095 c6bd
00000010: 0593 77bd 8533 4d3d 19f5 cb3d 6973 b03b
00000020: ef87 80bc 76c0 b53d 2a87 0ebe 3267 133d
00000030: 72cb ebbd 9a77 673c 3201 aabc ad7c e1bd
00000040: 59e1 eb3d 2810 893d 6f55 7fbd 7bb4 57bd
00000050: 6265 c0bc 509d bfbd ad80 94bc 702c 02bd
00000060: b2f9 7f3b 4cd0 fd3b 49dd 72bd 6894 853d
00000070: f0fb 32bd 6aab 443d 97bd dbbc 19a2 7d3d
00000080: f0ed 7a3d ca8a c83a e58b bfbc f674 ba3b
00000090: 0975 c8ba e8da 663d 76ec 82bd cca6 79bd
000000a0: cae4 97bd 1dc8 34bd c5bf 2bbc 138c 933d
000000b0: bacd 143b eed6 933d 0b8f e23a ac28 a03c
000000c0: a2f0 5d3d 6021 29bb fcc0 aebd e089 c6bb
000000d0: 56a0 b1ba 65be 35bc 8be5 87bd 34cf abbd
000000e0: ac0b bd3c 476f 61bd f9b5 6d3d 1688 0e3d
000000f0: c1d3 323b 1b3b 293b db20 98bc 4f33 7fbd
00000100: e891 5cb9 e288 863d 30a5 843d dc54 a43d
00000110: 8d69 afbd 044c 703c 6876 933b 4e7b f638
00000120: 3541 bcbd 60a8 4bba 2c16 123d b8d2 f73b
00000130: 0315 fabc 3c94 733d fde8 b13d ec89 b9bc
00000140: eb66 b7bd fa87 a63d 16e4 8cbc 587f c2bc
00000150: a2fe 02bb 5011 0f3d 2e5b debc eb4f 6e3c
00000160: 0c3b 8bbd c990 d53c 97d6 bd3c 954e ccbc
00000170: 0f8e dbbc a613 653c 827a c5bc e804 11bd
00000180: 390e 9abd 187d 1e3c 6c9c c2bd 5710 aebd
00000190: 49af a3bd ce47 9f3d 5a93 fdbc 45b5 ad3a
000001a0: 8ffe a13d 5703 d83b b2b9 ae3c c9d1 ad3d
000001b0: d3cb b53d 600a e5bc 399d d9bc e7da fabc
000001c0: 1426 493b 4bbd 06bd d447 193d 6387 a3bc
000001d0: bdec 1cbc df92 333d 8f5e ce3c a481 91bd
000001e0: 828b 9d3d d160 853a 030c 05bd 03e6 58bc
000001f0: f456 8bba b8ff 4ebd 0f51 b6bd 5072 af3d
00000200: 800c 8abd 32af c13d 1f12 5a3d 0471 69bc
00000210: 7ebe 86bd e0d1 d43d 5a8f 803d 3ddc 1bbc
00000220: aa33 40bd 2bb1 57bd 8afb 523d b03d 833d
00000230: 62e6 50bd cad7 c3bd 4d75 31bd bfa7 2cbc
00000240: 4e8d c5bd c969 d03d 50b9 ae3d 0aab efbd
00000250: af57 2a3d 6f05 223d 8c40 8b3d b66d cabd
00000260: d26d c63d aabb 973d c2c9 223d 49e9 633b
00000270: e1f2 aebc c2c5 50bd 3e81 9f3d 2d42 95bd
00000280: 7586 333c e645 413d 4aa9 ecbb 27da f43c
00000290: d1b6 33bc b7c1 0f3c d56f b3bc 1e47 0ebb
000002a0: e3b9 f5bc f40c 443d 0fd8 d23d 7ee2 8ebd
000002b0: 39bc 083d 93a6 93bd 2615 ba3d 329c 8f3c
000002c0: ac3c 42bc 5c41 8d3d 3337 6cbd cf65 833c
000002d0: b2ac 21bd e97c ec3c c7d7 833c 5006 b13b
000002e0: 91cd 9b3d 513e 6bbc da2a ae3d b513 d73d
000002f0: a2fb 87bd 9c50 4abc fcff fd3b 8417 a338
00000300: 0e2d f0ba be33 923d 9b94 8ebd 5345 113d
00000310: c4e3 f33c 9283 a2bd ece4 91bd ea69 523d
00000320: 5661 bc3d a350 a3bd 69aa d4bd 7768 6d3d
00000330: 7211 d33d 14e3 e3bd 8e27 abbd 51a5 d6bd
00000340: 9180 22bc 7bd7 b83d 5212 7bbd ed7c cbbd
00000350: 6f69 d93d 841f 8fbd a485 c1bd 697b 893d
00000360: ed43 ddbd c537 afbb 2724 9e3c b034 e83c
00000370: 2d4f 8bbd faf7 c0bd 3f00 27bd aacb ed3c
00000380: 508c 883d 7316 7d3c 092b 743c 6e11 7dbc
00000390: 479b aa3d d67a f73b 763c 03bd 329b 4d3a
000003a0: dcab 1cbd c8ce 863a 4643 e5bc 8ceb d23c
000003b0: 7ac4 833d 9195 bfbb 7619 cdbc c712 e7b9
000003c0: 5537 b73d 13fe ea3c a5df 83bd 3981 70bd
000003d0: c562 a8bc e1c8 893c 99da b5bd 59db 20bd
000003e0: f661 bd3b ce15 b8bd 4ef0 45bd c949 003c
000003f0: c85f 713a 4a39 70bc 1cd0 18bc 0731 8abd
-0.0063801818 0.05393844 -0.10058248 -0.096964955 -0.060442943 0.05009796 0.09958858 0.0053848517
-0.015689818 0.088746 -0.13918748 0.035987087 -0.115134135 0.014127636 -0.020752523 -0.11010108
0.11517591 0.06692535 -0.062337335 -0.052662354 -0.023485843 -0.09356177 -0.018127764 -0.03178066
0.0039058742 0.007745778 -0.059293065 0.06522447 -0.043697298 0.048015036 -0.026823802 0.061922166
0.06126207 0.0015300151 -0.023382137 0.0056902124 -0.0015293668 0.05636111 -0.063927576 -0.060950086
-0.07416685 -0.044136155 -0.010482733 0.072044514 0.002270563 0.07218729 0.0017285062 0.019550644
0.054184563 -0.0025807247 -0.085329026 -0.0060589164 -0.0013551812 -0.011092757 -0.06635579 -0.0838913
0.023076855 -0.055037763 0.05803487 0.03479775 0.002728686 0.0025822583 -0.018570354 -0.06230479
-0.0002103519 0.06569077 0.064768195 0.08023998 -0.08565054 0.014666561 0.004500199 0.000117531614
-0.09192125 -0.0007768925 0.035665676 0.0075629614 -0.030527597 0.05946754 0.08687017 -0.022648774
-0.08955177 0.08131404 -0.017198604 -0.023742363 -0.0019988199 0.03492862 -0.027143087 0.014545421
-0.06798372 0.026070016 0.023173613 -0.024939815 -0.026801137 0.013981735 -0.024106268 -0.03540507
-0.07522244 0.009673379 -0.09502491 -0.0849921 -0.07992417 0.077773675 -0.030954052 0.0013252875
0.07909881 0.006592195 0.02132878 0.08487279 0.08876767 -0.027959049 -0.026564227 -0.030621959
0.0030692862 -0.032895368 0.037422016 -0.019962018 -0.009577927 0.04384124 0.025191573 -0.07104805
0.07692625 0.0010175948 -0.03248216 -0.013238433 -0.0010630772 -0.05053684 -0.089021794 0.08566725
-0.067406654 0.09457244 0.053239938 -0.014248136 -0.06579302 0.10391593 0.06277342 -0.009512958
-0.04692427 -0.052659195 0.051509418 0.0640825 -0.05100096 -0.09562643 -0.043324757 -0.010538041
-0.09646092 0.10176427 0.08531439 -0.11702545 0.041587528 0.039555963 0.06799421 -0.09884207
0.09688915 0.07408841 0.039743192 0.00347765 -0.021356048 -0.050969847 0.07788323 -0.07288013
0.01095735 0.0471858 -0.0072223293 0.02988918 -0.01096888 0.008774213 -0.021903912 -0.002170987
-0.029995864 0.047863916 0.10295116 -0.06976794 0.033382628 -0.07209506 0.09086065 0.017530534
-0.011855286 0.06897232 -0.05766983 0.016039757 -0.039471336 0.028868156 0.016094102 0.005402364
0.07607568 -0.014358119 0.08504267 0.10501806 -0.06639792 -0.01234832 0.007751463 7.776826e-05
-0.0018323974 0.07138775 -0.06961938 0.035466503 0.029771693 -0.07935251 -0.071237415 0.05137054
0.09198253 -0.079743646 -0.10384066 0.057960954 0.10306062 -0.11127296 -0.08357154 -0.1048075
-0.009918348 0.09025475 -0.06129677 -0.09935937 0.10615813 -0.06988433 -0.09449318 0.06712992
-0.108039714 -0.0053472244 0.019304348 0.028345436 -0.06802211 -0.09422298 -0.04077172 0.029027779
0.066673875 0.015447247 0.0149028385 -0.01544605 0.08330398 0.007552485 -0.032040082 0.00078432553
-0.038249835 0.0010285014 -0.02798618 0.025747083 0.06433959 -0.005846687 -0.025036555 -0.00044073744
0.089461006 0.028685605 -0.06439141 -0.058716986 -0.02055491 0.01681942 -0.08879585 -0.039271686
0.0057795 -0.08988534 -0.048324876 0.007830092 0.0009207693 -0.014662096 -0.009326961 -0.067476325

module.2.bias f4 [16]
00000000: 033e 033d cf34 44bb 11c9 823c 104b a13d
00000010: e20f f2bb 3728 863d 5030 8a3d f96a 5bbd
00000020: 6213 d83d a126 853d 5992 81bd e959 1c3d
00000030: d6f4 793d 5cd6 be3d 8093 9d3d acfb 963d
0.03204156 -0.0029938703 0.015965017 0.07875645 -0.0073871473 0.06550639 0.06747496 -0.053568814
0.10550572 0.065015085 -0.06326742 0.038171683 0.06102451 0.093182296 0.07694149 0.07372221

module.4.weight f4 [8, 16]
00000000: 0653 0abe 3a2e 5cbd 161b a23c 60ba 7e3a
00000010: 7057 13bc 289d dc3d 9d25 00be e2df 5dbd
00000020: 2fbb ffbd ad0c 93ba e357 18be c107 dd3d
00000030: 6e2d 2a3b 948f 583d ad2e 18be 5e37 d33d
00000040: dbae ecbd 9bc0 92bd e919 983d 870f 203e
00000050: 5d03 b33d 4c54 6dbd 66d8 f13d 5f90 8c3d
00000060: 3ea7 29be 86d2 433d 08de 253e fef9 9c3d
00000070: 16d4 f9bc 50a0 7ebd ef2e 6fbd f2a5 3cbd
00000080: 4e66 35be 724a 46bd 795c 973d 37f6 1c3e
00000090: 5889 5639 1cf6 623d 4546 013e 55e3 763d
000000a0: 5ac7 063d 7c19 f13d e2bd 103e 6dbd eebd
000000b0: 2763 9f3d 32e3 9cbc 0fd6 bc3d 1ee1 2c3e
000000c0: fdeb b83d a5c3 71bd 4e2b c63d 07cf 243e
000000d0: 0dbf 143e 53fb 00bd 4e87 51bd 76ec 8a3d
000000e0: c939 003e b617 ff3d 6557 fe3c 4334 bdbc
000000f0: 6a33 08be 206a 48bd fd78 013e f83e 8c3d
00000100: 2c70 f23d 1a09 19bc 3a52 00be 7253 c8bd
00000110: 0b86 95bd a3af 1b3d 83e0 1b3d f407 ac3d
00000120: bea9 733b 6d01 ba3d 3a97 96bb 9a4c 19be
00000130: 1d9c 68bd f20b 11be f1d1 46bc ad14 12bb
00000140: 3db8 60bc 2798 a4bd bc4d a93d 065a ac3b
00000150: 61f5 df3d 1c94 173c 08c4 84bb 61f5 4b3b
00000160: 5302 6a3d 8814 283d eaf8 1e3b 50dd ba3c
00000170: a68d c5bc 97cf 363d a75d c63d d499 cbbd
00000180: 7005 7f3d ee4d 813d 8852 94ba de1c a6bc
00000190: a91c 96bc 388d 553d 8806 f7bc 6a28 a9bb
000001a0: 03b3 1ebd 22e5 0e3e b307 19be 0010 f3bd
000001b0: 5e77 78bc 0780 babd 8026 5ebd 1ce2 adbd
000001c0: 150c 813d a720 9b3c d60a 20bd dc21 ee3b
000001d0: d89e 253e c184 193e 4f22 02be 3ba6 013e
000001e0: e5c0 8bbd 430f 81bc e141 06be a898 c3bd
000001f0: bcb8 a4ba f736 5e3d e75f 933d 1e2e 92bd
-0.13508233 -0.053755023 0.019788306 0.0009717103 -0.008993015 0.10772163 -0.12514348 -0.05416859
-0.12486874 -0.0011218988 -0.14877276 0.107924946 0.002596702 0.0528713 -0.14861555 0.10313295
-0.115567885 -0.07165643 0.07426817 0.15630923 0.08740876 -0.05794172 0.11808853 0.06863474
-0.16567704 0.047808193 0.1619798 0.0766487 -0.030496638 -0.062164605 -0.05839437 -0.046056695
-0.17714807 -0.04841084 0.07390685 0.15328299 0.00020459795 0.05541049 0.12624462 0.060275394
0.03290496 0.11772439 0.14134935 -0.11657224 0.07782584 -0.019151304 0.09220516 0.1688275
0.09029386 -0.05902447 0.096762285 0.160946 0.14526005 -0.03148968 -0.051154427 0.067833826
0.12522043 0.124556944 0.031047532 -0.02309621 -0.13300863 -0.048929334 0.1264381 0.06847948
0.11837801 -0.009340549 -0.12531367 -0.09781541 -0.07300957 0.038009297 0.038055908 0.083999544
0.0037180032 0.09082303 -0.0045956643 -0.14970627 -0.056789506 -0.14164713 -0.012135015 -0.0022290156
-0.013715801 -0.08036833 0.0826678 0.005259755 0.10935474 0.009251621 -0.004051689 0.00311216
0.057131123 0.041035205 0.002425725 0.022810608 -0.024115395 0.044631567 0.096858315 -0.0994145
0.062261045 0.06313692 -0.00113161 -0.020277437 -0.018324213 0.05213663 -0.030154482 -0.0051622884
-0.038744938 0.13954595 -0.14944343 -0.11868286 -0.015165178 -0.091064505 -0.054235935 -0.084903926
0.063011326 0.018936468 -0.039072834 0.00726722 0.16173875 0.14992048 -0.127084 0.12661068
-0.06823901 -0.015754348 -0.13111068 -0.09550601 -0.0012567262 0.054251637 0.07196026 -0.071377024

module.4.bias f4 [8]
00000000: 3001 dc3d b099 2f3d 13b7 453e a820 383e
00000010: 4ff5 833b 37b0 673d 037a aebd 6bac 11be
0.10742414 0.042871177 0.19308119 0.17981207 0.004027046 0.056564536 -0.08519366 -0.14225928

module.6.weight f4 [1, 8]
00000000: 6a3a aabb 3b61 3dbe d538 54be 8556 353e
00000010: 006d 553d f2a2 a33c f45e d2bd 9a74 8c3e
-0.005194952 -0.18494122 -0.20724805 0.17708786 0.052105904 0.01997516 -0.10272017 0.2743271

exp_avg f4 [32, 6]
00000000: a481 3fb8 a481 3fb8 df57 6437 b9db 4b38
00000010: ff79 35b8 b31f 34b8 793b 0038 793b 0038
00000020: 22e8 f1b7 c5c5 a6b7 6c93 2db8 c78e 30b8
00000030: a0e9 7cb7 a0e9 7cb7 247c 7d37 3f8d 7237
00000040: 7012 fe37 7e23 ff37 9339 0637 9339 0637
00000050: 33c4 0f38 83fc 29b8 6708 1f36 7a4a 1636
00000060: 9e20 dc37 9e20 dc37 cb1d 49b7 b60a e4b7
00000070: d803 9237 fe44 9037 aae6 90b8 aae6 90b8
00000080: 1ddc 2638 9bdb 8a38 b55c ea37 9fe7 f337
00000090: 74e6 3fb8 74e6 3fb8 1753 a137 2248 5438
000000a0: 0dca 95b7 41a9 93b7 e5cd 5fb8 e5cd 5fb8
000000b0: 9676 db37 6900 6338 7194 d7b6 3561 c8b6
000000c0: 7d41 0037 7d41 0037 8437 f0b6 632a 9bb6
000000d0: f99d 7136 c717 6736 8659 0237 8659 0237
000000e0: c01b 04b7 1425 deb6 46f6 3cb6 c0e0 4eb6
000000f0: 83a2 54b8 83a2 54b8 e78e 8837 85c4 8838
00000100: d6ba 1238 d949 1738 fd31 5737 fd31 5737
00000110: da51 89b7 caab f3b6 5c96 70b7 4335 6fb7
00000120: 8f43 b636 8f43 b636 81dd c0b6 95db 74b6
00000130: e9a2 10b7 f6fd 10b7 ac4d d6b8 ac4d d6b8
00000140: faa8 3a38 db16 ed38 d229 0538 ace0 0c38
00000150: 1bcf c4b5 1bcf c4b5 67bc 0a37 fc97 81b6
00000160: 5a2c 0138 8af8 0138 c287 3437 c287 3437
00000170: 7a8f 0eb7 b458 55b7 08e0 fe36 20d3 f636
00000180: 2ac5 7938 2ac5 7938 7dc9 08b8 c9ef 5ab8
00000190: d943 76b8 b1ae 76b8 5340 b3b7 5340 b3b7
000001a0: 6ca6 2e37 9c85 b037 7ece 8537 e596 8537
000001b0: 742b 3db6 742b 3db6 b42f ed36 d6da 82b5
000001c0: fc6a 47b8 30c6 48b8 6c2d 15b6 6c2d 15b6
000001d0: 52a5 97b6 076d 7b37 b49a 2e38 b7c8 3038
000001e0: 995d 7fb8 995d 7fb8 6d34 0038 e03a 8538
000001f0: f9de 9637 0b08 9d37 8b2c 8536 8b2c 8536
00000200: ff9c c8b6 28bc f8b3 6f6c 7a37 c129 7737
00000210: 6108 ea36 6108 ea36 5372 0a38 2214 18b8
00000220: cf08 5037 e134 5237 3969 29b6 3969 29b6
00000230: 4570 9336 19f0 82b5 5d1b b735 d093 b735
00000240: 2471 9c38 2471 9c38 b2b8 8bb8 7507 3bb8
00000250: 6cfe ad37 2e4d a937 f9db eb37 f9db eb37
00000260: 6ea0 18b8 c847 a7b6 3838 ab36 1692 9536
00000270: 915f 47b7 915f 47b7 335f a836 250d 6637
00000280: f046 8cb6 fa0d 8bb6 bf24 9a38 bf24 9a38
00000290: 1e25 4fb8 62cd 81b8 2b09 ad37 fc81 a637
000002a0: 786a 4bb8 786a 4bb8 f186 7637 ceee 6b38
000002b0: ce1c 9137 b609 9937 c75a b336 c75a b336
000002c0: a60f 8737 075e a7b7 9d31 c637 9b70 c637
000002d0: 2f7c 6a38 2f7c 6a38 a1d4 6cb8 9330 c9b7
000002e0: 23f9 b8b7 6bc3 c0b7 eccf 3537 eccf 3537
000002f0: f289 fb35 419c 84b7 7b98 3638 0aaa 3738
-4.5658686e-05 -4.5658686e-05 1.3610318e-05 4.8603604e-05 -4.326738e-05 -4.2944866e-05 3.0572966e-05 3.0572966e-05
-2.8837534e-05 -1.9880836e-05 -4.138371e-05 -4.209464e-05 -1.50747655e-05 -1.50747655e-05 1.5108879e-05 1.445721e-05
3.0287745e-05 3.0414896e-05 8.000427e-06 8.000427e-06 3.427658e-05 -4.052791e-05 2.3697737e-06 2.2395093e-06
2.6241232e-05 2.6241232e-05 -1.198747e-05 -2.7184706e-05 1.7406346e-05 1.7198265e-05 -6.9094196e-05 -6.9094196e-05
3.978248e-05 6.6212575e-05 2.7938144e-05 2.9075714e-05 -4.5752575e-05 -4.5752575e-05 1.9231387e-05 5.0611918e-05
-1.7856271e-05 -1.760258e-05 -5.3359097e-05 -5.3359097e-05 2.6162055e-05 5.41214e-05 -6.42478e-06 -5.971781e-06
7.644642e-06 7.644642e-06 -7.1590202e-06 -4.6242944e-06 3.600375e-06 3.4435523e-06 7.769448e-06 7.769448e-06
-7.874274e-06 -6.620432e-06 -2.8157533e-06 -3.0827214e-06 -5.069609e-05 -5.069609e-05 1.6279007e-05 6.52159e-05
3.4983117e-05 3.606998e-05 1.2826637e-05 1.2826637e-05 -1.6369788e-05 -7.261963e-06 -1.4340123e-05 -1.4257911e-05
5.4318875e-06 5.4318875e-06 -5.7478323e-06 -3.6486647e-06 -8.620999e-06 -8.642199e-06 -0.00010218783 -0.00010218783
4.4503227e-05 0.00011305298 3.174862e-05 3.3587843e-05 -1.4663414e-06 -1.4663414e-06 8.269307e-06 -3.862193e-06
3.0797302e-05 3.0987467e-05 1.0760445e-05 1.0760445e-05 -8.497265e-06 -1.2716442e-05 7.5958706e-06 7.3559495e-06
5.954985e-05 5.954985e-05 -3.2612577e-05 -5.2198568e-05 -5.871416e-05 -5.8813665e-05 -2.1368416e-05 -2.1368416e-05
1.0409956e-05 2.1043052e-05 1.5950991e-05 1.5925101e-05 -2.8188488e-06 -2.8188488e-06 7.068704e-06 -9.749444e-07
-4.7544934e-05 -4.7868292e-05 -2.222917e-06 -2.222917e-06 -4.5193965e-06 1.4986151e-05 4.162891e-05 4.21486e-05
-6.0883907e-05 -6.0883907e-05 3.0566403e-05 6.3529005e-05 1.7985223e-05 1.8719604e-05 3.9688944e-06 3.9688944e-06
-5.9787412e-06 -1.1582625e-07 1.4926408e-05 1.4732069e-05 6.974719e-06 6.974719e-06 3.3008237e-05 -3.6258374e-05
1.2399817e-05 1.2529287e-05 -2.524421e-06 -2.524421e-06 4.3940113e-06 -9.755632e-07 1.3642526e-06 1.3677582e-06
7.459734e-05 7.459734e-05 -6.662439e-05 -4.459122e-05 2.0741682e-05 2.018231e-05 2.8116616e-05 2.8116616e-05
-3.6389036e-05 -4.9853443e-06 5.102742e-06 4.4575527e-06 -1.1883575e-05 -1.1883575e-05 5.017873e-06 1.3712129e-05
-4.1805833e-06 -4.14415e-06 7.350137e-05 7.350137e-05 -4.9387214e-05 -6.189455e-05 2.0627476e-05 1.984927e-05
-4.849813e-05 -4.849813e-05 1.4694161e-05 5.625077e-05 1.729876e-05 1.8243543e-05 5.3451836e-06 5.3451836e-06
1.6100541e-05 -1.9951736e-05 2.3626542e-05 2.3655875e-05 5.5905602e-05 5.5905602e-05 -5.646481e-05 -2.3983686e-05
-2.2050523e-05 -2.2979182e-05 1.0836851e-05 1.0836851e-05 1.8741105e-06 -1.5808388e-05 4.353419e-05 4.378896e-05

exp_avg_sq f4 [32, 6]
00000000: 3f69 9f2f 3f69 9f2f 4fe3 d42e 381d a52f
00000010: dd89 832f 961a 812f 6dc6 452f 6dc6 452f
00000020: 0e84 ef2e eabd 1e2f 80ea 9d2f 86e6 a32f
00000030: bf2d 392e bf2d 392e 9add 632d 642f de2e
00000040: 86c0 002f 4076 032f 505e 862e 505e 862e
00000050: bd8e de2e 4f51 862f be3c 112e bb50 102e
00000060: c14e ae2e c14e ae2e 0eb5 c72d cdd2 b02e
00000070: 9fdb 0d2e a776 0a2e 5ded 4a2f 5ded 4a2f
00000080: 140e 842e 81fe 852f 694d a52e 11e4 b02e
00000090: a906 9a2f a906 9a2f 18c3 e12e 996d b42f
000000a0: 9943 fe2e 2eba f92e aa74 182f aa74 182f
000000b0: c179 222e c1c7 142f 5ce3 752d 0a68 742d
000000c0: f0ab 452d f0ab 452d 3219 492d 3b28 4d2d
000000d0: 1cb6 022e f534 012e 4a66 4c2f 4a66 4c2f
000000e0: 7a96 a42e e6f1 932f 14fb a22f 3dc9 a42f
000000f0: 5378 ab2f 5378 ab2f eea4 fb2d 9397 1230
00000100: 0345 112f dffa 1a2f 8e97 002f 8e97 002f
00000110: a009 ef2e 138c 9f2e 14e1 542e 945e 532e
00000120: ec81 452d ec81 452d e828 8d2d f2a5 d32c
00000130: 3e1b a42d 2c01 a72d 3c49 9730 3c49 9730
00000140: 12d3 482f 0c40 c230 fdee 202f da78 312f
00000150: 0db7 332d 0db7 332d 0195 e82c d204 ac2d
00000160: b2e9 812e 429b 832e cbef 532f cbef 532f
00000170: 2e57 a02e 95e5 3d2f e61a f42d 2873 ea2d
00000180: 7671 9a2f 7671 9a2f 9b7f 1d2f 68ee 772f
00000190: d5bc 0d30 5cc3 0d30 6eb4 9c2f 6eb4 9c2f
000001a0: 636b f42e 958b 8f2f 68d9 972e 30bc 982e
000001b0: 1fc0 772f 1fc0 772f 1af5 272f f210 5c2f
000001c0: eea7 f72f 370e fc2f dae9 d32e dae9 d32e
000001d0: b258 ca2e 5060 5e2e b52f 6e2f 3b05 752f
000001e0: dc75 fd2f dc75 fd2f ea98 ce2e 792f 1a30
000001f0: 704e b12e cd85 ba2e 80fe 2e2d 80fe 2e2d
00000200: dca7 1d2d 2cc8 b32c ba56 842d 2309 812d
00000210: 616d 872d 616d 872d 50de c22e 03a0 022f
00000220: 9b79 0a2e ebd5 0c2e 313d 922d 313d 922d
00000230: d09b c72d f027 b32d c7d3 782c 3184 782c
00000240: 9419 0e30 9419 0e30 69c6 ef2f 4bed 402f
00000250: d97a 782e 38de 6d2e 494e 572e 494e 572e
00000260: 98c5 bc2e 2db9 082c 73d0 262d 8f7d 162d
00000270: 5d47 8f2d 5d47 8f2d 6643 7b2c 8299 d02d
00000280: 25e7 772c 5d29 872c 3a0d ae30 3a0d ae30
00000290: 358a 1d30 f715 7b30 fe39 292f 20a3 242f
000002a0: f298 0e2f f298 0e2f 8d0e 292d 4471 4c2f
000002b0: 3c1c f22d e544 072e 6dab 6c2c 6dab 6c2c
000002c0: ba9f 942d ba2e e92d 86fa 2d2e 12ca 2e2e
000002d0: 3fef 992f 3fef 992f 36f3 842f 48c4 b82e
000002e0: a178 932e 026d 972e 10ea b72e 10ea b72e
000002f0: fe2f 972e 350a ed2e e38c 092f b4dc 0a2f
2.8996713e-10 2.8996713e-10 9.681022e-11 3.0034086e-10 2.392672e-10 2.3483854e-10 1.798754e-10 1.798754e-10
1.0891919e-10 1.4437487e-10 2.8724756e-10 2.9813324e-10 4.210476e-11 4.210476e-11 1.29526615e-11 1.01038095e-10
1.170993e-10 1.1956391e-10 6.110368e-11 6.110368e-11 1.01207466e-10 2.443223e-10 3.3023133e-11 3.2813512e-11
7.9265934e-11 7.9265934e-11 2.2704085e-11 8.040999e-11 3.225475e-11 3.148295e-11 1.8456121e-10 1.8456121e-10
6.005166e-11 2.4373395e-10 7.517082e-11 8.044066e-11 2.801717e-10 2.801717e-10 1.0266471e-10 3.2819683e-10
1.15625905e-10 1.1356281e-10 1.3865767e-10 1.3865767e-10 3.6942675e-11 1.3531488e-10 1.39771215e-11 1.38928955e-11
1.1236331e-11 1.1236331e-11 1.1431122e-11 1.1661834e-11 2.9720323e-11 2.937824e-11 1.8590032e-10 1.8590032e-10
7.4845866e-11 2.6911023e-10 2.964603e-10 2.9974415e-10 3.1190214e-10 3.1190214e-10 2.860864e-11 5.332989e-10
1.3212191e-10 1.4095346e-10 1.1695375e-10 1.1695375e-10 1.08701714e-10 7.255365e-11 4.840313e-11 4.8059848e-11
1.1227002e-11 1.1227002e-11 1.604801e-11 6.0154043e-12 1.865674e-11 1.8986222e-11 1.100751e-09 1.100751e-09
1.8264881e-10 1.4133561e-09 1.4636821e-10 1.6140991e-10 1.0215617e-11 1.0215617e-11 6.6103793e-12 1.9556277e-11
5.9077535e-11 5.9847696e-11 1.927553e-10 1.927553e-10 7.291444e-11 1.7271014e-10 2.7751534e-11 2.665386e-11
2.8093056e-10 2.8093056e-10 1.4324401e-10 2.2549218e-10 5.156385e-10 5.1573124e-10 2.8504438e-10 2.8504438e-10
1.1114911e-10 2.6110727e-10 6.905304e-11 6.9455885e-11 2.2532774e-10 2.2532774e-10 1.5275639e-10 2.0014904e-10
4.504836e-10 4.5848633e-10 9.6367095e-11 9.6367095e-11 9.201652e-11 5.05625e-11 2.1662923e-10 2.2284478e-10
4.6104176e-10 4.6104176e-10 9.3949584e-11 5.6092336e-10 8.0629614e-11 8.4820685e-11 9.947265e-12 9.947265e-12
8.961689e-12 5.1097095e-12 1.5045177e-11 1.466966e-11 1.5396297e-11 1.5396297e-11 8.861589e-11 1.1880279e-10
3.1485575e-11 3.2022312e-11 1.6625453e-11 1.6625453e-11 2.2692875e-11 2.036768e-11 3.536048e-12 3.53163e-12
5.169565e-10 5.169565e-10 4.3614826e-10 1.7546602e-10 5.6497782e-11 5.408493e-11 4.895487e-11 4.895487e-11
8.58435e-11 1.9429556e-12 9.4822926e-12 8.5543924e-12 1.628891e-11 1.628891e-11 3.570666e-12 2.3715033e-11
3.5229122e-12 3.841523e-12 1.2663925e-09 1.2663925e-09 5.731267e-10 9.134448e-10 1.5391063e-10 1.4973667e-10
1.2969162e-10 1.2969162e-10 9.609769e-12 1.8593932e-10 2.7524753e-11 3.0756637e-11 3.3632778e-12 3.3632778e-12
1.6896585e-11 2.6509784e-11 3.9558155e-11 3.9742494e-11 2.8000532e-10 2.8000532e-10 2.4183472e-10 8.402218e-11
6.706214e-11 6.886049e-11 8.3634544e-11 8.3634544e-11 6.87521e-11 1.07793253e-10 1.251013e-10 1.2629436e-10

exp_avg f4 [32]
00000000: fcad e038 caaf 9138 b257 7cb8 16c6 03b9
00000010: dfc9 3bb8 0153 b2b8 f613 6538 fd11 51b8
00000020: 4616 00b7 78a0 cf36 63b7 55b8 4e61 61b7
00000030: 847a 5cb6 82b5 b4b8 5a2c 01b8 9ac5 3b38
00000040: fe02 14b9 5f2e 6f38 389a 0239 ede6 11b9
00000050: ff0e 05b9 29e3 7635 12b7 a0b8 3f12 1f36
00000060: f0f9 adb8 c3ed 92b7 cbd4 f5b6 1ab1 bc38
00000070: 9c70 0fb8 c0f9 19b8 9a5d d3b8 c60f 03b9
0.000107135595 6.946882e-05 -6.0163155e-05 -0.00012566926 -4.477228e-05 -8.503162e-05 5.4616445e-05 -4.9846236e-05
-7.6345805e-06 6.1877618e-06 -5.095395e-05 -1.3433701e-05 -3.2853868e-06 -8.616877e-05 -3.0797302e-05 4.4768305e-05
-0.00014115495 5.7025227e-05 0.00012455217 -0.00013914304 -0.00012689455 9.1972703e-07 -7.663494e-05 2.3703467e-06
-8.295837e-05 -1.7515273e-05 -7.3263413e-06 8.997526e-05 -3.4198732e-05 -3.671064e-05 -0.00010078699 -0.0001249901

exp_avg_sq f4 [32]
00000000: 0761 d330 691d 3a30 e315 472f 92db fa30
00000010: a567 762f 625c 8e2f 93fe aa30 f056 152f
00000020: fb59 302e 0efa 3630 7305 872f 97f7 5b2f
00000030: 4a85 9e2e 6f3e 4c30 b3e9 812e 2d1f 1330
00000040: b861 0231 d822 ce30 ee58 6431 46b9 cd30
00000050: a12d 0131 43c6 f72d a647 1130 7027 0e2d
00000060: d732 2730 7a23 aa2d 6033 c02c d93b 0331
00000070: 8c89 7c2e 588c b32e 5301 7430 bdcd 8730
1.5379847e-09 6.77082e-10 1.810672e-10 1.82523e-09 2.2410392e-10 2.5895291e-10 1.2441482e-09 1.3582357e-10
4.0097686e-11 6.6566563e-10 2.456023e-10 2.0005896e-10 7.208685e-11 7.430349e-10 5.907754e-11 5.352259e-10
1.8973036e-09 1.4998376e-09 3.3228917e-09 1.4968371e-09 1.8797908e-09 2.8168695e-11 5.285251e-10 8.080522e-12
6.0826494e-10 1.9342517e-11 5.462672e-12 1.9097028e-09 5.7420332e-11 8.1649076e-11 8.8768565e-10 9.881017e-10

exp_avg f4 [16, 32]
00000000: f427 b4b6 435f 82b6 b858 b0b6 8055 47b7
00000010: 5ff0 82b6 5d77 0eb7 c96d 3ab7 893f 0db7
00000020: 8445 5eb6 bee0 4c33 3c6d beb4 5eec 42b7
00000030: eb82 edb7 ac2c 23b6 6d06 8fb4 c631 3fb8
00000040: c61d e9b6 ea39 68b7 cb5e 5ab6 981c 46b7
00000050: 73d6 ccb6 aaa2 8fb7 090a 82b6 63d6 a0b5
00000060: ead6 30b7 952b 35b5 cddd 12b6 7719 0cb7
00000070: 1818 27b5 84c0 6ab4 d0ac 00b8 638f 07b7
00000080: bba5 6eb8 0261 4db8 74a3 1cb8 a071 80b8
00000090: 9c57 e2b7 fabd 5bb8 b2d5 82b8 60cd acb7
000000a0: 10b1 d5b7 9458 76b7 1371 9fb6 bb0d 95b8
000000b0: 4c18 8bb8 fcf9 8cb7 20ee 55b7 42df e9b8
000000c0: b4c1 9cb7 1a19 9ab8 37c1 75b8 9da8 e1b8
000000d0: 5a7a 76b8 7bf7 a5b8 bec4 b6b7 0fbb e4b5
000000e0: 7d1b 3bb8 a7f0 a4b5 30cf 90b6 747b b1b7
000000f0: 84dd 47b6 b1e3 33b7 5134 a9b8 665c e3b8
00000100: 0000 0000 0000 0000 0000 0000 0000 0000
00000110: 0000 0000 0000 0000 0000 0000 0000 0000
00000120: 0000 0000 0000 0000 0000 0000 0000 0000
00000130: 0000 0000 0000 0000 0000 0000 0000 0000
00000140: 0000 0000 0000 0000 0000 0000 0000 0000
00000150: 0000 0000 0000 0000 0000 0000 0000 0000
00000160: 0000 0000 0000 0000 0000 0000 0000 0000
00000170: 0000 0000 0000 0000 0000 0000 0000 0000
00000180: eb1a 25b8 249e 49b8 f9c5 1fb8 d03e 50b8
00000190: 8e24 67b7 2844 6db8 9cd1 21b8 b2fd 45b8
000001a0: 09ac 5db7 a38f 55b7 5cf6 25b7 cc12 1eb8
000001b0: 3533 cbb7 fb1e 25b8 fc8b 4db7 9eac 04b9
000001c0: 510d 3ab7 3a9d 46b8 dd24 3eb8 6b41 a4b8
000001d0: ee1e 76b8 b7ca 20b8 785b 97b7 91a3 04b5
000001e0: 1180 8eb7 2a73 18b5 868b 8fb7 8fd1 11b8
000001f0: 9ebb b3b6 1bdb 14b7 1ea3 0ab8 c6d8 b9b8
00000200: 83c4 ba36 0000 0000 4115 3f34 2ad2 6836
00000210: 40e3 2136 06ef e331 af51 0637 0000 0000
00000220: 4c3a a234 9791 8b31 0000 0000 f75f fd36
00000230: e1f5 f237 0000 0000 0000 0000 c96a 7b37
00000240: 02c3 e236 cf5e 6c37 3140 3535 8d00 9736
00000250: 6bb0 4035 e909 9b37 a210 2435 e4d5 9434
00000260: 0e7d e036 0000 0000 9b16 9332 0000 0000
00000270: 0000 0000 6aa5 8f2e 5bd3 f837 c37d cd35
00000280: c13a 8db6 bb23 9ab8 84d6 72b8 84b8 64b7
00000290: 6d78 7fb3 08a0 c6b8 4f7c 37b8 ac84 0fb9
000002a0: 162e 74b5 1cef 84b7 dd76 17b8 cc9a 1cb7
000002b0: b46c cbb6 bb2b 0db9 7a1e a0b7 963e 3ab9
000002c0: 0356 a5b5 83a0 e8b5 3719 48b8 7de6 aeb8
000002d0: a621 d1b8 4af7 5db5 463d 2fb5 1453 8ab4
000002e0: 0243 2cb4 c438 44b3 daf7 74b8 8a83 a9b8
000002f0: 9658 83b7 c7e6 40b5 4152 cab6 ca64 b7b8
00000300: 0000 0000 db99 2c37 319e 4837 a490 3834
00000310: 0000 0000 61e0 ac37 f2d4 1d37 e01a 7738
00000320: 0000 0000 1963 a635 6b69 3d37 ed7b 0733
00000330: 2733 1236 cfaa 5538 64fc 8035 b979 9038
00000340: 3594 7e33 fec8 2331 12c1 3f36 d180 4b37
00000350: 5baa cd37 0000 0000 5a3a 842f bc84 8934
00000360: 0000 0000 0000 0000 1eda fc37 3128 0838
00000370: 9f36 a436 0000 0000 1cd0 c235 bbde ff36
00000380: 0f2d 8e38 f3de 8738 7f6f 5e38 4d32 b138
00000390: 5712 ed37 2061 a738 7a4b a938 a87d 7e38
000003a0: 0797 cd37 c185 7d37 4f10 0037 477e aa38
000003b0: 6244 e338 b167 2738 38af 7237 1bfc 6b39
000003c0: 745d f637 6563 cc38 2d06 8438 a171 0839
000003d0: f567 a938 701b d438 bbdb f637 054c 5f36
000003e0: eada 5a38 0d78 cc35 cebb 9c37 6227 5838
000003f0: 0e03 b536 2320 4d37 e07b 0239 28f6 0639
-5.369069e-06 -3.885392e-06 -5.255537e-06 -1.1881231e-05 -3.902285e-06 -8.491651e-06 -1.1112025e-05 -8.419048e-06
-3.3121041e-06 4.7701853e-08 -3.5469736e-07 -1.1618335e-05 -2.8313565e-05 -2.4314895e-06 -2.66405e-07 -4.5584304e-05
-6.947407e-06 -1.3841762e-05 -3.2539708e-06 -1.1808377e-05 -6.104639e-06 -1.7122675e-05 -3.87547e-06 -1.1983324e-06
-1.0540456e-05 -6.7491175e-07 -2.18848e-06 -8.350579e-06 -6.224741e-07 -2.1862985e-07 -3.0678522e-05 -8.080012e-06
-5.689797e-05 -4.8966154e-05 -3.7345526e-05 -6.12468e-05 -2.6982096e-05 -5.23906e-05 -6.238687e-05 -2.0599633e-05
-2.547403e-05 -1.4683366e-05 -4.751733e-06 -7.107431e-05 -6.632562e-05 -1.6805709e-05 -1.2751232e-05 -0.00011151891
-1.868685e-05 -7.347968e-05 -5.8592497e-05 -0.00010760243 -5.876492e-05 -7.91391e-05 -2.1787706e-05 -1.7041765e-06
-4.4609875e-05 -1.2288991e-06 -4.315654e-06 -2.1157532e-05 -2.978225e-06 -1.0722245e-05 -8.068293e-05 -0.00010841414
0.0 0.0 0.0 0.0 0.0 0.0 0.0 0.0
0.0 0.0 0.0 0.0 0.0 0.0 0.0 0.0
0.0 0.0 0.0 0.0 0.0 0.0 0.0 0.0
0.0 0.0 0.0 0.0 0.0 0.0 0.0 0.0
-3.9364135e-05 -4.8069414e-05 -3.809293e-05 -4.9649563e-05 -1.3777184e-05 -5.656868e-05 -3.8580605e-05 -4.7204732e-05
-1.3212682e-05 -1.2729232e-05 -9.892126e-06 -3.768764e-05 -2.4223331e-05 -3.936792e-05 -1.2251545e-05 -0.00012652806
-1.1089564e-05 -4.7353307e-05 -4.533386e-05 -7.8323144e-05 -5.8679776e-05 -3.8335766e-05 -1.8043196e-05 -4.941185e-07
-1.6987355e-05 -5.6792e-07 -1.7111899e-05 -3.476586e-05 -5.356457e-06 -8.872502e-06 -3.305368e-05 -8.8618646e-05
5.566109e-06 0.0 1.7795993e-07 3.4693026e-06 2.4123146e-06 6.6337433e-09 8.006041e-06 0.0
3.0217268e-07 4.061984e-09 0.0 7.5511593e-06 2.8963144e-05 0.0 0.0 1.4985629e-05
6.7580268e-06 1.40887705e-05 6.7521165e-07 4.500215e-06 7.1782296e-07 1.8482055e-05 6.1118965e-07 2.7722774e-07
6.6902785e-06 0.0 1.7123332e-08 0.0 0.0 6.5322706e-11 2.9662324e-05 1.5310292e-06
-4.2089673e-06 -7.3499476e-05 -5.789708e-05 -1.363282e-05 -5.948134e-08 -9.471184e-05 -4.374637e-05 -0.00013686967
-9.0964147e-07 -1.584697e-05 -3.6111906e-05 -9.334366e-06 -6.062526e-06 -0.00013463099 -1.9087678e-05 -0.00017761657
-1.2318491e-06 -1.7332062e-06 -4.77072e-05 -8.339898e-05 -9.972164e-05 -8.268877e-07 -6.5281745e-07 -2.576495e-07
-1.6043126e-07 -4.5686434e-08 -5.8404963e-05 -8.083049e-05 -1.5657668e-05 -7.18614e-07 -6.0296447e-06 -8.7448934e-05
0.0 1.0287821e-05 1.1957761e-05 1.7188955e-07 0.0 2.0608482e-05 9.407509e-06 5.891442e-05
0.0 1.2396805e-06 1.1289822e-05 3.1544847e-08 2.178547e-06 5.0942235e-05 9.610199e-07 6.889128e-05
5.9273777e-08 2.3833873e-09 2.85736e-06 1.2129735e-05 2.4517232e-05 0.0 2.4052121e-10 2.5614816e-07
0.0 0.0 3.014231e-05 3.2462358e-05 4.8939396e-06 0.0 1.4514694e-06 7.6255214e-06
6.7794805e-05 6.478829e-05 5.3032763e-05 8.449387e-05 2.8261142e-05 7.9812715e-05 8.0726066e-05 6.0675346e-05
2.4508232e-05 1.5111117e-05 7.633192e-06 8.129753e-05 0.00010836941 3.9912473e-05 1.446512e-05 0.00022505263
2.9369003e-05 9.745992e-05 6.295401e-05 0.00013012301 8.0779115e-05 0.000101140584 2.9427805e-05 3.3273839e-06
5.217913e-05 1.5234124e-06 1.8684103e-05 5.153509e-05 5.394576e-06 1.2226435e-05 0.00012443913 0.00012870936
