src/logs/mean_reversion/trading_rl_experiment_trial_0_checkpoint.pt (torch, 63767 bytes, 39 tensors)

module.0.module.network.0.weight f4 [48, 6]
000000 a0 1b c0 bd 69 78 85 3e 42 bc 75 3d c1 8c a4 be
       -0.09380269 0.26068428 0.05999399 -0.32138637
000010 ce 58 0b 3e 84 25 a1 3e 2e b8 30 be 3d f1 04 3c
       0.13608095 0.31473935 -0.17257759 0.008114156
000020 c6 21 5a be 5f e5 85 3e f9 9c ab 3e 92 01 40 be
       -0.21301946 0.2615156 0.33518198 -0.18750599
000030 2b 98 5b 3d 37 55 c9 3e d8 7a ec bd 11 2b d1 bd
       0.053611916 0.39322826 -0.11546868 -0.102132924
000040 b3 7e 5b 3d e4 c8 2f be 18 8a 4e 3e a9 38 b9 3e
       0.053587627 -0.17166477 0.20169866 0.3617604
000050 bc 25 3a 3e fb 9e 9d be 03 8b 5e 3c b6 b4 80 3d
       0.18178457 -0.30785355 0.013582948 0.06284468
000060 4e c6 ef bd 55 b6 ba 3c f3 5f 22 be 66 51 36 bd
       -0.117077455 0.02279202 -0.15856914 -0.04451122
000070 7c 69 a1 3d 9b a0 6a be 6d c3 4c 3e f2 02 bb bd
       0.07881448 -0.22912829 0.19996424 -0.09131421
000080 5f 4f b8 3d 55 31 38 be 65 19 3f be 35 fa 12 3d
       0.08999514 -0.17987569 -0.18662031 0.035883147
000090 ca b3 84 bd 96 bc 80 3e 30 41 c8 be ab 64 d6 3e
       -0.064796045 0.2514388 -0.39112234 0.4187368
0000a0 59 0e 68 3e 4c e6 ae be 90 4e c4 3e 73 3c 34 3e
       0.22661723 -0.34160078 0.38341188 0.17601185
0000b0 d2 ae 24 bd 63 e6 1b be 8e d8 ad be 80 4c b6 be
       -0.040205784 -0.15224604 -0.3395428 -0.3560524
0000c0 c1 63 3e be 84 d1 de 3d 8d 1f 0e be 18 a4 48 be
       -0.1859274 0.10879806 -0.13879223 -0.19593847
0000d0 b6 6e b6 3e c9 7f 99 bc ef 78 44 bd 0e 58 b0 be
       0.3563134 -0.01873769 -0.047966894 -0.3444218
0000e0 43 2d 90 bd 21 df a8 3e 39 50 03 be 32 15 a1 3b
       -0.07039883 0.32982734 -0.12823571 0.0049158568
0000f0 33 1b e5 bd 6c d9 95 3e d8 a5 3d 3e 3e a4 3b bd
       -0.111868285 0.29267442 0.18520296 -0.04581093
000100 84 31 c7 be 83 44 c0 be 0c c1 8d 3e b3 72 ab 3e
       -0.38904965 -0.3755227 0.27686346 0.33485946
000110 b6 8a 95 3e 3c 3e d0 3e 9b 0a 92 3e 12 04 9f 3e
       0.2920739 0.4067248 0.28523716 0.31057793
000120 9f 5a a3 3e 0d 89 47 3e c2 2b 8a be 8c dc a7 be
       0.31905076 0.19485874 -0.2698651 -0.3278545
000130 9e d7 75 be 7d 49 40 be 88 b1 a8 3e 92 63 9c 3e
       -0.24008033 -0.18778034 0.32947946 0.30544716
000140 cc 70 99 3e 3b a4 49 3e 20 2e c0 3e 2c f6 6e 3e
       0.2996887 0.19691555 0.3753519 0.23336095
000150 80 67 1b 3e b5 1d 42 be 21 a6 a3 be 3d 02 45 be
       0.15176201 -0.18956645 -0.31962684 -0.19239135
000160 3e 64 5a be 6e 87 97 3d 5f 12 9a 3c b6 34 71 3e
       -0.21327302 0.07398878 0.018807588 0.23555264
000170 34 fc b4 3e 76 4b c4 3d 33 7e f3 3c 2a be 26 be
       0.35348666 0.095847055 0.029723262 -0.1628348
000180 d3 34 3e bc 6b 9f 1b be 47 0b 9c 3e 4a c3 f1 3c
       -0.011609274 -0.15197532 0.30477354 0.029512066
000190 c0 0f 38 bd 3b aa 4a 3e f4 cc 7c 3e 34 8b 20 3d
       -0.044936895 0.197915 0.24687558 0.039195254
0001a0 32 78 21 be 54 23 99 be af 31 94 3e 15 61 6b 3d
       -0.15768507 -0.29909766 0.28944156 0.05746563
0001b0 97 c1 05 3e 27 34 cd 3e 49 a3 a4 3e 6a 23 65 be
       0.1306213 0.40078852 0.32155827 -0.2237679
0001c0 ba 51 a7 3e e0 c0 96 be 7c 2b 31 be 32 66 83 be
       0.3267954 -0.29444027 -0.17301744 -0.25663906
0001d0 25 df 02 be 6a 32 04 3d 50 71 1c 3e 56 7e 58 be
       -0.12780435 0.03227464 0.152776 -0.21141943
0001e0 69 c8 b9 bc 87 64 bf bc 22 2e 82 3e 50 fe c7 be
       -0.02267857 -0.023363365 0.25425822 -0.39061213
0001f0 67 77 d5 be f7 20 f3 bd 1c 62 58 be 0d 43 e5 3d
       -0.4169266 -0.11871522 -0.21131176 0.111944295
000200 cc c6 a9 be 35 7f 4d 3d ef 25 40 be 83 94 8b be
       -0.33159482 0.050170142 -0.1876447 -0.27261743
000210 c4 de 02 bc 80 c1 91 be 79 67 70 3e 64 09 94 be
       -0.007987682 -0.2846794 0.23476972 -0.28913414
000220 d1 e1 31 bd b6 02 63 be e5 44 26 be 2e 07 d1 bd
       -0.043428246 -0.22169003 -0.16237219 -0.102064475
000230 40 c5 a8 be ad 06 9e 3e 7a 2c 28 3d 31 d9 6e be
       -0.3296299 0.30864468 0.04105804 -0.2332504
000240 1a a9 82 bc ce 16 05 3e 68 f1 8a be 7b 9e f6 3d
       -0.015949775 0.1299698 -0.27137303 0.120419465
000250 d0 23 bc 3d c7 51 63 3c d8 f1 0b be 59 c8 44 3e
       0.09186518 0.013874478 -0.13666475 0.19217052
000260 41 dd c2 be a2 bc 9f be 81 f4 bc be 8a 30 b3 be
       -0.38059428 -0.31198603 -0.36905292 -0.3499797
000270 a8 63 a3 bd cd 14 79 be 20 e4 91 be fa b0 a3 bd
       -0.07977992 -0.24324341 -0.28494358 -0.0799274
000280 86 f2 a9 be 6f d1 f9 3d ac bc 1f 3e 7a 64 ab be
       -0.33192843 0.121981494 0.15599316 -0.33475095
000290 5d ac 2f 3e 91 77 a9 3e 1e 34 1e 3e 3a 43 23 3e
       0.17155595 0.33099034 0.15449569 0.15943614
0002a0 91 bd 05 be 68 09 9b be 0c 53 ba 3e 31 44 18 3d
       -0.13060595 -0.30280614 0.36391485 0.037174407
0002b0 8f 4f 16 be 3f 9f b5 3e fd 4a 89 be e5 11 d8 bc
       -0.14678787 0.35473058 -0.26815024 -0.02637572
0002c0 23 17 a1 3d 45 4f 59 3e c6 48 ab be b4 48 b7 3e
       0.07865741 0.21221645 -0.3345396 0.35797656
0002d0 4e a5 85 bd ac 86 5f 3e e1 96 9f be 8f db 12 bd
       -0.0652567 0.21828717 -0.311698 -0.03585392
0002e0 8c 5d a3 3e 89 28 8c 3e d0 b9 f7 bd 0a 07 d2 3e
       0.31907308 0.27374676 -0.12095988 0.41020995
0002f0 9a d1 0a 3e 45 9e 9f be c0 1b 7d 3e 9c cc 9e 3d
       0.13556519 -0.31175438 0.24717617 0.0775387
000300 38 5c bc 3e a5 7e 15 3e 67 5c 76 3e 87 cb 57 3e
       0.36789107 0.14599092 0.24058686 0.21073733
000310 45 9d 50 3e d0 a8 ce 3e 8b 70 97 bd 0f d0 9e 3e
       0.20372494 0.4036317 -0.07394513 0.3101811
000320 ec b2 72 bd 3b 19 9a 3e 19 53 4b 3d b7 75 95 bd
       -0.059252664 0.30097374 0.049639795 -0.07297843
000330 9f 52 b9 bd b3 7d 88 3e b1 fd bb bb 38 23 53 be
       -0.09048962 0.266584 -0.0057370295 -0.20618904
000340 64 c8 06 3e 3b 09 c4 3c 79 88 ef 3c 67 b5 a6 be
       0.1316238 0.023930183 0.02923988 -0.32560274
000350 99 7c 8d 3e 4a 4d a7 bc d4 42 a7 bd 0c 76 0d bd
       0.27634123 -0.020422596 -0.08167043 -0.034536406
000360 bd a5 a0 be 71 6f 98 3e 91 91 c1 3e a4 54 e4 bd
       -0.31376448 0.29772523 0.3780637 -0.111489564
000370 53 4c af 3e a6 d6 80 bd 66 88 63 be 70 ab 41 be
       0.34237918 -0.06290941 -0.2222 -0.18913054
000380 db 1c 30 bd a9 f8 ac bd 20 f1 c3 3c 2b 39 34 3e
       -0.04299627 -0.08445866 0.023918688 0.17599933
000390 3e fd 94 be ec c0 d1 3e bc 0b b1 be 74 87 a1 3e
       -0.29099458 0.409675 -0.34579265 0.31548655
0003a0 7f 3f 45 3e 37 ba a6 3d 05 3c b9 be e5 63 86 3e
       0.19262503 0.081409864 -0.36178604 0.26248088
0003b0 ca 2f 94 3e 7d 28 5f 3e 61 a2 8f be 62 40 c7 3e
       0.2894271 0.21792789 -0.28053573 0.38916308
0003c0 f2 80 18 3d b9 69 02 3c 4a 23 83 3e 27 16 5c 3e
       0.037232347 0.007959777 0.2561286 0.21492825
0003d0 ab 56 94 3e 8e 13 b2 be 35 21 a1 3e 48 1d 25 be
       0.28972372 -0.34780544 0.31470647 -0.16124451
0003e0 e1 7d 91 3e 15 39 8c be e7 e6 5d bd e2 6c 65 3e
       0.2841635 -0.273873 -0.054175284 0.22404817
0003f0 ff b0 6d be ce a4 8f bd ce 96 8a bd 9c 32 3e bd
       -0.2321205 -0.07013856 -0.06767045 -0.046434984

module.0.module.network.0.bias f4 [48]
000000 2c 20 39 3e 39 27 7e 3e ca 85 cd 3e 01 53 36 be
       0.18078679 0.2481965 0.40141135 -0.17805101
000010 a3 23 e1 3d c2 cc fa bd d2 64 a0 bd 6b 69 45 be
       0.10993125 -0.12246086 -0.0783173 -0.19278495
000020 6f e0 b3 3e 6a d3 b4 3e a3 6a 13 be 94 7f 1e be
       0.35132167 0.35317546 -0.14396147 -0.15478355
000030 0f 45 ac be 61 81 63 3d 01 33 ab 3e b2 fa 1c bd
       -0.33646438 0.055543307 0.3343735 -0.03832502
000040 e0 5d f1 bd dd b8 34 3e 7a c1 21 bd 36 60 fc 3d
       -0.11785483 0.17648645 -0.039491154 0.12323038
000050 96 be 8b 3b 20 c5 ac 3e 31 50 a3 3d 42 11 a0 bd
       0.004264663 0.33744144 0.0797428 -0.07815792
000060 b6 0a cc 3e f2 5d ca bd 52 9c f7 3b 8b 64 15 3e
       0.39851922 -0.098812 0.0075564766 0.14589135
000070 33 15 f1 bd b9 93 c6 3e c2 0b b5 bd 1e 54 3c 3e
       -0.117716216 0.38784578 -0.08840133 0.18391463
000080 6f 14 d2 3e 2e 1d 90 3e c6 4b a6 be b1 a6 76 be
       0.41031215 0.28147262 -0.32479686 -0.24087025
000090 b7 09 6d bd 1b 30 54 bd 08 f4 d5 3d fe c3 05 bc
       -0.057870593 -0.05180369 0.10446936 -0.008164404
0000a0 15 d5 94 3e 9e 95 7f be bd 3b 5b be ce bf 82 3d
       0.2906882 -0.24959418 -0.21409507 0.0638424
0000b0 bd 2d 8a 3c 7d cb 74 be 03 48 3c be db 34 08 bc
       0.016867513 -0.2390575 -0.18386845 -0.008313383

module.0.module.network.2.weight f4 [24, 48]
000000 2c 76 91 bd 8a 3f ce 3d ab 9f b0 3d b1 8f 5a 3d
       -0.071026176 0.10070713 0.08624204 0.05335969
000010 93 2e 4a bd d7 a3 d3 bd 60 de 82 bd 2f 3e 01 be
       -0.049360823 -0.10333984 -0.06390071 -0.12621377
000020 91 ef 18 3c 29 2d d0 bc a1 5a 3f 3d 8c 16 97 3c
       0.009334461 -0.025412159 0.04671729 0.018443368
000030 dc ec 93 bb ce 2a 09 3d 09 77 55 bd 84 9f aa bd
       -0.00451432 0.033488087 -0.052115474 -0.083312064
000040 47 94 54 bd 7c 3f dd bd 41 23 f4 bd 1c 2a 97 bd
       -0.05189922 -0.10803124 -0.11920787 -0.073810786
000050 e0 08 2d bc 10 4d 87 3d 91 87 6a 3c c5 ce e2 3d
       -0.010561198 0.066064954 0.014314548 0.110745944
000060 f5 27 2f bc 72 b1 52 3d 88 34 98 3d 63 42 94 3d
       -0.010690679 0.051438756 0.074318945 0.07239225
000070 9a 64 7d bd fe cb 22 3d b1 83 0b 3d dd 2f 4f bd
       -0.06186352 0.039745323 0.034061138 -0.050582755
000080 c4 8e cd bd 76 ea 14 3e c4 a5 9d bc 31 53 5e bd
       -0.10036996 0.14542565 -0.019244082 -0.054278556
000090 d2 8a de bd df 23 ea 3a b4 7d 70 bd 5a 26 54 3c
       -0.108663216 0.0017863474 -0.05871363 0.012948597
0000a0 61 9b ea 3b 3e aa 13 3e 71 36 3a 3d ec 5d d0 3d
       0.007159636 0.14420411 0.045462076 0.10174164
0000b0 9f e4 eb 3d 09 c7 16 3e f0 27 5c 3c 26 68 b3 3c
       0.115182154 0.14724363 0.013437256 0.021900248
0000c0 5f 6d e7 bd 67 23 18 3e 87 57 f5 3d 27 20 07 3e
       -0.11300158 0.14857255 0.11979585 0.13195859
0000d0 4a d0 55 3d 38 67 8e bd 44 17 b8 3d 2d 5b d2 3d
       0.052200593 -0.06953281 0.089888126 0.10271297
0000e0 29 66 9b bd a3 eb 8f bc 2c 81 f4 3d 24 85 0a 3e
       -0.07587845 -0.017568415 0.119387 0.13527352
0000f0 9a 7c 6a bc 06 8c da 3d 7c c4 f8 bd fe 8c f9 3d
       -0.014311934 0.106712386 -0.121468514 0.12185095
000100 8d 81 c9 bd 58 85 82 bd 61 41 41 bc 33 84 a5 bc
       -0.09839163 -0.063730896 -0.011795373 -0.020204639
000110 37 59 5d bd a4 db ce bd 78 d6 d7 bd 51 c0 a3 3d
       -0.05404016 -0.10100487 -0.105389535 0.07995666
000120 07 cb ea bd 15 a0 cb 3d 5f b0 4b 3c 79 5f 05 3e
       -0.11464506 0.099426426 0.012432187 0.13024701
000130 2c 56 88 bd 13 e9 18 bd 86 25 ba 3c 9d 3a 08 bd
       -0.06657061 -0.037331652 0.02272297 -0.033259023
000140 6f 92 95 bb 47 18 f7 bc 78 d5 ac 3d 42 4c a4 3d
       -0.0045645754 -0.030162944 0.084391534 0.080223575
000150 9e 4c 82 3d c4 55 8e 3d 40 41 c7 3d 80 f6 ba 3d
       0.0636227 0.06949952 0.09729242 0.091290474
000160 e9 7e d6 bd 8e a7 f3 3d 4b ba f6 3d 11 1b 8a bd
       -0.10473425 0.11897193 0.12047251 -0.06743444
000170 5a 8f df bd 61 4d 60 bd 51 9c 05 3d 38 17 b3 bd
       -0.10916014 -0.054761294 0.032619778 -0.08744663
000180 87 16 52 3d 87 a8 9b bd af 87 ae 3c 8a 50 c7 bd
       0.051291015 -0.076005034 0.021304933 -0.097321585
000190 84 f5 01 3e 9c 99 38 3d 50 42 06 bd 62 27 73 bd
       0.12691313 0.04506837 -0.032778084 -0.05936373
0001a0 fe 8f 18 be 78 84 21 bc f4 9b d6 3d 91 22 b4 3d
       -0.14898679 -0.009858243 0.104789644 0.087956555
0001b0 92 1c c6 bd a9 e0 4d bd 7b 0d 3b 3d 80 f1 c2 3d
       -0.09673418 -0.05026308 0.045667153 0.09518719
0001c0 98 8d 3f bd 54 37 c9 bd 25 d7 99 bd a4 d8 ec bc
       -0.046765894 -0.09825006 -0.07511739 -0.028911896
0001d0 9e d2 2a bd 0b be 3d bd be 16 dd ba cb 6f e2 bd
       -0.041704766 -0.046323817 -0.001686774 -0.11056479
0001e0 ee 47 2a bc 5f e6 47 bd 02 cd a1 3d 58 15 f5 3d
       -0.010393126 -0.048803683 0.0790043 0.119669616
0001f0 5e 1d 7a bc 27 cc b1 3d 7e ae fd bd a9 3e 6c bd
       -0.015265791 0.08681517 -0.12386797 -0.057676945
000200 fc bb b8 bd 7a 75 1a bc ba 83 b2 bc f6 3a 0b 3c
       -0.0902023 -0.009427423 -0.021791328 0.008497944
000210 c5 89 d3 bc c4 c0 f2 3d d2 90 f2 3d 52 7e f7 3c
       -0.02582253 0.118531734 0.118440285 0.030211601
000220 31 10 09 be 45 bb 06 3e 2f 22 5f 3c b8 95 c8 bc
       -0.13385083 0.13157375 0.01361899 -0.024485454
000230 e0 73 84 3d ef 95 ce 3d f8 9d 88 3d 33 29 e7 3d
       0.06467414 0.10087191 0.06670755 0.11287155
000240 21 cd 11 bc ad 5e 70 bb 8e 80 9f 3d 7d 84 a7 3d
       -0.008899004 -0.0036677525 0.07788192 0.08179567
000250 dd cc 3f bd 83 2f ab 3d bc bc c3 bd 14 00 c9 3d
       -0.046826232 0.083586715 -0.095574826 0.09814468
000260 15 5a e8 3d 3f 3d 00 be f2 7d 09 3d ef 02 90 bd
       0.11345307 -0.12523364 0.033567376 -0.070318095
000270 a6 59 dd 3d 81 a9 4f bd 16 0f 1c 3d d4 58 6e bc
       0.10808115 -0.05069876 0.038100325 -0.014547545
000280 9e 9b 9b bd e1 db f5 bd ee 42 f9 3d 4f 41 0c 3e
       -0.07598041 -0.12004829 0.12170969 0.13696788
000290 d4 33 1c 3e d6 3b d6 bd ea dc 0c bd 26 dc 8e 3b
       0.15254146 -0.104606315 -0.034390368 0.00435974
0002a0 c5 b9 94 bd 9b ab c5 3d 74 3d e6 bc 5b b7 24 bd
       -0.07261995 0.09651872 -0.028105475 -0.040213924
0002b0 30 c7 97 ba 5d 1d 07 3e e3 31 a6 bd 7c f9 02 3e
       -0.0011579748 0.13194795 -0.08114984 0.12790483
0002c0 1e 87 13 bc cb 8c e3 bd fe b7 85 3d 94 98 ed 3c
       -0.009004382 -0.111108385 0.06529234 0.029003419
0002d0 f4 e8 1d 3e dc 38 df 3d 1f 3b c8 3d 28 1d 58 3d
       0.15420896 0.10899517 0.097769015 0.05276218
0002e0 af c2 15 3c b9 d7 03 be 89 8d 60 3d ed 99 71 3d
       0.0091406545 -0.1287526 0.05482248 0.058984686
0002f0 ab a1 18 3e 93 d2 c1 3a cb 0b 2e 3d ea f4 5f bd
       0.14905421 0.0014787487 0.042491715 -0.054676928
000300 42 7b 90 bd 64 b4 5f bd d8 be 4c bc a4 a3 fa 3d
       -0.070547596 -0.054615393 -0.012496673 0.12238243
000310 7f fe 7c bd 2b 9a c1 3c 35 69 9e 3d e5 f3 05 3e
       -0.061766144 0.023633083 0.077349104 0.1308132
000320 da ba 88 bd c4 e7 fb bd c5 79 a1 3d cf f1 4a bd
       -0.06676264 -0.12300065 0.07884554 -0.049547013
000330 b9 21 c8 ba 07 83 4b bd 23 cd b4 bd e4 ee 91 3c
       -0.0015268839 -0.049685504 -0.08828189 0.017814107
000340 cb 2d 06 be 55 7d 22 bc 5b 15 c1 3d 64 66 ea bd
       -0.13103406 -0.009917577 0.09427901 -0.11445311
000350 3e b0 15 bd e3 22 82 39 73 01 bf 3d 9b f7 b4 bd
       -0.03654503 0.00024821525 0.09326448 -0.088362895
000360 4c d0 91 3c 6e f9 ff 3d 2b ac 83 3d 38 44 8b bb
       0.017799519 0.12498747 0.06429323 -0.0042500757
000370 99 37 df 3d 03 05 00 3e b8 cf 1b be cb dd 88 3d
       0.10899276 0.12501912 -0.15215957 0.06682929
000380 ee e9 df bd 04 89 9e bc 59 7b 03 be 5a 52 01 be
       -0.109332904 -0.019352444 -0.12840022 -0.12629071
000390 55 25 01 3d c6 87 d7 bd 04 79 72 3c 0c 84 bc bb
       0.031529743 -0.105239436 0.01479936 -0.005753046
0003a0 80 84 1c be 0d 34 5f bd ff c2 6d bd 40 9f fa bd
       -0.1528492 -0.054493 -0.05804729 -0.12237406
0003b0 2f 11 19 3d 12 bc 4f 3d 80 5c dc bd 23 1a 27 bd
       0.037369903 0.050716467 -0.107598305 -0.04079641
0003c0 1b 39 f2 bd 32 d4 8c 3d 2a 3e 08 be ed 5e c6 bd
       -0.11827298 0.068764105 -0.13304964 -0.096860744
0003d0 f6 be 1b 3d 82 28 e9 bd 63 6e 01 3e 00 10 13 3e
       0.03802391 -0.113846794 0.12639765 0.14361572
0003e0 f6 f2 03 3d ef cb 1a bd 61 90 e9 bc 73 a5 d0 bd
       0.032214127 -0.037792142 -0.028511228 -0.10187807
0003f0 81 c1 01 bd c7 55 f7 3d 1d 50 88 bd 18 14 dd bc
       -0.03167868 0.120769076 -0.066559054 -0.02698712

module.0.module.network.2.bias f4 [24]
000000 0d 54 14 3e 86 64 f4 3d 72 8a c3 3d df 5e 7e 3c
       0.14485188 0.11933236 0.09547891 0.015525549
000010 2b 21 d9 3d 87 48 08 be bd 12 db 3d c8 03 85 3d
       0.106020294 -0.13308917 0.106969334 0.06494862
000020 55 6b 85 3c f7 62 07 be dc 6c b3 3d 3a 8c bb bc
       0.016286531 -0.13221346 0.08760998 -0.022894014
000030 79 75 11 be 3d fa 90 bd ed e4 09 3d 4a b0 c1 3c
       -0.14204969 -0.07078979 0.033665586 0.023643631
000040 71 7a 12 be 21 f6 a0 bd db ca c9 3d 1c 4f 10 3d
       -0.1430452 -0.07859445 0.09853145 0.035231695
000050 27 3b de 3c b8 5a 0c 3d 2c 29 49 bd 45 57 c8 bd
       0.027127815 0.034266204 -0.04911153 -0.0978227

module.0.module.network.4.weight f4 [3, 24]
000000 6c 57 1f 3d 10 49 ea 3c cb 32 08 3e b7 8e 03 3d
       0.03890173 0.028599292 0.13300626 0.032118525
000010 0a 84 ca 3d cd cf 3f 3c 1c 97 b6 3d f3 33 8d bd
       0.09888466 0.011707258 0.089155406 -0.06894674
000020 f4 e9 12 3e 76 37 1a be 5d 0d d7 bd fe 18 7b 3c
       0.14347059 -0.15060219 -0.10500596 0.015325783
000030 29 8c 2c bc 99 12 0b 3e 83 d4 ba bd cc 26 3a be
       -0.010531464 0.13581313 -0.09122565 -0.18178862
000040 8a a2 f1 bd 55 23 a7 3d 5b a5 c5 3d 27 1b dd bd
       -0.1179858 0.08161036 0.0965068 -0.107961945
000050 da 8c 39 be b6 af 3e be 16 30 57 3e c1 e6 28 3e
       -0.18120137 -0.18621716 0.21014437 0.16494276
000060 77 60 2a 3e aa 81 3c be 4d 01 ee bd 6a e6 6c 3d
       0.16638361 -0.18408838 -0.11621342 0.057836927
000070 53 d5 07 be d8 17 a5 3d 08 25 56 bd 61 14 96 3d
       -0.1326497 0.080611885 -0.05228141 0.07328106
000080 a5 6d bf bc 1b e4 0f be 22 93 5c 3e 4c e3 61 bb
       -0.023367712 -0.14051859 0.21540502 -0.0034467755
000090 27 8b 50 be 12 1e 8f bd f0 34 4e 3e 24 46 46 3e
       -0.20365582 -0.06988157 0.20137382 0.19362694
0000a0 93 81 34 be 43 74 bd bd 26 00 ba bd 6a eb e0 3d
       -0.17627554 -0.09250691 -0.090820596 0.10982402
0000b0 20 cd 29 bd 42 9d c4 bd 83 f3 63 bd 28 c0 0a be
       -0.041455388 -0.09600307 -0.055652153 -0.13549864
0000c0 cb 8e b9 3d 72 4b 0b be fc 05 d3 3c 32 a1 07 be
       0.09060439 -0.13602999 0.02575969 -0.13245085
0000d0 a8 5c 2a 3e 23 42 3f be cc 79 4e 3d b1 76 0b 3e
       0.16636908 -0.18677573 0.050409123 0.13619496
0000e0 e2 10 ce bc 7c e7 41 3e 4a 0d d3 bd b1 d5 cc bc
       -0.025154535 0.1893596 -0.10305269 -0.02500424
0000f0 37 06 02 be 58 04 07 3c 01 fa cc 3c 0b a8 6b 3c
       -0.12697683 0.008240782 0.025021555 0.014383326
000100 78 37 2b 3d 04 77 59 be 93 24 1f be 9d 8d fd 3d
       0.041800946 -0.21236807 -0.15541296 0.12380526
000110 ac 22 14 3d 35 d5 12 be f4 6f ab 3c df 75 0e be
       0.03616588 -0.14339145 0.020927407 -0.13912152

module.0.module.network.4.bias f4 [3]
000000 4b 85 e6 3a b5 dd 17 3e ac 7b 02 be
       0.0017587332 0.14830668 -0.1274249

module.0.weight f4 [48, 9]
000000 d6 75 14 3d 86 f4 1f 3e 02 0b 68 be 9b d5 a7 3d
       0.03624519 0.15620622 -0.22660449 0.08195039
000010 fb 02 23 3e 94 eb f2 3d 0e 04 7a bb 47 0e b3 3a
       0.15919106 0.11861339 -0.003814939 0.0013660871
000020 67 0f 50 b9 61 f8 19 3c b8 8b 88 3d 0d f3 c8 3b
       -0.00019842164 0.009397597 0.06667274 0.0061324895
000030 bc 14 0c 3e 2c a0 63 bd de 29 67 3c c1 3f fe bc
       0.13679785 -0.055572674 0.014109103 -0.03103626
000040 ac de 47 3e 1c 15 32 be 2e 72 60 3e 8d 1d 3a 3c
       0.19518536 -0.17390865 0.21918556 0.0113595845
000050 b3 5e 44 bd 4f 04 a3 bd 62 7b 4b 3e 6b 43 84 3e
       -0.047941875 -0.07959806 0.19871286 0.25832686
000060 ef 39 1c 3b 15 25 f8 3d f6 88 d8 bc d6 58 61 be
       0.0023838242 0.12116448 -0.026432496 -0.22006544
000070 79 a5 1e 3e fc ef 81 be b4 55 24 bc 24 7d b4 3b
       0.1549281 -0.25378406 -0.010030199 0.005508082
000080 36 09 78 bc 06 9e 7e 3e 44 41 04 be 47 7f 4f 3e
       -0.015138915 0.24864969 -0.12915522 0.20263396
000090 1b a4 50 3e 42 0e 44 be 7e 62 97 bd 74 79 5d 3c
       0.20375101 -0.19146064 -0.07391833 0.013517726
0000a0 b3 7e dc bd 43 6d 32 be e4 63 6b 3d 76 da 1e 3d
       -0.107663535 -0.17424493 0.05746831 0.03878256
0000b0 d0 4a 8f 39 4e 86 c1 3d 8a 8e 91 3c 4b 45 65 bc
       0.00027330825 0.09449445 0.017768163 -0.0139935715
0000c0 22 8a 26 3e 6e 64 2c 3c 1d ab 83 bb 80 28 68 be
       0.16263631 0.010521991 -0.004018201 -0.226717
0000d0 57 36 35 bb 85 92 82 3e e5 8e cb bd 98 b6 e2 bc
       -0.0027650797 0.2550241 -0.09939364 -0.027674958
0000e0 07 71 19 bc 2c aa 68 be 7f f3 85 3d dc 23 17 3d
       -0.009365327 -0.22721165 0.06540584 0.036899433
0000f0 5e e2 2c be ae 83 2c 3e f7 48 8a bb cd 30 21 bd
       -0.16883227 0.16847107 -0.004220124 -0.03935318
000100 f0 ac 09 3d 2c a7 8c bd e6 1b 00 bd 16 28 85 bd
       0.03361219 -0.06867823 -0.031276606 -0.065017864
000110 18 09 75 b7 19 a3 5a bd 17 d7 6f 3e db 5c a7 3d
       -1.4605255e-05 -0.0533782 0.23421894 0.08172008
000120 f6 88 31 3d cc ae f7 ba 55 d1 3e bc 08 f5 8a bc
       0.043343507 -0.0018896698 -0.011646588 -0.016962543
000130 dd 23 c7 3d 7a ac 82 bc 61 3d 27 be 64 11 ac bd
       0.09723637 -0.015951384 -0.16332008 -0.084017545
000140 91 22 86 3b e2 53 59 3e 99 86 68 3e d6 8e 56 be
       0.004093476 0.21223405 0.22707595 -0.20952925
000150 72 82 9f bc dd 87 11 be cb 84 16 be 17 9f f6 3d
       -0.01947138 -0.14211984 -0.14699094 0.12042063
000160 37 e2 42 be 3c 12 7c 3e 86 9e 17 be aa f3 8d bc
       -0.19031607 0.24616331 -0.14806566 -0.017328102
000170 81 76 a6 3d 70 19 81 3d 15 bf 21 3e ab 0c 01 3b
       0.081280716 0.0630368 0.15795548 0.0019691389
000180 02 0e 25 3b 2d 22 48 be 41 7a 63 3d a0 11 e4 bd
       0.0025185351 -0.19544287 0.055536512 -0.11136174
000190 c7 1b 25 be e1 cd 19 be 2d a7 b3 bc b0 19 50 3e
       -0.16123877 -0.15019943 -0.021930302 0.20322299
0001a0 57 76 43 be 7b 2f 8a ba 9b ce 63 3e d5 4c 93 bd
       -0.19088112 -0.0010542715 0.22246782 -0.07192389
0001b0 bc b1 13 3e 30 17 5a 3e 29 91 9d 3c 01 12 6b 3d
       0.14423269 0.21297908 0.019234257 0.057390217
0001c0 00 10 5e 3e 3e 55 35 bd 14 67 4d 3a b2 f1 26 3e
       0.21685791 -0.044270746 0.0007835489 0.16303137
0001d0 4c 59 de 3d 9e ba 3a bb ca 90 df bd e9 6e 14 be
       0.10856876 -0.002849258 -0.10916288 -0.14495434
0001e0 b9 56 94 bc fb ff 4e bb a6 d5 42 be 8f 52 1b 3e
       -0.018107759 -0.0031585682 -0.19026813 0.15168212
0001f0 30 65 6c b9 cf 8d 6e be 49 fe 10 be fd eb a8 3d
       -0.00022544409 -0.23296283 -0.14159502 0.08248136
000200 bb 06 9d bd c2 7d f5 bd 3b 35 0a 3d 71 9f 6d 3d
       -0.07667299 -0.11986877 0.03374217 0.058013383
000210 f0 6d 0c 3e 60 11 7f bc 33 3a a2 ba 5b a5 5f 3c
       0.13713813 -0.015568107 -0.0012376964 0.013650264
000220 c0 d1 63 be 20 b7 39 bd ba 99 25 be 7f 23 04 3e
       -0.22247982 -0.045340657 -0.16171923 0.12904166
000230 ef 40 7a 3e 82 93 4d bb 05 ee e2 3d 6a 0d f6 bd
       0.24438833 -0.003136844 0.11080555 -0.12014277
000240 ad ff be bc e8 13 48 3e 3a 88 35 3b e0 47 12 be
       -0.023315275 0.19538844 0.0027699606 -0.1428523
000250 47 9b ca 3d 86 31 26 be 2c 0b ef bd 9d 8f 27 be
       0.09892898 -0.16229829 -0.11672053 -0.16363378
000260 a6 85 01 3e 74 5e 79 bd 0f d6 44 3d 9e 75 19 bd
       0.12648639 -0.060881093 0.048055705 -0.037465684
000270 e4 a9 c8 3c 04 f9 33 3c a6 2a 5e 3e 62 68 85 bc
       0.024495073 0.010984663 0.21695957 -0.016285125
000280 57 6a 73 3e ba 77 47 3d 15 1f 2f 3d 1d 16 a6 3d
       0.23771034 0.048698165 0.04275425 0.081096865
000290 0a 40 ca 3d 56 52 29 be cf ac d9 3d 82 8c 81 be
       0.09875496 -0.16535315 0.10628664 -0.2530251
0002a0 18 6f 3d be 82 24 3b be 5d c0 e6 3d 9a 51 ba bb
       -0.1849941 -0.18275645 0.11267159 -0.005685997
0002b0 91 a4 9a bc e4 44 7f 3e ac f9 4a 3e 51 b7 15 3d
       -0.0188773 0.24928623 0.19821805 0.036551777
0002c0 46 30 f4 3a d6 13 c4 bd ee dd 00 bc c9 42 80 3d
       0.0018630109 -0.09574096 -0.007865412 0.06262738
0002d0 9a e8 3e 3e 42 a6 2f 3b 81 1a 81 be 74 b4 d2 39
       0.18643418 0.0026801978 -0.25215533 0.0004018877
0002e0 2b 1f 03 be 8e 73 84 be 6c a3 6e 3e 1b 91 c2 3c
       -0.12804858 -0.2586941 0.23304528 0.023750832
0002f0 09 81 eb 3c e6 0a 65 bd 40 ae 65 3e ca b4 5a bd
       0.028748052 -0.055918597 0.22429752 -0.05339507
000300 89 f0 5a bd 6a e0 34 3e 65 f8 96 bb d3 68 0f bd
       -0.05345205 0.17663732 -0.0046072477 -0.035012078
000310 be 38 09 ba 93 33 6c be eb cc 75 3e 53 ee 9e 3d
       -0.00052345905 -0.23066549 0.24003951 0.077603005
000320 c6 ce 06 3e d5 30 51 3e 9d af 07 3e 47 d7 64 be
       0.13164815 0.20428784 0.13250585 -0.22347747
000330 f8 91 40 3d 58 f4 01 ba 75 33 c6 3d c9 20 7d be
       0.047014207 -0.00049573695 0.096777834 -0.24719538
000340 26 cf 75 3d 58 89 bb 3d a1 3c ae bd c9 47 ae bd
       0.060012005 0.091570556 -0.08507658 -0.08509786
000350 ab 81 28 be 0c 43 82 3d e3 b8 68 bc 0f 7c 92 3c
       -0.16455714 0.063604444 -0.014204237 0.017881421
000360 36 95 f1 3d b3 74 23 3b 85 31 49 3c 51 bd 61 bb
       0.11796038 0.0024941384 0.012279873 -0.0034445117
000370 52 52 2d 3a c9 b6 6f 3e 06 df e4 3d 0f 9e 3c 3e
       0.0006611693 0.23409571 0.11175351 0.1841967
000380 c9 60 56 3e c8 82 71 be 8b 46 df bd 71 1b 66 be
       0.20935358 -0.23585045 -0.10902127 -0.22471406
000390 10 fb 47 3e c4 96 45 3e 4e eb 4a be 98 a9 7d 3a
       0.19529366 0.19295794 -0.19816324 0.00096764555
0003a0 5b 3f a2 3d 05 29 17 bd ca cc 81 be f9 f9 d9 3d
       0.0792224 -0.036904354 -0.25351554 0.106433816
0003b0 c6 fa fc bb 33 ba 83 3e 12 f0 68 3e c1 7c 2e be
       -0.007720324 0.25727996 0.2274783 -0.17039777
0003c0 c9 29 4b 3e 19 d2 b2 bd a0 fb 0b 3e f9 65 ad 3d
       0.19840159 -0.08731479 0.13670206 0.08466715
0003d0 e5 a9 c3 bd f2 32 20 3e d9 bc 8d bb ec 8c 83 be
       -0.09553889 0.15644434 -0.004325491 -0.25693452
0003e0 a7 d8 c7 3b a2 0f cf b8 9d 4c 85 bd 82 55 81 3d
       0.006098825 -9.873441e-05 -0.065087534 0.063151374
0003f0 e2 03 1c be d7 8a 15 be 85 82 64 3e 9e 6a a0 3b
       -0.15235856 -0.14603744 0.22315414 0.0048955223

module.0.bias f4 [48]
000000 f4 63 10 3e b8 c9 7a bb 4f 15 7f bd a8 00 d3 3b
       0.14100629 -0.0038267206 -0.06227618 0.006439287
000010 75 5e 5d be 6e 6d 21 3c bf da 0a be f9 97 ad 3d
       -0.21618064 0.00985275 -0.13560008 0.08476252
000020 58 a0 8b 3d 58 a1 92 3c a5 cc ab 3d 5d 2f 42 be
       0.068176925 0.0178992 0.08388642 -0.1896338
000030 08 f8 b6 bd c1 f0 11 be 4f 2d 37 be 1f 56 49 3e
       -0.08934027 -0.14251997 -0.17888378 0.19661759
000040 ec 74 27 be 1d cc 41 bd ef d6 9a bb 5d 68 c7 bc
       -0.16353196 -0.0473138 -0.004725329 -0.024341756
000050 b5 cb 75 be b0 63 05 3e db 76 20 bd 7d 0b 76 bd
       -0.2400349 0.13026309 -0.03917585 -0.06006955
000060 d8 f1 08 bd 70 30 3d 3e 3f 5e 22 3d df ca 0a be
       -0.033433765 0.18475509 0.03964066 -0.13553952
000070 1d 46 8d bc 3a e8 8c bd 93 b4 64 3d c7 84 6c 3d
       -0.017245347 -0.06880231 0.05583627 0.057743814
000080 0a a6 15 3e 70 b6 22 3d 61 92 88 3e 1a bb 47 be
       0.1461412 0.039724767 0.26674178 -0.19504967
000090 ea 41 48 3e ef 86 bd bc 05 39 0d 3b c3 a0 73 3e
       0.19556394 -0.02313563 0.002154888 0.23791794
0000a0 ae 8a a2 bd 73 6e 3d 3e a1 fd 81 3e f3 74 96 bd
       -0.07936607 0.18499164 0.25388816 -0.07346525
0000b0 87 4d e7 3d dc b6 38 3c 4f 7a fd bc 0b 98 e7 ba
       0.11294084 0.011274066 -0.03094211 -0.0017669214

module.2.weight f4 [24, 48]
000000 14 38 47 bb 60 4d 1a 3d ad 71 f1 39 38 14 18 bb
       -0.0030398415 0.037671447 0.00046051797 -0.002320541
000010 4c 9f 9c ba 2c 4a 2a 3d 26 4e 99 3d db 21 8e 3a
       -0.001194933 0.041574642 0.07485609 0.001084383
000020 71 e6 3b bd 90 16 f9 3c 54 0f 63 bb 22 63 8f bd
       -0.045874063 0.030406266 -0.0034646587 -0.0700133
000030 86 d5 54 bb c8 9c bf 3c 56 15 b1 b9 b5 a5 82 3c
       -0.0032475903 0.023390189 -0.00033775967 0.015948156
000040 a1 36 4c bd 92 1e de ba 64 a8 66 bd a8 87 82 3d
       -0.049856786 -0.0016946367 -0.056312934 0.063735306
000050 fc e1 40 3b 37 9b 52 bc 96 91 08 bc 49 19 28 3d
       0.0029431572 -0.012854389 -0.008335492 0.04103974
000060 26 f0 6b bd bb b0 5d ba 1c 26 00 bd 38 c6 62 bd
       -0.05760207 -0.0008456816 -0.031286344 -0.055364817
000070 c8 9f de 3b 49 18 2a 3d 03 21 9d 3c 7c 97 63 3c
       0.0067939498 0.041527066 0.01918078 0.013891097
000080 12 05 b9 ba a4 75 2e 39 46 6f 81 bd 81 e6 6d 3b
       -0.0014115891 0.00016637758 -0.06320052 0.003630072
000090 fd ac 3d b9 f5 9a f0 bc df 8f f2 bc 93 d0 11 3d
       -0.00018088888 -0.029370764 -0.029609619 0.035599303
0000a0 21 67 07 3b 75 41 dc 3b e6 5f 8d bc f8 c0 a3 3a
       0.0020660835 0.0067216703 -0.017257642 0.0012493422
0000b0 7e f7 18 3d 7c 09 8a 3d 88 92 db ba 79 67 46 bd
       0.037345402 0.0674009 -0.0016752044 -0.048438523
0000c0 d9 b7 7a bd b9 6b 1b bd 15 5b 52 bd 22 be cf bc
       -0.061210487 -0.03794453 -0.051356394 -0.025359217
0000d0 ae 25 fc bc d7 b4 94 3d c8 7f 82 3c ca 61 8a b9
       -0.030779686 0.07261055 0.015930071 -0.0002639427
0000e0 b2 cb 0b 3d 05 0c 46 bd a0 94 ea 3c af d0 01 3c
       0.034129806 -0.048351306 0.028635323 0.007923289
0000f0 58 ba 97 3d 91 02 31 bd d0 fb 6b b9 be 39 b6 3c
       0.07408589 -0.04321534 -0.00022505154 0.02224433
000100 6e 32 69 3b 56 37 a9 3d b9 08 ba 3c 59 a7 b9 bb
       0.0035583037 0.082625076 0.022709237 -0.0056657013
000110 ff 70 b8 bd a0 53 c0 3b 10 3b ba 3b 18 3e c8 3a
       -0.09005927 0.005869344 0.0056833103 0.0015277294
000120 1e fd 2b bd 41 10 21 bd a8 40 fd bc a6 95 06 3d
       -0.04198944 -0.03932214 -0.03091462 0.03285756
000130 05 62 46 bd c5 2d e3 3c a5 e8 6d 3c aa cd fd 3c
       -0.048433322 0.027731786 0.014520799 0.030981857
000140 5f 19 28 bd cc 71 8d 3c 43 ec 8b bc 88 7d 87 3c
       -0.04103982 0.017266177 -0.017080432 0.01653935
000150 13 90 1e bd 52 63 af bb 11 6a 6d 3d 93 29 55 3d
       -0.03871162 -0.005352416 0.05796248 0.0520416
000160 6d 2b 9f 3c 62 f3 4d bd c9 35 5c 3d 59 77 68 bc
       0.019429887 -0.050280936 0.05376223 -0.014188611
000170 1a fa 72 3d 6d 49 65 3b 53 26 b2 bd b8 82 2c 3c
       0.059320547 0.0034986392 -0.08698716 0.010529213
000180 cb 2d 76 3b 30 75 18 bd 2e 09 10 bd 58 80 96 bc
       0.0037563916 -0.037221134 -0.035165004 -0.018371746
000190 2a 2b ba 3d b9 bd 2a 3c 2c ba 70 bd a7 de d8 bc
       0.09090264 0.01042121 -0.058771297 -0.026473356
0001a0 ae 08 59 3d 6f fa be bc c1 25 cd bc d2 0b 73 3d
       0.052986793 -0.023312775 -0.025042417 0.059337445
0001b0 9b a5 81 3d 7d 86 c5 ba 38 5e 92 3c 98 be c5 bc
       0.06330415 -0.0015069988 0.017867193 -0.024138734
0001c0 37 1b d6 bc 31 03 5f 3c b6 f8 fd 3c 05 ce b1 3d
       -0.026136024 0.013611601 0.031002384 0.08681873
0001d0 98 71 8e 3d 4b fc 0e 3d d2 e2 6e 3d 90 78 ba 3d
       0.0695526 0.034908574 0.05832178 0.09105027
0001e0 c9 04 21 bc 8a d9 99 3c c7 fd 8d bd 07 38 a9 bc
       -0.009827801 0.018780489 -0.0693317 -0.020656599
0001f0 c0 43 6d bb fa cd 61 bd 07 b7 72 3d fd 62 e5 bb
       -0.0036203712 -0.055128075 0.05925658 -0.0070003257
000200 c6 67 41 bd 61 42 94 bd b8 6a 9b bd b1 7c 3f 3d
       -0.047218107 -0.07239223 -0.07588714 0.046749774
000210 97 42 c1 3d 7d 05 e1 bc 98 a6 a6 bd bb 8e 83 bd
       0.09436529 -0.027468437 -0.08137244 -0.06423708
000220 c2 d6 c1 3d bb c2 62 bb e7 02 63 3d dc d1 a8 3d
       0.0946479 -0.0034600932 0.05542269 0.082431525
000230 74 fd a3 bd 4a fe be 3d f1 cf 75 bd 76 3e d0 3d
       -0.08007327 0.093258455 -0.06001276 0.101681635
000240 2d eb 4a bd 64 6d 71 39 9f e9 a3 3d 07 82 8d 3d
       -0.049540687 0.00023024302 0.08003544 0.069095664
000250 8a 8c 98 3c 08 58 93 bd 07 23 ed 3c af 0c d8 ba
       0.018621702 -0.07194525 0.028947366 -0.0016483272
000260 40 4f a7 bc be 21 8d bd c9 f2 c7 3b 00 8f e7 bc
       -0.020423532 -0.068912014 0.0061019403 -0.02826643
000270 61 ca 21 3b b6 e0 b2 ba e2 91 38 bd 3d f4 fd 3c
       0.0024687278 -0.0013647291 -0.045061 0.031000251
000280 a9 e6 6c bd 24 08 97 bd b9 b9 4b bb 66 1b 99 3d
       -0.057837162 -0.073745996 -0.003108604 0.07475929
000290 bb 91 e9 ba 8c ef cf 3c 7c e4 0b b8 9e cc 94 ba
       -0.001781992 0.02538278 -3.3352975e-05 -0.0011352485
0002a0 98 d5 00 3b e6 05 5d 3c 3e 54 6d bb 4d fb 0a bb
       0.0019658562 0.013490176 -0.0036213542 -0.0021206916
0002b0 1f 62 19 bc de 3d 2a ba 26 4c 69 bd 5c 67 26 3a
       -0.009361773 -0.0006494204 -0.056957386 0.0006347799
0002c0 7b 6c b2 bc e9 c3 69 3c 36 c8 8f 3d ce b9 89 bd
       -0.021780243 0.0142679 0.07020609 -0.067248926
0002d0 74 70 13 bc e9 8a a4 3c a3 1a 39 3d 80 d9 89 3b
       -0.008998979 0.020085769 0.04519142 0.004206836
0002e0 e8 40 6f bc 47 cc 82 3c 25 b4 85 bb 97 06 e3 bc
       -0.014602877 0.015966548 -0.004080313 -0.027713103
0002f0 ef 8a 96 3d 38 97 86 bd 00 8d 4a 3b 8f a7 82 3b
       0.07350718 -0.065718114 0.0030906796 0.0039872597
000300 6a 57 90 bd c3 ca 4a bb 85 47 a8 3d da fc 6a bc
       -0.07047923 -0.003094361 0.08216766 -0.014342511
000310 c9 bc c0 3c 89 98 e2 3c b5 f5 0c 3d 4f 33 6a bc
       0.02352752 0.027660625 0.034414012 -0.0142944595
000320 be e7 5d bd 5c 98 a8 3d 6d 0d be 3a cf a9 1d 3d
       -0.054176085 0.08232185 0.0014499851 0.03849202
000330 3e d4 93 3d 29 70 3a 3a 65 72 d9 3a 8b 7f a9 bd
       0.07218216 0.000711205 0.0016589878 -0.0827628
000340 93 cf 88 bc 34 86 4c 3d 28 17 98 3d e3 13 4b 3d
       -0.016700542 0.049932674 0.07426292 0.049579512
000350 a0 a8 da bc 73 cf 0e 3d 8e 82 77 39 ea a1 85 bd
       -0.026691735 0.034865808 0.00023604391 -0.06525023
000360 21 4c 53 3d 8d e6 71 3d 3b a0 61 bd 54 36 67 bd
       0.051586274 0.05905776 -0.05508445 -0.056448296
000370 c1 22 dd bb 76 99 c4 3c f4 68 8e 3d f8 1f fc 3b
       -0.0067485278 0.023998957 0.06953612 0.0076942407
000380 e6 09 e2 3b cd 44 22 bc 94 2c 07 bd da 1f 6a bb
       0.0068981526 -0.009904099 -0.033001497 -0.0035724551
000390 bb 3f b5 3c bc 1e a7 bb 23 0b 65 bb 0a 01 9b 3d
       0.022125116 -0.0051000994 -0.0034949265 0.075685576
0003a0 f2 e9 84 bd 6e 89 9e 3d 5b 05 df 3c 60 40 b3 3b
       -0.06489934 0.077410564 0.027224233 0.0054703206
0003b0 ab 20 ad 3d 78 d1 d4 3c ea 75 0e bd 00 f6 5c bd
       0.084534965 0.025978789 -0.03478042 -0.05394554
0003c0 92 27 94 3d 19 41 82 bd be a4 a2 3d 06 af 52 bb
       0.0723411 -0.06360073 0.07941578 -0.003214778
0003d0 3e 88 99 bd 0c 22 d7 ba fe 5f f1 bc 39 3b 7e 3b
       -0.07496689 -0.0016413345 -0.029464718 0.0038792624
0003e0 d2 c2 fb 3c a6 c1 8d bc 82 1b 48 bd 00 13 bd 3c
       0.030732546 -0.017304253 -0.04885436 0.023080349
0003f0 35 d9 48 bd 8e 94 81 bb 98 2a c6 bb f1 a0 92 3d
       -0.04903527 -0.0039544767 -0.006047558 0.071596034

module.2.bias f4 [24]
000000 ef 23 d7 ba 54 03 17 3c 4f 90 af 3d 98 a9 27 bb
       -0.0016413907 0.009217102 0.085724466 -0.0025583263
000010 ae 4c 76 bd fd 0c 0c 3d 48 a9 38 3d 22 35 b4 bb
       -0.06013172 0.034192074 0.045083314 -0.005499498
000020 66 1e 06 bd a3 d5 44 bb 91 7d bc 3d 18 a3 0c bd
       -0.032743834 -0.0030034564 0.092036374 -0.034335226
000030 f4 65 9c 3c e5 74 c4 3a 82 4b c7 ba 92 84 57 bc
       0.019091584 0.001498845 -0.0015204998 -0.013154166
000040 17 fd fc 3a e2 5e cf 3c 37 41 17 bc f1 a9 58 bc
       0.0019301501 0.025313798 -0.009231857 -0.013224111
000050 43 e4 07 3d e0 8e 22 bd 65 72 86 ba a9 03 2a 3d
       0.03317667 -0.039687037 -0.0010257481 0.041507397

module.4.weight f4 [12, 24]
000000 77 8d cd bd 00 19 10 be 4f c3 be bd 62 65 c2 3d
       -0.10036748 -0.14072037 -0.09314596 0.094919935
000010 e5 2e c2 bc 84 6d 89 bc 41 6a 03 be 44 f7 00 be
       -0.023704002 -0.016775854 -0.12833501 -0.12594324
000020 d6 1c 82 bc b0 a1 dc 3c 62 56 f3 3d ff 0b 1b 3c
       -0.01588289 0.026932567 0.118817106 0.009463309
000030 c6 ab fa ba a7 e0 12 be d6 d8 77 3d 40 7f cc 3c
       -0.0019124679 -0.1434351 0.060509525 0.024963021
000040 5b b7 e3 3d 04 d8 0b 3e cf fe b7 bd 6d c1 f0 3d
       0.11118957 0.13656622 -0.08984148 0.11755643
000050 84 bf 96 bd 6c 34 4f 3d 17 bc 11 3e c7 42 56 bd
       -0.073607475 0.050587103 0.14231907 -0.052309778
000060 d4 7f 82 3d fb ad 44 3a 69 4a f4 b9 21 dd 85 3d
       0.063720375 0.0007502732 -0.00046594747 0.065363176
000070 26 1a ae 3c 42 33 fc bd 1b e6 31 3b cc 1c c5 3c
       0.021252703 -0.12314464 0.002714521 0.024061583
000080 76 ac c0 bd 27 f7 e5 3d 96 b5 05 3e 36 b9 73 3b
       -0.09407894 0.11228781 0.13057551 0.0037189252
000090 89 15 e5 3d b3 8e a8 bc 5c 1c 70 bd 3c e5 03 3e
       0.11185748 -0.020575857 -0.058620796 0.12880415
0000a0 42 48 f1 bd f3 19 fa 3d 44 be 12 bd f1 0a a1 3d
       -0.1178136 0.12211981 -0.035825983 0.07863415
0000b0 1c 2c df 3d 7f 21 dd 3d 1a ec e4 bd 50 4b 03 be
       0.10897085 0.107974045 -0.11177845 -0.12821698
0000c0 e3 82 a0 bc dd 81 87 bc 35 b4 50 bd 81 43 9b bd
       -0.019593662 -0.016541416 -0.05095311 -0.07581235
0000d0 5a 8c 86 3d 47 eb af 3d 76 a8 b6 bd 63 dd cd bd
       0.06569739 0.085897975 -0.0891885 -0.10051992
0000e0 f4 0f 1d 3d 9a 36 df 3c 7b df 3e 3d dd e0 cb 3d
       0.038345292 0.027247716 0.046599846 0.09954999
0000f0 4b 25 05 be 80 57 5b bb 13 e0 d9 bd d6 97 17 3e
       -0.13002507 -0.0033468902 -0.10638442 0.14804015
000100 ab 18 91 bc 9c 5e 24 3b ff a0 8b bd c6 28 91 bb
       -0.017711958 0.0025080806 -0.06817817 -0.0044299094
000110 45 49 95 bd 98 a8 08 bd 2c df 16 3d 23 bd 86 3c
       -0.07289366 -0.03336391 0.036833927 0.01644761
000120 2f 7f 30 bb dd fa 6d 3d aa 66 e4 3d 2b 75 2f 3d
       -0.0026931276 0.05810057 0.11152394 0.04283635
000130 16 03 82 3b 9e 25 7b bd 5a 9c a5 bc 67 ba 3b 3d
       0.003967653 -0.06131517 -0.020216156 0.045832064
000140 99 d6 00 b8 c8 15 63 bd 28 64 81 bd 47 f2 ef 3a
       -3.0717438e-05 -0.055440694 -0.063179314 0.0018306457
000150 16 d7 bb 3c 59 d1 39 bc c4 c5 8b bd 15 12 b7 3b
       0.02292971 -0.011341416 -0.0682483 0.0055868723
000160 e8 79 a2 3a 84 fe 95 39 a1 e5 fa bd db c1 c1 3d
       0.001239595 0.00028609124 -0.122508295 0.09460803
000170 20 95 4d 3b 34 22 a2 3c 65 19 0b bd 66 57 00 3b
       0.0031369403 0.0197917 -0.033959765 0.0019583344
000180 50 d3 5e 3d 67 bb cd bd 7d 15 0d 3d 87 6e c9 3d
       0.054400742 -0.1004551 0.03444432 0.098355345
000190 be b9 75 3d d8 1e 0f be f8 7f 1c 3d d4 a5 46 bd
       0.05999159 -0.1397661 0.038207978 -0.04849799
0001a0 e5 52 5f bb 19 ef f0 bd 9a 31 87 3d ac cb 46 bd
       -0.0034076509 -0.11764354 0.066012576 -0.04853408
0001b0 95 bf dc bd 3e 83 e8 3d a0 3e ed 3c 11 57 cd bc
       -0.10778729 0.113531575 0.028960526 -0.02506593
0001c0 b3 33 c0 3c be ac 87 3d 1d c8 06 be ef 54 00 3e
       0.023462152 0.06624745 -0.13162275 0.125324
0001d0 3d c0 8f 3d 1f 63 a3 3d 1c 64 9e bd ec be 93 3d
       0.070190884 0.0797789 -0.07733938 0.0721415
0001e0 17 0b 2a bd 35 0c 6d bd 71 5d c8 3d a4 3e 2f 3d
       -0.041514482 -0.05787297 0.097834475 0.042784348
0001f0 18 48 d9 3b 51 c1 93 3d 26 87 c6 bd 11 56 2c 3d
       0.0066309087 0.072146066 -0.09693746 0.042074267
000200 99 ed 90 3c 71 ee 56 bb 79 cf d0 3d cb 6d ed bd
       0.01769142 -0.003279593 0.10195822 -0.11593207
000210 94 20 f1 bd 94 19 88 bc 79 da 0e 3c f1 91 09 3e
       -0.11773792 -0.01661376 0.00871908 0.13434578
000220 1b 94 6c 3d 81 27 0c be ce 5c dd 3d 52 12 1d bd
       0.057758432 -0.13686945 0.10808717 -0.03834755
000230 f5 4f 77 bd 94 87 31 3c e9 1a 30 3d f8 03 c4 3d
       -0.060378987 0.010835547 0.042994414 0.095710695
000240 2e e5 27 bc de 4d 30 bd 32 14 da bd d3 6f f1 bd
       -0.010247512 -0.04304301 -0.10648383 -0.11788907
000250 8d c4 66 3d 1a 92 1b 3e a2 6e a8 bd 39 52 9e 3d
       0.05633979 0.15192452 -0.082242265 0.077305265
000260 1d a2 58 3d 6d 84 34 bc af 15 06 3e b5 83 56 3d
       0.05288898 -0.011017901 0.13094209 0.0523717
000270 55 19 6b 3d 58 c5 c5 3c bf 41 1b be 34 06 a7 bd
       0.057397205 0.024141952 -0.15161799 -0.0815548
000280 39 95 a9 3d 9a e5 88 bd f6 02 d9 3d a4 3d c6 bd
       0.08280415 -0.06684418 0.10596268 -0.09679726
000290 e0 4c ec bd 3b 1e 10 bd 8d 16 d6 bd c9 74 d6 bd
       -0.115381 -0.03518508 -0.1045352 -0.10471494
0002a0 16 4f d5 bd 00 f3 6c bc 75 1d 52 bd d8 f0 d4 b8
       -0.10415475 -0.014462233 -0.051297624 -0.000101538084
0002b0 7c 7a 02 3e 8f e1 06 3e 77 86 77 bd 45 e1 3a bd
       0.12742037 0.13171981 -0.06043097 -0.04562499
0002c0 c9 7c 62 39 8e a6 10 3c 1e 34 91 bd 2f fc a3 bd
       0.00021599526 0.008828772 -0.07090019 -0.080070846
0002d0 df 85 c0 bd 6b 5c b7 bd 0e c0 13 bd 6f 15 7b bd
       -0.09400534 -0.08953174 -0.03607183 -0.061299738
0002e0 57 0a b0 bc 33 82 9c 3b ca b6 8a 37 83 6a 02 3d
       -0.021489305 0.004776263 1.6536e-05 0.03183986
0002f0 8e 70 19 bd bc df 06 3b 1a 05 2d bd 72 7b 14 3d
       -0.037460856 0.0020580133 -0.042241193 0.03625054
000300 9a c6 f6 bd b5 70 09 be 9b 72 6d 39 65 0a bc bd
       -0.12049599 -0.134219 0.00022644775 -0.0918167
000310 8f a2 0f 3d 91 62 ed 3d 7a 28 9f 3d 53 88 0b 3e
       0.035067137 0.11591066 0.07771392 0.13626222
000320 8b e2 35 3d ac ca f0 bd ef 4a 19 3e 30 38 b4 bd
       0.0444055 -0.117574066 0.14969991 -0.087997794
000330 43 1c 07 3d a1 fc 80 bd 64 00 a1 bc 22 c6 33 3d
       0.032985937 -0.06298185 -0.019653507 0.043890126
000340 20 c7 dd 3d b7 9b 40 bc 7a 15 1b 3d ee b5 8c 3c
       0.10828996 -0.011755875 0.03786228 0.017176595
000350 ca df 83 bd 49 9a 30 3c d8 c5 a3 3d 52 2d 0d be
       -0.06439169 0.010778972 0.0799672 -0.1378682
000360 e4 6d 1d bd 46 cc 6b bd 39 12 34 bc 77 af 1e 3d
       -0.038434878 -0.057567857 -0.010990673 0.038741555
000370 98 d4 fe 3d 6d e9 09 3e 6b 89 29 3d 22 07 87 bd
       0.12442893 0.13467951 0.041390818 -0.06593157
000380 5b b8 21 3c cf 8c c0 3b 54 2f 5d 3d 5c 7e 2a bd
       0.009870614 0.0058761607 0.054000214 -0.041624412
000390 4c d5 18 3c 64 b6 97 3c 46 b1 f4 3d 23 be 1e 3c
       0.009328198 0.018519588 0.11947875 0.009688887
0003a0 29 89 13 bd 4c 86 0c bd 80 15 00 3e b5 48 e9 bc
       -0.036019478 -0.034307763 0.12508202 -0.028477052
0003b0 fd d8 b0 bd 88 92 9b 3c b5 e7 ab 3c d1 fe ea 3d
       -0.08635137 0.01899077 0.02098451 0.114743836
0003c0 b0 30 38 bc fd 88 35 bc 5d 73 b7 3d 63 6d 27 bd
       -0.011242077 -0.011080024 0.08957551 -0.040875804
0003d0 98 b8 56 bd 87 bd b1 3d 3c 25 a2 3b e2 15 cc bd
       -0.052422136 0.086787276 0.0049482863 -0.09965111
0003e0 ba d5 99 3d b2 ce 82 bd 79 a6 af 3c ee d8 c7 bc
       0.07511468 -0.0638708 0.021441685 -0.024395432
0003f0 4e de 02 bb 06 55 d8 3d 02 0c 9b bd 53 ed db bd
       -0.001996893 0.10563092 -0.0757065 -0.107386254

module.4.bias f4 [12]
000000 a4 df 38 bc 0e 6f 62 3c a2 cb 86 3d 81 b0 e6 bd
       -0.011283789 0.013820423 0.065818086 -0.11264134
000010 6f 0b d9 3d e9 d1 53 3d bc e4 19 bd 8a d4 b2 bd
       0.10597884 0.051713858 -0.037571654 -0.08731945
000020 fe 7d 05 3d 85 8b db 3c a3 08 03 3e e7 42 d5 bd
       0.03259086 0.026799927 0.12796263 -0.10413151

module.6.weight f4 [1, 12]
000000 c7 ef 2f 3e d1 12 97 bd 22 74 0d 3e c2 1f 2f bd
       0.17181312 -0.07376636 0.13813832 -0.042754896
000010 d1 ab 54 3e e1 c0 ac bd 14 f0 58 3e fb 60 d9 3c
       0.20768668 -0.08435226 0.21185333 0.026535502
000020 89 b8 3b be 58 ef 0b 3e 89 fc 01 3e db a1 77 3d
       -0.18332113 0.13665521 0.12693991 0.06045709

exp_avg f4 [48, 6]
000000 32 ce a3 b6 32 ce a3 b6 ff f3 44 35 14 a4 2d 37
       -4.881783e-06 -4.881783e-06 7.337075e-07 1.0349806e-05
000010 e8 4c 0a 37 c1 19 0c 37 d6 bc 2e 37 d6 bc 2e 37
       8.243347e-06 8.350647e-06 1.0415175e-05 1.0415175e-05
000020 9f 72 d4 b6 45 3f 21 b7 64 70 7d 36 98 0d 85 36
       -6.331436e-06 -9.611079e-06 3.7765358e-06 3.9652914e-06
000030 b2 93 a6 b7 b2 93 a6 b7 ef bc b1 37 82 ef 2a 37
       -1.9857518e-05 -1.9857518e-05 2.1188023e-05 1.0188554e-05
000040 fd 80 cd 36 2e a6 f7 36 09 e6 3d 37 09 e6 3d 37
       6.1244923e-06 7.3805195e-06 1.1318837e-05 1.1318837e-05
000050 e7 19 a2 b6 92 b2 37 b7 2e 39 1a b7 b7 9b 29 b7
       -4.8309917e-06 -1.0949227e-05 -9.1924285e-06 -1.010944e-05
000060 26 f0 2a 36 26 f0 2a 36 52 35 03 b5 bb 87 c4 b6
       2.5471759e-06 2.5471759e-06 -4.8878894e-07 -5.8570563e-06
000070 aa a2 58 35 cf 1e 3f 35 07 f3 3e b7 07 f3 3e b7
       8.070298e-07 7.1197877e-07 -1.1381467e-05 -1.1381467e-05
000080 1d d6 10 37 39 ef 5d 37 9d 9e 46 35 9f 1f a7 35
       8.632921e-06 1.3228325e-05 7.399156e-07 1.2451673e-06
000090 5a 32 ed 35 5a 32 ed 35 34 18 f3 36 00 84 34 b7
       1.767253e-06 1.767253e-06 7.244782e-06 -1.075957e-05
0000a0 d8 1a 24 b7 69 c9 25 b7 e9 f3 b9 35 e9 f3 b9 35
       -9.781412e-06 -9.881661e-06 1.3854561e-06 1.3854561e-06
0000b0 b8 bf 45 36 2c f1 26 b6 64 61 d0 36 b7 0b c9 36
       2.9466883e-06 -2.4876308e-06 6.210221e-06 5.9916306e-06
0000c0 a1 1e bf 36 a1 1e bf 36 fa cd 8f b7 0d 68 19 37
       5.6958093e-06 5.6958093e-06 -1.7142844e-05 9.143737e-06
0000d0 e3 75 86 37 84 f4 86 37 dc 8f f4 b6 dc 8f f4 b6
       1.602894e-05 1.6087906e-05 -7.288514e-06 -7.288514e-06
0000e0 ef ac 03 37 86 d0 3e 36 06 78 0f 37 34 37 13 37
       7.848473e-06 2.8433583e-06 8.551409e-06 8.774736e-06
0000f0 a5 c6 b7 b6 a5 c6 b7 b6 fe 8d 74 37 7d 54 93 b6
       -5.4769503e-06 -5.4769503e-06 1.45765935e-05 -4.390777e-06
000100 42 46 f6 37 af 16 fe 37 04 b8 0f 34 04 b8 0f 34
       2.9358202e-05 3.0289722e-05 1.3384857e-07 1.3384857e-07
000110 96 bd f2 35 1e e1 0e 34 f0 3d 12 37 f0 3d 12 37
       1.8085582e-06 1.3306678e-07 8.716699e-06 8.716699e-06
000120 d2 a7 64 b7 d2 a7 64 b7 98 e8 df 36 a3 18 83 37
       -1.3628933e-05 -1.3628933e-05 6.6729954e-06 1.562789e-05
000130 ba bd b7 35 96 73 00 36 05 6a f9 b7 05 6a f9 b7
       1.368978e-06 1.9140766e-06 -2.9732482e-05 -2.9732482e-05
000140 1b b9 af 37 ea 1b b9 37 d5 8c 94 b7 67 93 8f b7
       2.0947822e-05 2.2066717e-05 -1.7708555e-05 -1.7115568e-05
000150 99 9f 97 b7 99 9f 97 b7 5d 12 f0 35 de 82 db 37
       -1.8074921e-05 -1.8074921e-05 1.7886738e-06 2.6167774e-05
000160 d0 d8 7f 37 35 f3 87 37 f4 7a 21 37 f4 7a 21 37
       1.5249665e-05 1.6206506e-05 9.624975e-06 9.624975e-06
000170 63 81 29 36 c3 47 77 b7 68 11 a6 b4 c1 a3 5c b5
       2.5258275e-06 -1.4739056e-05 -3.0932574e-07 -8.219468e-07
000180 35 3f 7a b7 35 3f 7a b7 c3 39 51 37 bb 28 15 37
       -1.4915878e-05 -1.4915878e-05 1.24708195e-05 8.890575e-06
000190 ff 91 9d 36 ec bf 9e 36 aa 5e 86 36 aa 5e 86 36
       4.695961e-06 4.7311096e-06 4.0045315e-06 4.0045315e-06
0001a0 94 87 d7 b5 eb b4 12 b7 df e3 cf 34 45 a3 7a 34
       -1.6058207e-06 -8.744401e-06 3.8722553e-07 2.3342461e-07
0001b0 f2 03 cb b5 f2 03 cb b5 34 ce 89 b6 c0 ee ad 36
       -1.5125827e-06 -1.5125827e-06 -4.1069234e-06 5.183596e-06
0001c0 db 08 52 34 46 c7 7c 34 05 09 08 b6 05 09 08 b6
       1.9560996e-07 2.3541824e-07 -2.027083e-06 -2.027083e-06
0001d0 c8 01 96 b6 a6 c5 f7 36 29 7a ea 35 99 eb f7 35
       -4.4705557e-06 7.384183e-06 1.7469912e-06 1.8471502e-06
0001e0 a3 ec c5 36 a3 ec c5 36 b5 f6 1b b7 b0 66 2d 34
       5.8986057e-06 5.8986057e-06 -9.296161e-06 1.6149238e-07
0001f0 76 3f 23 38 e4 52 28 38 cb 66 74 b6 cb 66 74 b6
       3.892133e-05 4.013152e-05 -3.6418667e-06 -3.6418667e-06
000200 77 a4 e8 36 b1 7a 5f b6 09 33 9b b7 f3 83 9d b7
       6.933285e-06 -3.3301005e-06 -1.8501205e-05 -1.8777302e-05
000210 15 7e bb 37 15 7e bb 37 ae e7 af b7 c8 7d 72 b7
       2.2350849e-05 2.2350849e-05 -2.096951e-05 -1.445361e-05
000220 18 40 85 b7 25 84 8e b7 e7 51 0f 37 e7 51 0f 37
       -1.5884681e-05 -1.6989254e-05 8.542534e-06 8.542534e-06
000230 da 92 d8 36 9f 04 ad b7 71 68 0b 38 ed 20 0e 38
       6.4543974e-06 -2.0625359e-05 3.323745e-05 3.3886103e-05
000240 c3 91 89 36 c3 91 89 36 f8 83 6c 36 42 d1 88 b7
       4.099887e-06 4.099887e-06 3.5243556e-06 -1.6309907e-05
000250 c3 cd 34 b7 ac 43 35 b7 ee 6d d0 35 ee 6d d0 35
       -1.0776744e-05 -1.0804197e-05 1.5529201e-06 1.5529201e-06
000260 8e a3 67 36 bc f5 9c b5 72 2d 06 37 bd 62 07 37
       3.4516884e-06 -1.1694424e-06 7.9976035e-06 8.069616e-06
000270 93 16 9a 35 93 16 9a 35 57 9c c7 b6 21 70 32 36
       1.1480464e-06 1.1480464e-06 -5.9488625e-06 2.6589335e-06
000280 dc e5 70 b7 16 0e 79 b7 f3 61 81 b7 f3 61 81 b7
       -1.4358633e-05 -1.4844836e-05 -1.542361e-05 -1.542361e-05
000290 4c a1 d4 37 a4 55 ff b5 a9 bc 6f b6 4e e7 60 b6
       2.534748e-05 -1.9023905e-06 -3.572359e-06 -3.3513238e-06
0002a0 42 c1 93 b7 42 c1 93 b7 ab db 73 37 0c e6 30 37
       -1.7613758e-05 -1.7613758e-05 1.4535074e-05 1.0543979e-05
0002b0 92 fe 2c 37 c0 74 30 37 79 ed 98 37 79 ed 98 37
       1.0311271e-05 1.05176005e-05 1.8230394e-05 1.8230394e-05
0002c0 72 14 b3 b7 29 85 b5 b6 28 92 94 36 b8 d5 89 36
       -2.1347983e-05 -5.4097222e-06 4.4277585e-06 4.1077983e-06
0002d0 8d 07 d4 b6 8d 07 d4 b6 97 25 ab 35 9f b4 4f 37
       -6.3189714e-06 -6.3189714e-06 1.2751433e-06 1.2380216e-05
0002e0 13 b4 4d 37 13 b4 4d 37 e1 e2 8b b7 e1 e2 8b b7
       1.2260879e-05 1.2260879e-05 -1.667574e-05 -1.667574e-05
0002f0 e0 71 0f 37 85 b9 7b 37 d8 10 3e b6 97 0f 0b b6
       8.549978e-06 1.50039605e-05 -2.832201e-06 -2.0721689e-06
000300 1a 4b 44 b6 1a 4b 44 b6 22 de 7e 36 7d a7 dc b3
       -2.924999e-06 -2.924999e-06 3.7978248e-06 -1.0275014e-07
000310 5b 75 10 b7 62 09 0b b7 0e 24 4d b6 0e 24 4d b6
       -8.610393e-06 -8.28723e-06 -3.0568367e-06 -3.0568367e-06
000320 b3 00 30 b6 61 b9 0b 37 8e 29 ae b6 00 1f c4 b6
       -2.622645e-06 8.3282075e-06 -5.1904417e-06 -5.844864e-06
000330 a8 16 06 b8 a8 16 06 b8 f4 4e 4f 37 15 5a 2c 38
       -3.196919e-05 -3.196919e-05 1.2356544e-05 4.109189e-05
000340 af a6 c8 35 79 91 4b 36 89 c8 32 b7 89 c8 32 b7
       1.4949673e-06 3.0334033e-06 -1.06563175e-05 -1.06563175e-05
000350 fa 6d 96 37 a6 84 9a 34 47 1a 61 36 a7 53 7d 36
       1.7932605e-05 2.878125e-07 3.3542908e-06 3.774863e-06
000360 1a 5e 22 37 1a 5e 22 37 af 36 83 b7 78 d5 6e 36
       9.677862e-06 9.677862e-06 -1.5641881e-05 3.5589019e-06
000370 37 19 2d b7 d9 67 2e b7 92 2d 02 38 92 2d 02 38
       -1.0317474e-05 -1.0395387e-05 3.1036856e-05 3.1036856e-05
000380 49 e3 e0 b7 65 60 83 b7 0e 79 45 b7 a9 50 4a b7
       -2.6808719e-05 -1.5661304e-05 -1.17703e-05 -1.2058918e-05
000390 32 e3 a2 b6 32 e3 a2 b6 1d 8c 45 37 d2 67 fd b6
       -4.8544252e-06 -4.8544252e-06 1.1774738e-05 -7.552074e-06
0003a0 32 c1 c5 36 9d 45 d1 36 f4 87 0e 37 f4 87 0e 37
       5.8935484e-06 6.2367894e-06 8.495514e-06 8.495514e-06
0003b0 47 f9 42 b7 a9 06 07 b6 27 eb d7 b6 21 80 db b6
       -1.16213405e-05 -2.0120444e-06 -6.4348746e-06 -6.5416248e-06
0003c0 6d 15 19 b7 6d 15 19 b7 0b 46 19 37 9a 72 1c b6
       -9.124499e-06 -9.124499e-06 9.135819e-06 -2.3312518e-06
0003d0 4d c1 9d 37 9d 57 a3 37 bb 90 96 b7 bb 90 96 b7
       1.8805871e-05 1.9471912e-05 -1.7948789e-05 -1.7948789e-05
0003e0 0c 39 84 37 e0 4b 89 37 0f c9 67 b4 3a 90 80 34
       1.576219e-05 1.6367005e-05 -2.1586696e-07 2.3946797e-07
0003f0 08 c9 68 35 08 c9 68 35 3d a6 39 36 72 50 0a b6
       8.6719274e-07 8.6719274e-07 2.7663912e-06 -2.0610428e-06
